#dram = #ttnn.buffer_type<dram>
#loc = loc(unknown)
#loc54 = loc("p0.3")
#loc55 = loc("p1.10")
#loc56 = loc("p2.18")
#loc57 = loc("p3.22")
#loc58 = loc("p4.26")
#loc59 = loc("p5.30")
#loc60 = loc("p6.34")
#loc61 = loc("p7.42")
#loc62 = loc("p8.46")
#loc63 = loc("p9.50")
#loc64 = loc("p10.54")
#loc65 = loc("p11.58")
#loc66 = loc("p12.64")
#loc67 = loc("p13.68")
#loc68 = loc("p14.72")
#loc69 = loc("p15.76")
#loc70 = loc("p16.80")
#loc71 = loc("p17.85")
#loc72 = loc("p18.89")
#loc73 = loc("p19.93")
#loc74 = loc("p20.97")
#loc75 = loc("p21.101")
#loc76 = loc("p22.103")
#loc77 = loc("p23.107")
#loc78 = loc("p24.111")
#loc79 = loc("p25.115")
#loc80 = loc("p26.119")
#loc81 = loc("p27.121")
#loc82 = loc("p28.310")
#loc83 = loc("p29.314")
#loc84 = loc("p30.318")
#loc85 = loc("p31.322")
#loc86 = loc("p32.326")
#loc87 = loc("p33.328")
#loc88 = loc("p34.332")
#loc89 = loc("p35.336")
#loc90 = loc("p36.340")
#loc91 = loc("p37.344")
#loc92 = loc("p38.346")
#loc93 = loc("p39.350")
#loc94 = loc("p40.354")
#loc95 = loc("p41.358")
#loc96 = loc("p42.362")
#loc97 = loc("p43.394")
#loc98 = loc("p44.398")
#loc99 = loc("p45.402")
#loc100 = loc("p46.406")
#loc101 = loc("p47.410")
#loc102 = loc("p48.412")
#loc103 = loc("p49.416")
#loc104 = loc("p50.420")
#loc105 = loc("p51.424")
#loc106 = loc("p52.428")
#loc107 = loc("p53.430")
#loc108 = loc("p54.434")
#loc109 = loc("p55.438")
#loc110 = loc("p56.442")
#loc111 = loc("p57.446")
#loc112 = loc("p58.478")
#loc113 = loc("p59.482")
#loc114 = loc("p60.486")
#loc115 = loc("p61.490")
#loc116 = loc("p62.494")
#loc117 = loc("p63.496")
#loc118 = loc("p64.500")
#loc119 = loc("p65.504")
#loc120 = loc("p66.508")
#loc121 = loc("p67.512")
#loc122 = loc("p68.514")
#loc123 = loc("p69.518")
#loc124 = loc("p70.522")
#loc125 = loc("p71.526")
#loc126 = loc("p72.530")
#loc127 = loc("p73.568")
#loc128 = loc("p74.572")
#loc129 = loc("p75.576")
#loc130 = loc("p76.580")
#loc131 = loc("p77.584")
#loc132 = loc("p78.586")
#loc133 = loc("p79.590")
#loc134 = loc("p80.594")
#loc135 = loc("p81.598")
#loc136 = loc("p82.602")
#loc137 = loc("p83.604")
#loc138 = loc("p84.608")
#loc139 = loc("p85.612")
#loc140 = loc("p86.616")
#loc141 = loc("p87.620")
#loc142 = loc("p88.652")
#loc143 = loc("p89.656")
#loc144 = loc("p90.660")
#loc145 = loc("p91.664")
#loc146 = loc("p92.668")
#loc147 = loc("p93.670")
#loc148 = loc("p94.674")
#loc149 = loc("p95.678")
#loc150 = loc("p96.682")
#loc151 = loc("p97.686")
#loc152 = loc("p98.688")
#loc153 = loc("p99.692")
#loc154 = loc("p100.696")
#loc155 = loc("p101.700")
#loc156 = loc("p102.704")
#loc157 = loc("p103.736")
#loc158 = loc("p104.740")
#loc159 = loc("p105.744")
#loc160 = loc("p106.748")
#loc161 = loc("p107.752")
#loc162 = loc("p108.754")
#loc163 = loc("p109.758")
#loc164 = loc("p110.762")
#loc165 = loc("p111.766")
#loc166 = loc("p112.770")
#loc167 = loc("p113.772")
#loc168 = loc("p114.776")
#loc169 = loc("p115.780")
#loc170 = loc("p116.784")
#loc171 = loc("p117.788")
#loc172 = loc("p118.820")
#loc173 = loc("p119.824")
#loc174 = loc("p120.828")
#loc175 = loc("p121.832")
#loc176 = loc("p122.836")
#loc177 = loc("p123.838")
#loc178 = loc("p124.842")
#loc179 = loc("p125.846")
#loc180 = loc("p126.850")
#loc181 = loc("p127.854")
#loc182 = loc("p128.856")
#loc183 = loc("p129.860")
#loc184 = loc("p130.864")
#loc185 = loc("p131.868")
#loc186 = loc("p132.872")
#loc187 = loc("p133.910")
#loc188 = loc("p134.914")
#loc189 = loc("p135.918")
#loc190 = loc("p136.922")
#loc191 = loc("p137.926")
#loc192 = loc("p138.928")
#loc193 = loc("p139.932")
#loc194 = loc("p140.936")
#loc195 = loc("p141.940")
#loc196 = loc("p142.944")
#loc197 = loc("p143.946")
#loc198 = loc("p144.950")
#loc199 = loc("p145.954")
#loc200 = loc("p146.958")
#loc201 = loc("p147.962")
#loc202 = loc("p148.994")
#loc203 = loc("p149.998")
#loc204 = loc("p150.1002")
#loc205 = loc("p151.1006")
#loc206 = loc("p152.1010")
#loc207 = loc("p153.1012")
#loc208 = loc("p154.1016")
#loc209 = loc("p155.1020")
#loc210 = loc("p156.1024")
#loc211 = loc("p157.1028")
#loc212 = loc("p158.1030")
#loc213 = loc("p159.1034")
#loc214 = loc("p160.1038")
#loc215 = loc("p161.1042")
#loc216 = loc("p162.1046")
#loc217 = loc("p163.1078")
#loc218 = loc("p164.1082")
#loc219 = loc("p165.1086")
#loc220 = loc("p166.1090")
#loc221 = loc("p167.1094")
#loc222 = loc("p168.1096")
#loc223 = loc("p169.1100")
#loc224 = loc("p170.1104")
#loc225 = loc("p171.1108")
#loc226 = loc("p172.1112")
#loc227 = loc("p173.1114")
#loc228 = loc("p174.1118")
#loc229 = loc("p175.1122")
#loc230 = loc("p176.1126")
#loc231 = loc("p177.1130")
#loc232 = loc("p178.1162")
#loc233 = loc("p179.1166")
#loc234 = loc("p180.1170")
#loc235 = loc("p181.1174")
#loc236 = loc("p182.1178")
#loc237 = loc("p183.1180")
#loc238 = loc("p184.1184")
#loc239 = loc("p185.1188")
#loc240 = loc("p186.1192")
#loc241 = loc("p187.1196")
#loc242 = loc("p188.1198")
#loc243 = loc("p189.1202")
#loc244 = loc("p190.1206")
#loc245 = loc("p191.1210")
#loc246 = loc("p192.1214")
#loc247 = loc("p193.1246")
#loc248 = loc("p194.1250")
#loc249 = loc("p195.1254")
#loc250 = loc("p196.1258")
#loc251 = loc("p197.1262")
#loc252 = loc("p198.1264")
#loc253 = loc("p199.1268")
#loc254 = loc("p200.1272")
#loc255 = loc("p201.1276")
#loc256 = loc("p202.1280")
#loc257 = loc("p203.1282")
#loc258 = loc("p204.1286")
#loc259 = loc("p205.1290")
#loc260 = loc("p206.1294")
#loc261 = loc("p207.1298")
#loc262 = loc("p208.1330")
#loc263 = loc("p209.1334")
#loc264 = loc("p210.1338")
#loc265 = loc("p211.1342")
#loc266 = loc("p212.1346")
#loc267 = loc("p213.1348")
#loc268 = loc("p214.1352")
#loc269 = loc("p215.1356")
#loc270 = loc("p216.1360")
#loc271 = loc("p217.1364")
#loc272 = loc("p218.1366")
#loc273 = loc("p219.1370")
#loc274 = loc("p220.1374")
#loc275 = loc("p221.1378")
#loc276 = loc("p222.1382")
#loc277 = loc("p223.1420")
#loc278 = loc("p224.1424")
#loc279 = loc("p225.1428")
#loc280 = loc("p226.1432")
#loc281 = loc("p227.1436")
#loc282 = loc("p228.1438")
#loc283 = loc("p229.1442")
#loc284 = loc("p230.1446")
#loc285 = loc("p231.1450")
#loc286 = loc("p232.1454")
#loc287 = loc("p233.1456")
#loc288 = loc("p234.1460")
#loc289 = loc("p235.1464")
#loc290 = loc("p236.1468")
#loc291 = loc("p237.1472")
#loc292 = loc("p238.1504")
#loc293 = loc("p239.1508")
#loc294 = loc("p240.1512")
#loc295 = loc("p241.1516")
#loc296 = loc("p242.1520")
#loc297 = loc("p243.1522")
#loc298 = loc("p244.1526")
#loc299 = loc("p245.1530")
#loc300 = loc("p246.1534")
#loc301 = loc("p247.1538")
#loc302 = loc("p248.1540")
#loc303 = loc("p249.1544")
#loc304 = loc("p250.1548")
#loc305 = loc("p251.1552")
#loc306 = loc("p252.1556")
#loc307 = loc("p253.1588")
#loc308 = loc("p254.1592")
#loc309 = loc("p255.1596")
#loc310 = loc("p256.1600")
#loc311 = loc("p257.1604")
#loc312 = loc("p258.1606")
#loc313 = loc("p259.1610")
#loc314 = loc("p260.1614")
#loc315 = loc("p261.1618")
#loc316 = loc("p262.1622")
#loc317 = loc("p263.1624")
#loc318 = loc("p264.1628")
#loc319 = loc("p265.1632")
#loc320 = loc("p266.1636")
#loc321 = loc("p267.1640")
#system_desc = #ttcore.system_desc<[{role = host, target_triple = "x86_64-pc-linux"}], [{arch = <blackhole>, grid = 10x13, coord_translation_offsets = 2x1, l1_size = 1572864, num_dram_channels = 8, dram_channel_size = 4278190080, noc_l1_address_align_bytes = 16, pcie_address_align_bytes = 64, noc_dram_address_align_bytes = 64, l1_unreserved_base = 111360, erisc_l1_unreserved_base = 87872, dram_unreserved_base = 5848704, dram_unreserved_end = 4276241280, supported_data_types = [<f32>, <f16>, <bf16>, <bfp_f8>, <bfp_bf8>, <bfp_f4>, <bfp_bf4>, <bfp_f2>, <bfp_bf2>, <u32>, <u16>, <u8>, <si32>], supported_tile_sizes = [ 4x16,  16x16,  32x16,  4x32,  16x32,  32x32], dst_physical_size_tiles = 16, num_cbs = 64, num_compute_threads = 1, num_datamovement_threads = 2, dram_grid = 1x8, dram_bank_to_logical_worker_noc0 = [(9, 0), (0, 0), (7, 0), (3, 0), (9, 7), (1, 7), (6, 7), (4, 7)], dram_bank_to_logical_worker_noc1 = [(9, 0), (0, 0), (7, 0), (3, 0), (9, 7), (1, 7), (6, 7), (4, 7)]}], [0], [1 : i32], [ 0x0x0x0]>
#system_memory = #ttnn.buffer_type<system_memory>
#ttnn_layout = #ttnn.ttnn_layout<(d0) -> (0, d0), <1x1>, memref<1x64xf32, #system_memory>>
#ttnn_layout1 = #ttnn.ttnn_layout<(d0, d1, d2, d3) -> (d0 * 2048 + d1 * 32 + d2, d3), <1x1>, memref<64x1x!ttcore.tile<32x32, f32>, #dram>, <interleaved>>
#ttnn_layout2 = #ttnn.ttnn_layout<(d0) -> (0, d0), <1x1>, memref<1x64xf32, #dram>, <interleaved>>
#ttnn_layout3 = #ttnn.ttnn_layout<(d0) -> (0, d0), <1x1>, memref<1x2x!ttcore.tile<32x32, f32>, #dram>, <interleaved>>
#ttnn_layout4 = #ttnn.ttnn_layout<(d0) -> (0, d0), <1x1>, memref<1x256xf32, #system_memory>>
#ttnn_layout5 = #ttnn.ttnn_layout<(d0, d1, d2, d3) -> (d0 * 8192 + d1 * 32 + d2, d3), <1x1>, memref<256x1x!ttcore.tile<32x32, f32>, #dram>, <interleaved>>
#ttnn_layout6 = #ttnn.ttnn_layout<(d0) -> (0, d0), <1x1>, memref<1x256xf32, #dram>, <interleaved>>
#ttnn_layout7 = #ttnn.ttnn_layout<(d0) -> (0, d0), <1x1>, memref<1x8x!ttcore.tile<32x32, f32>, #dram>, <interleaved>>
#ttnn_layout8 = #ttnn.ttnn_layout<(d0) -> (0, d0), <1x1>, memref<1x128xf32, #system_memory>>
#ttnn_layout9 = #ttnn.ttnn_layout<(d0, d1, d2, d3) -> (d0 * 4096 + d1 * 32 + d2, d3), <1x1>, memref<128x1x!ttcore.tile<32x32, f32>, #dram>, <interleaved>>
#ttnn_layout10 = #ttnn.ttnn_layout<(d0) -> (0, d0), <1x1>, memref<1x128xf32, #dram>, <interleaved>>
#ttnn_layout11 = #ttnn.ttnn_layout<(d0) -> (0, d0), <1x1>, memref<1x4x!ttcore.tile<32x32, f32>, #dram>, <interleaved>>
#ttnn_layout12 = #ttnn.ttnn_layout<(d0) -> (0, d0), <1x1>, memref<1x512xf32, #system_memory>>
#ttnn_layout13 = #ttnn.ttnn_layout<(d0, d1, d2, d3) -> (d0 * 16384 + d1 * 32 + d2, d3), <1x1>, memref<512x1x!ttcore.tile<32x32, f32>, #dram>, <interleaved>>
#ttnn_layout14 = #ttnn.ttnn_layout<(d0) -> (0, d0), <1x1>, memref<1x512xf32, #dram>, <interleaved>>
#ttnn_layout15 = #ttnn.ttnn_layout<(d0) -> (0, d0), <1x1>, memref<1x16x!ttcore.tile<32x32, f32>, #dram>, <interleaved>>
#ttnn_layout16 = #ttnn.ttnn_layout<(d0) -> (0, d0), <1x1>, memref<1x1024xf32, #system_memory>>
#ttnn_layout17 = #ttnn.ttnn_layout<(d0, d1, d2, d3) -> (d0 * 32768 + d1 * 32 + d2, d3), <1x1>, memref<1024x1x!ttcore.tile<32x32, f32>, #dram>, <interleaved>>
#ttnn_layout18 = #ttnn.ttnn_layout<(d0) -> (0, d0), <1x1>, memref<1x1024xf32, #dram>, <interleaved>>
#ttnn_layout19 = #ttnn.ttnn_layout<(d0) -> (0, d0), <1x1>, memref<1x32x!ttcore.tile<32x32, f32>, #dram>, <interleaved>>
#ttnn_layout20 = #ttnn.ttnn_layout<(d0) -> (0, d0), <1x1>, memref<1x2048xf32, #system_memory>>
#ttnn_layout21 = #ttnn.ttnn_layout<(d0, d1, d2, d3) -> (d0 * 65536 + d1 * 32 + d2, d3), <1x1>, memref<2048x1x!ttcore.tile<32x32, f32>, #dram>, <interleaved>>
#ttnn_layout22 = #ttnn.ttnn_layout<(d0) -> (0, d0), <1x1>, memref<1x2048xf32, #dram>, <interleaved>>
#ttnn_layout23 = #ttnn.ttnn_layout<(d0) -> (0, d0), <1x1>, memref<1x64x!ttcore.tile<32x32, f32>, #dram>, <interleaved>>
#ttnn_layout24 = #ttnn.ttnn_layout<(d0, d1) -> (d0, d1), <1x1>, memref<32x64x!ttcore.tile<32x32, f32>, #dram>, <interleaved>>
#ttnn_layout25 = #ttnn.ttnn_layout<(d0, d1, d2, d3) -> (d0 * 1024 + d1 + d2, d3), <1x1>, memref<2097152x1xf32, #system_memory>>
#ttnn_layout26 = #ttnn.ttnn_layout<(d0, d1, d2, d3) -> (d0 * 512 + d1 + d2, d3), <1x1>, memref<524288x1xf32, #system_memory>>
#ttnn_layout27 = #ttnn.ttnn_layout<(d0, d1, d2, d3) -> (d0 * 256 + d1 + d2, d3), <1x1>, memref<131072x1xf32, #system_memory>>
#ttnn_layout28 = #ttnn.ttnn_layout<(d0, d1, d2, d3) -> (d0 * 64 + d1 + d2, d3), <1x1>, memref<16384x1xf32, #system_memory>>
#ttnn_layout29 = #ttnn.ttnn_layout<(d0, d1, d2, d3) -> (d0 * 21 + d1 * 7 + d2, d3), <1x1>, memref<1344x7xf32, #system_memory>>
#ttnn_layout30 = #ttnn.ttnn_layout<(d0, d1, d2, d3) -> (d0 * 672 + d1 * 224 + d2, d3), <1x1>, memref<672x224xf32, #dram>, <interleaved>>
#ttnn_layout31 = #ttnn.ttnn_layout<(d0, d1, d2, d3) -> (d0 * 192 + d1 * 3 + d2, d3), <1x1>, memref<12288x3xf32, #system_memory>>
#ttnn_layout32 = #ttnn.ttnn_layout<(d0, d1, d2, d3) -> (d0 * 64 + d1 + d2, d3), <1x1>, memref<4096x1xf32, #system_memory>>
#ttnn_layout33 = #ttnn.ttnn_layout<(d0, d1, d2, d3) -> (d0 * 256 + d1 + d2, d3), <1x1>, memref<16384x1xf32, #system_memory>>
#ttnn_layout34 = #ttnn.ttnn_layout<(d0, d1, d2, d3) -> (d0 * 128 + d1 + d2, d3), <1x1>, memref<65536x1xf32, #system_memory>>
#ttnn_layout35 = #ttnn.ttnn_layout<(d0, d1, d2, d3) -> (d0 * 384 + d1 * 3 + d2, d3), <1x1>, memref<49152x3xf32, #system_memory>>
#ttnn_layout36 = #ttnn.ttnn_layout<(d0, d1, d2, d3) -> (d0 * 256 + d1 + d2, d3), <1x1>, memref<32768x1xf32, #system_memory>>
#ttnn_layout37 = #ttnn.ttnn_layout<(d0, d1, d2, d3) -> (d0 * 512 + d1 + d2, d3), <1x1>, memref<65536x1xf32, #system_memory>>
#ttnn_layout38 = #ttnn.ttnn_layout<(d0, d1, d2, d3) -> (d0 * 256 + d1 + d2, d3), <1x1>, memref<262144x1xf32, #system_memory>>
#ttnn_layout39 = #ttnn.ttnn_layout<(d0, d1, d2, d3) -> (d0 * 768 + d1 * 3 + d2, d3), <1x1>, memref<196608x3xf32, #system_memory>>
#ttnn_layout40 = #ttnn.ttnn_layout<(d0, d1, d2, d3) -> (d0 * 512 + d1 + d2, d3), <1x1>, memref<131072x1xf32, #system_memory>>
#ttnn_layout41 = #ttnn.ttnn_layout<(d0, d1, d2, d3) -> (d0 * 1024 + d1 + d2, d3), <1x1>, memref<262144x1xf32, #system_memory>>
#ttnn_layout42 = #ttnn.ttnn_layout<(d0, d1, d2, d3) -> (d0 * 512 + d1 + d2, d3), <1x1>, memref<1048576x1xf32, #system_memory>>
#ttnn_layout43 = #ttnn.ttnn_layout<(d0, d1, d2, d3) -> (d0 * 1536 + d1 * 3 + d2, d3), <1x1>, memref<786432x3xf32, #system_memory>>
#ttnn_layout44 = #ttnn.ttnn_layout<(d0, d1, d2, d3) -> (d0 * 1024 + d1 + d2, d3), <1x1>, memref<524288x1xf32, #system_memory>>
#ttnn_layout45 = #ttnn.ttnn_layout<(d0, d1, d2, d3) -> (d0 * 2048 + d1 + d2, d3), <1x1>, memref<1048576x1xf32, #system_memory>>
#ttnn_layout46 = #ttnn.ttnn_layout<(d0, d1) -> (d0, d1), <1x1>, memref<1x32x!ttcore.tile<32x32, f32>, #dram>, <interleaved>>
#ttnn_layout47 = #ttnn.ttnn_layout<(d0, d1, d2, d3) -> (d0 * 672 + d1 * 224 + d2, d3), <1x1>, memref<21x7x!ttcore.tile<32x32, f32>, #dram>, <interleaved>>
#ttnn_layout48 = #ttnn.ttnn_layout<(d0, d1, d2, d3) -> (d0 * 50176 + d1 * 224 + d2, d3), <1x1>, memref<1568x1x!ttcore.tile<32x32, f32>, #dram>, <interleaved>>
#ttnn_layout49 = #ttnn.ttnn_layout<(d0, d1, d2, d3) -> (d0 * 50176 + d1 * 50176 + d2, d3), <1x1>, memref<1568x1x!ttcore.tile<32x32, f32>, #dram>, <interleaved>>
#ttnn_layout50 = #ttnn.ttnn_layout<(d0, d1, d2, d3) -> (d0 * 50176 + d1 * 50176 + d2, d3), <1x1>, memref<50176x3xf32, #dram>, <interleaved>>
#ttnn_layout51 = #ttnn.ttnn_layout<(d0, d1, d2, d3) -> (d0 * 12544 + d1 * 12544 + d2, d3), <1x1>, memref<392x2x!ttcore.tile<32x32, f32>, #dram>, <interleaved>>
#ttnn_layout52 = #ttnn.ttnn_layout<(d0, d1, d2, d3) -> (d0 * 14336 + d1 * 128 + d2, d3), <1x1>, memref<448x2x!ttcore.tile<32x32, f32>, #dram>, <interleaved>>
#ttnn_layout53 = #ttnn.ttnn_layout<(d0, d1, d2, d3) -> (d0 * 8192 + d1 * 128 + d2, d3), <1x1>, memref<256x4x!ttcore.tile<32x32, f32>, #dram>, <interleaved>>
#ttnn_layout54 = #ttnn.ttnn_layout<(d0, d1, d2, d3) -> (d0 * 12544 + d1 * 12544 + d2, d3), <1x1>, memref<392x2x!ttcore.tile<32x32, bf16>, #dram>, <interleaved>>
#ttnn_layout55 = #ttnn.ttnn_layout<(d0, d1, d2, d3) -> (d0 * 12544 + d1 * 12544 + d2, d3), <1x1>, memref<12544x64xbf16, #dram>, <interleaved>>
#ttnn_layout56 = #ttnn.ttnn_layout<(d0, d1, d2, d3) -> (d0 * 3136 + d1 * 3136 + d2, d3), <1x1>, memref<3136x64xbf16, #dram>, <interleaved>>
#ttnn_layout57 = #ttnn.ttnn_layout<(d0, d1, d2, d3) -> (d0 * 3136 + d1 * 3136 + d2, d3), <1x1>, memref<3136x64xf32, #dram>, <interleaved>>
#ttnn_layout58 = #ttnn.ttnn_layout<(d0, d1, d2, d3) -> (d0 * 3136 + d1 * 3136 + d2, d3), <1x1>, memref<98x2x!ttcore.tile<32x32, f32>, #dram>, <interleaved>>
#ttnn_layout59 = #ttnn.ttnn_layout<(d0, d1, d2, d3) -> (d0 * 3584 + d1 * 64 + d2, d3), <1x1>, memref<112x2x!ttcore.tile<32x32, f32>, #dram>, <interleaved>>
#ttnn_layout60 = #ttnn.ttnn_layout<(d0, d1, d2, d3) -> (d0 * 4096 + d1 * 64 + d2, d3), <1x1>, memref<128x2x!ttcore.tile<32x32, f32>, #dram>, <interleaved>>
#ttnn_layout61 = #ttnn.ttnn_layout<(d0, d1, d2, d3) -> (d0 * 3136 + d1 * 3136 + d2, d3), <1x1>, memref<98x8x!ttcore.tile<32x32, f32>, #dram>, <interleaved>>
#ttnn_layout62 = #ttnn.ttnn_layout<(d0, d1, d2, d3) -> (d0 * 3584 + d1 * 64 + d2, d3), <1x1>, memref<112x8x!ttcore.tile<32x32, f32>, #dram>, <interleaved>>
#ttnn_layout63 = #ttnn.ttnn_layout<(d0, d1, d2, d3) -> (d0 * 16384 + d1 * 64 + d2, d3), <1x1>, memref<512x2x!ttcore.tile<32x32, f32>, #dram>, <interleaved>>
#ttnn_layout64 = #ttnn.ttnn_layout<(d0, d1, d2, d3) -> (d0 * 3136 + d1 * 3136 + d2, d3), <1x1>, memref<3136x256xf32, #dram>, <interleaved>>
#ttnn_layout65 = #ttnn.ttnn_layout<(d0, d1, d2, d3) -> (d0 * 3136 + d1 * 3136 + d2, d3), <1x1>, memref<98x4x!ttcore.tile<32x32, f32>, #dram>, <interleaved>>
#ttnn_layout66 = #ttnn.ttnn_layout<(d0, d1, d2, d3) -> (d0 * 3584 + d1 * 64 + d2, d3), <1x1>, memref<112x4x!ttcore.tile<32x32, f32>, #dram>, <interleaved>>
#ttnn_layout67 = #ttnn.ttnn_layout<(d0, d1, d2, d3) -> (d0 * 8192 + d1 * 64 + d2, d3), <1x1>, memref<256x2x!ttcore.tile<32x32, f32>, #dram>, <interleaved>>
#ttnn_layout68 = #ttnn.ttnn_layout<(d0, d1, d2, d3) -> (d0 * 3136 + d1 * 3136 + d2, d3), <1x1>, memref<3136x128xf32, #dram>, <interleaved>>
#ttnn_layout69 = #ttnn.ttnn_layout<(d0, d1, d2, d3) -> (d0 * 800 + d1 * 800 + d2, d3), <1x1>, memref<25x4x!ttcore.tile<32x32, f32>, #dram>, <interleaved>>
#ttnn_layout70 = #ttnn.ttnn_layout<(d0, d1, d2, d3) -> (d0 * 896 + d1 * 32 + d2, d3), <1x1>, memref<28x4x!ttcore.tile<32x32, f32>, #dram>, <interleaved>>
#ttnn_layout71 = #ttnn.ttnn_layout<(d0, d1, d2, d3) -> (d0 * 784 + d1 * 784 + d2, d3), <1x1>, memref<784x128xf32, #dram>, <interleaved>>
#ttnn_layout72 = #ttnn.ttnn_layout<(d0, d1, d2, d3) -> (d0 * 800 + d1 * 800 + d2, d3), <1x1>, memref<25x16x!ttcore.tile<32x32, f32>, #dram>, <interleaved>>
#ttnn_layout73 = #ttnn.ttnn_layout<(d0, d1, d2, d3) -> (d0 * 896 + d1 * 32 + d2, d3), <1x1>, memref<28x16x!ttcore.tile<32x32, f32>, #dram>, <interleaved>>
#ttnn_layout74 = #ttnn.ttnn_layout<(d0, d1, d2, d3) -> (d0 * 784 + d1 * 784 + d2, d3), <1x1>, memref<784x512xf32, #dram>, <interleaved>>
#ttnn_layout75 = #ttnn.ttnn_layout<(d0, d1, d2, d3) -> (d0 * 800 + d1 * 800 + d2, d3), <1x1>, memref<25x8x!ttcore.tile<32x32, f32>, #dram>, <interleaved>>
#ttnn_layout76 = #ttnn.ttnn_layout<(d0, d1, d2, d3) -> (d0 * 896 + d1 * 32 + d2, d3), <1x1>, memref<28x8x!ttcore.tile<32x32, f32>, #dram>, <interleaved>>
#ttnn_layout77 = #ttnn.ttnn_layout<(d0, d1, d2, d3) -> (d0 * 784 + d1 * 784 + d2, d3), <1x1>, memref<784x256xf32, #dram>, <interleaved>>
#ttnn_layout78 = #ttnn.ttnn_layout<(d0, d1, d2, d3) -> (d0 * 224 + d1 * 224 + d2, d3), <1x1>, memref<7x8x!ttcore.tile<32x32, f32>, #dram>, <interleaved>>
#ttnn_layout79 = #ttnn.ttnn_layout<(d0, d1, d2, d3) -> (d0 * 448 + d1 * 32 + d2, d3), <1x1>, memref<14x8x!ttcore.tile<32x32, f32>, #dram>, <interleaved>>
#ttnn_layout80 = #ttnn.ttnn_layout<(d0, d1, d2, d3) -> (d0 * 196 + d1 * 196 + d2, d3), <1x1>, memref<196x256xf32, #dram>, <interleaved>>
#ttnn_layout81 = #ttnn.ttnn_layout<(d0, d1, d2, d3) -> (d0 * 224 + d1 * 224 + d2, d3), <1x1>, memref<7x32x!ttcore.tile<32x32, f32>, #dram>, <interleaved>>
#ttnn_layout82 = #ttnn.ttnn_layout<(d0, d1, d2, d3) -> (d0 * 448 + d1 * 32 + d2, d3), <1x1>, memref<14x32x!ttcore.tile<32x32, f32>, #dram>, <interleaved>>
#ttnn_layout83 = #ttnn.ttnn_layout<(d0, d1, d2, d3) -> (d0 * 196 + d1 * 196 + d2, d3), <1x1>, memref<196x1024xf32, #dram>, <interleaved>>
#ttnn_layout84 = #ttnn.ttnn_layout<(d0, d1, d2, d3) -> (d0 * 224 + d1 * 224 + d2, d3), <1x1>, memref<7x16x!ttcore.tile<32x32, f32>, #dram>, <interleaved>>
#ttnn_layout85 = #ttnn.ttnn_layout<(d0, d1, d2, d3) -> (d0 * 448 + d1 * 32 + d2, d3), <1x1>, memref<14x16x!ttcore.tile<32x32, f32>, #dram>, <interleaved>>
#ttnn_layout86 = #ttnn.ttnn_layout<(d0, d1, d2, d3) -> (d0 * 196 + d1 * 196 + d2, d3), <1x1>, memref<196x512xf32, #dram>, <interleaved>>
#ttnn_layout87 = #ttnn.ttnn_layout<(d0, d1, d2, d3) -> (d0 * 64 + d1 * 64 + d2, d3), <1x1>, memref<2x16x!ttcore.tile<32x32, f32>, #dram>, <interleaved>>
#ttnn_layout88 = #ttnn.ttnn_layout<(d0, d1, d2, d3) -> (d0 * 224 + d1 * 32 + d2, d3), <1x1>, memref<7x16x!ttcore.tile<32x32, f32>, #dram>, <interleaved>>
#ttnn_layout89 = #ttnn.ttnn_layout<(d0, d1, d2, d3) -> (d0 * 49 + d1 * 49 + d2, d3), <1x1>, memref<49x512xf32, #dram>, <interleaved>>
#ttnn_layout90 = #ttnn.ttnn_layout<(d0, d1, d2, d3) -> (d0 * 64 + d1 * 64 + d2, d3), <1x1>, memref<2x64x!ttcore.tile<32x32, f32>, #dram>, <interleaved>>
#ttnn_layout91 = #ttnn.ttnn_layout<(d0, d1, d2, d3) -> (d0 * 224 + d1 * 32 + d2, d3), <1x1>, memref<7x64x!ttcore.tile<32x32, f32>, #dram>, <interleaved>>
#ttnn_layout92 = #ttnn.ttnn_layout<(d0, d1, d2, d3) -> (d0 * 49 + d1 * 49 + d2, d3), <1x1>, memref<49x2048xf32, #dram>, <interleaved>>
#ttnn_layout93 = #ttnn.ttnn_layout<(d0, d1) -> (d0, d1), <1x1>, memref<1x64x!ttcore.tile<32x32, f32>, #dram>, <interleaved>>
module @SyncTensorsGraph.1698 attributes {mhlo.cross_program_prefetches = [], mhlo.input_output_alias = [], mhlo.is_dynamic = false, mhlo.use_auto_spmd_partitioning = false, ttcore.meshes = #ttcore.meshes<[<"mesh" = 1x1>]>} {
  ttcore.device_module {
    builtin.module @SyncTensorsGraph.1698 attributes {mhlo.cross_program_prefetches = [], mhlo.input_output_alias = [], mhlo.is_dynamic = false, mhlo.use_auto_spmd_partitioning = false, ttcore.meshes = #ttcore.meshes<[<"mesh" = 1x1>]>, ttcore.system_desc = #system_desc, ttnn.l1_const_eval_usage = 1024 : ui64} {
      ttcore.device @default_device = <workerGrid = #ttcore.grid<10x13, virt_to_physical_map = (d0, d1) -> (0, d0, d1), physical_to_virt_map = (d0, d1, d2) -> (d1, d2)>, dramGrid = #ttcore.grid<1x8>, l1Map = (d0, d1, d2)[s0] -> (0, d0, d1, d2 + s0), dramMap = (d0, d1, d2)[s0, s1, s2, s3, s4, s5, s6] -> (0, 0, (((d0 * s1) * (s2 * (s3 * s6)) + d1 * (s2 * (s3 * s6)) + d2) floordiv s4) mod 8, ((((d0 * s1) * (s2 * (s3 * s6)) + d1 * (s2 * (s3 * s6)) + d2) floordiv s4) floordiv 8) * s4 + ((d0 * s1) * (s2 * (s3 * s6)) + d1 * (s2 * (s3 * s6)) + d2) mod s4 + s5), meshShape = 1x1, chipIds = [0]> loc(#loc)
      func.func private @main_const_eval_0(%arg0: tensor<64xf32, #ttnn_layout> loc(unknown)) -> tensor<1x64x1x1xf32, #ttnn_layout1> attributes {tt.function_type = "const_eval"} {
        %0 = "ttnn.get_device"() <{mesh_offset = #ttnn<mesh_offset 0x0>, mesh_shape = #ttnn<mesh_shape 1x1>}> : () -> !ttnn.device loc(#loc)
        %1 = "ttnn.to_device"(%arg0, %0) : (tensor<64xf32, #ttnn_layout>, !ttnn.device) -> tensor<64xf32, #ttnn_layout2> loc(#loc)
        %2 = "ttnn.to_layout"(%1) <{layout = #ttnn.layout<tile>}> : (tensor<64xf32, #ttnn_layout2>) -> tensor<64xf32, #ttnn_layout3> loc(#loc)
        "ttnn.deallocate"(%1) <{force = false}> : (tensor<64xf32, #ttnn_layout2>) -> () loc(#loc)
        %3 = "ttnn.reshape"(%2) <{shape = [1 : i32, 64 : i32, 1 : i32, 1 : i32]}> : (tensor<64xf32, #ttnn_layout3>) -> tensor<1x64x1x1xf32, #ttnn_layout1> loc(#loc1)
        "ttnn.deallocate"(%2) <{force = false}> : (tensor<64xf32, #ttnn_layout3>) -> () loc(#loc1)
        return %3 : tensor<1x64x1x1xf32, #ttnn_layout1> loc(#loc)
      } loc(#loc)
      func.func private @main_const_eval_1(%arg0: tensor<256xf32, #ttnn_layout4> loc(unknown)) -> tensor<1x256x1x1xf32, #ttnn_layout5> attributes {tt.function_type = "const_eval"} {
        %0 = "ttnn.get_device"() <{mesh_offset = #ttnn<mesh_offset 0x0>, mesh_shape = #ttnn<mesh_shape 1x1>}> : () -> !ttnn.device loc(#loc)
        %1 = "ttnn.to_device"(%arg0, %0) : (tensor<256xf32, #ttnn_layout4>, !ttnn.device) -> tensor<256xf32, #ttnn_layout6> loc(#loc)
        %2 = "ttnn.to_layout"(%1) <{layout = #ttnn.layout<tile>}> : (tensor<256xf32, #ttnn_layout6>) -> tensor<256xf32, #ttnn_layout7> loc(#loc)
        "ttnn.deallocate"(%1) <{force = false}> : (tensor<256xf32, #ttnn_layout6>) -> () loc(#loc)
        %3 = "ttnn.reshape"(%2) <{shape = [1 : i32, 256 : i32, 1 : i32, 1 : i32]}> : (tensor<256xf32, #ttnn_layout7>) -> tensor<1x256x1x1xf32, #ttnn_layout5> loc(#loc2)
        "ttnn.deallocate"(%2) <{force = false}> : (tensor<256xf32, #ttnn_layout7>) -> () loc(#loc2)
        return %3 : tensor<1x256x1x1xf32, #ttnn_layout5> loc(#loc)
      } loc(#loc)
      func.func private @main_const_eval_2(%arg0: tensor<64xf32, #ttnn_layout> loc(unknown)) -> tensor<1x64x1x1xf32, #ttnn_layout1> attributes {tt.function_type = "const_eval"} {
        %0 = "ttnn.get_device"() <{mesh_offset = #ttnn<mesh_offset 0x0>, mesh_shape = #ttnn<mesh_shape 1x1>}> : () -> !ttnn.device loc(#loc)
        %1 = "ttnn.to_device"(%arg0, %0) : (tensor<64xf32, #ttnn_layout>, !ttnn.device) -> tensor<64xf32, #ttnn_layout2> loc(#loc)
        %2 = "ttnn.to_layout"(%1) <{layout = #ttnn.layout<tile>}> : (tensor<64xf32, #ttnn_layout2>) -> tensor<64xf32, #ttnn_layout3> loc(#loc)
        "ttnn.deallocate"(%1) <{force = false}> : (tensor<64xf32, #ttnn_layout2>) -> () loc(#loc)
        %3 = "ttnn.reshape"(%2) <{shape = [1 : i32, 64 : i32, 1 : i32, 1 : i32]}> : (tensor<64xf32, #ttnn_layout3>) -> tensor<1x64x1x1xf32, #ttnn_layout1> loc(#loc3)
        "ttnn.deallocate"(%2) <{force = false}> : (tensor<64xf32, #ttnn_layout3>) -> () loc(#loc3)
        return %3 : tensor<1x64x1x1xf32, #ttnn_layout1> loc(#loc)
      } loc(#loc)
      func.func private @main_const_eval_3(%arg0: tensor<128xf32, #ttnn_layout8> loc(unknown)) -> tensor<1x128x1x1xf32, #ttnn_layout9> attributes {tt.function_type = "const_eval"} {
        %0 = "ttnn.get_device"() <{mesh_offset = #ttnn<mesh_offset 0x0>, mesh_shape = #ttnn<mesh_shape 1x1>}> : () -> !ttnn.device loc(#loc)
        %1 = "ttnn.to_device"(%arg0, %0) : (tensor<128xf32, #ttnn_layout8>, !ttnn.device) -> tensor<128xf32, #ttnn_layout10> loc(#loc)
        %2 = "ttnn.to_layout"(%1) <{layout = #ttnn.layout<tile>}> : (tensor<128xf32, #ttnn_layout10>) -> tensor<128xf32, #ttnn_layout11> loc(#loc)
        "ttnn.deallocate"(%1) <{force = false}> : (tensor<128xf32, #ttnn_layout10>) -> () loc(#loc)
        %3 = "ttnn.reshape"(%2) <{shape = [1 : i32, 128 : i32, 1 : i32, 1 : i32]}> : (tensor<128xf32, #ttnn_layout11>) -> tensor<1x128x1x1xf32, #ttnn_layout9> loc(#loc4)
        "ttnn.deallocate"(%2) <{force = false}> : (tensor<128xf32, #ttnn_layout11>) -> () loc(#loc4)
        return %3 : tensor<1x128x1x1xf32, #ttnn_layout9> loc(#loc)
      } loc(#loc)
      func.func private @main_const_eval_4(%arg0: tensor<512xf32, #ttnn_layout12> loc(unknown)) -> tensor<1x512x1x1xf32, #ttnn_layout13> attributes {tt.function_type = "const_eval"} {
        %0 = "ttnn.get_device"() <{mesh_offset = #ttnn<mesh_offset 0x0>, mesh_shape = #ttnn<mesh_shape 1x1>}> : () -> !ttnn.device loc(#loc)
        %1 = "ttnn.to_device"(%arg0, %0) : (tensor<512xf32, #ttnn_layout12>, !ttnn.device) -> tensor<512xf32, #ttnn_layout14> loc(#loc)
        %2 = "ttnn.to_layout"(%1) <{layout = #ttnn.layout<tile>}> : (tensor<512xf32, #ttnn_layout14>) -> tensor<512xf32, #ttnn_layout15> loc(#loc)
        "ttnn.deallocate"(%1) <{force = false}> : (tensor<512xf32, #ttnn_layout14>) -> () loc(#loc)
        %3 = "ttnn.reshape"(%2) <{shape = [1 : i32, 512 : i32, 1 : i32, 1 : i32]}> : (tensor<512xf32, #ttnn_layout15>) -> tensor<1x512x1x1xf32, #ttnn_layout13> loc(#loc5)
        "ttnn.deallocate"(%2) <{force = false}> : (tensor<512xf32, #ttnn_layout15>) -> () loc(#loc5)
        return %3 : tensor<1x512x1x1xf32, #ttnn_layout13> loc(#loc)
      } loc(#loc)
      func.func private @main_const_eval_5(%arg0: tensor<512xf32, #ttnn_layout12> loc(unknown)) -> tensor<1x512x1x1xf32, #ttnn_layout13> attributes {tt.function_type = "const_eval"} {
        %0 = "ttnn.get_device"() <{mesh_offset = #ttnn<mesh_offset 0x0>, mesh_shape = #ttnn<mesh_shape 1x1>}> : () -> !ttnn.device loc(#loc)
        %1 = "ttnn.to_device"(%arg0, %0) : (tensor<512xf32, #ttnn_layout12>, !ttnn.device) -> tensor<512xf32, #ttnn_layout14> loc(#loc)
        %2 = "ttnn.to_layout"(%1) <{layout = #ttnn.layout<tile>}> : (tensor<512xf32, #ttnn_layout14>) -> tensor<512xf32, #ttnn_layout15> loc(#loc)
        "ttnn.deallocate"(%1) <{force = false}> : (tensor<512xf32, #ttnn_layout14>) -> () loc(#loc)
        %3 = "ttnn.reshape"(%2) <{shape = [1 : i32, 512 : i32, 1 : i32, 1 : i32]}> : (tensor<512xf32, #ttnn_layout15>) -> tensor<1x512x1x1xf32, #ttnn_layout13> loc(#loc6)
        "ttnn.deallocate"(%2) <{force = false}> : (tensor<512xf32, #ttnn_layout15>) -> () loc(#loc6)
        return %3 : tensor<1x512x1x1xf32, #ttnn_layout13> loc(#loc)
      } loc(#loc)
      func.func private @main_const_eval_6(%arg0: tensor<256xf32, #ttnn_layout4> loc(unknown)) -> tensor<1x256x1x1xf32, #ttnn_layout5> attributes {tt.function_type = "const_eval"} {
        %0 = "ttnn.get_device"() <{mesh_offset = #ttnn<mesh_offset 0x0>, mesh_shape = #ttnn<mesh_shape 1x1>}> : () -> !ttnn.device loc(#loc)
        %1 = "ttnn.to_device"(%arg0, %0) : (tensor<256xf32, #ttnn_layout4>, !ttnn.device) -> tensor<256xf32, #ttnn_layout6> loc(#loc)
        %2 = "ttnn.to_layout"(%1) <{layout = #ttnn.layout<tile>}> : (tensor<256xf32, #ttnn_layout6>) -> tensor<256xf32, #ttnn_layout7> loc(#loc)
        "ttnn.deallocate"(%1) <{force = false}> : (tensor<256xf32, #ttnn_layout6>) -> () loc(#loc)
        %3 = "ttnn.reshape"(%2) <{shape = [1 : i32, 256 : i32, 1 : i32, 1 : i32]}> : (tensor<256xf32, #ttnn_layout7>) -> tensor<1x256x1x1xf32, #ttnn_layout5> loc(#loc7)
        "ttnn.deallocate"(%2) <{force = false}> : (tensor<256xf32, #ttnn_layout7>) -> () loc(#loc7)
        return %3 : tensor<1x256x1x1xf32, #ttnn_layout5> loc(#loc)
      } loc(#loc)
      func.func private @main_const_eval_7(%arg0: tensor<512xf32, #ttnn_layout12> loc(unknown)) -> tensor<1x512x1x1xf32, #ttnn_layout13> attributes {tt.function_type = "const_eval"} {
        %0 = "ttnn.get_device"() <{mesh_offset = #ttnn<mesh_offset 0x0>, mesh_shape = #ttnn<mesh_shape 1x1>}> : () -> !ttnn.device loc(#loc)
        %1 = "ttnn.to_device"(%arg0, %0) : (tensor<512xf32, #ttnn_layout12>, !ttnn.device) -> tensor<512xf32, #ttnn_layout14> loc(#loc)
        %2 = "ttnn.to_layout"(%1) <{layout = #ttnn.layout<tile>}> : (tensor<512xf32, #ttnn_layout14>) -> tensor<512xf32, #ttnn_layout15> loc(#loc)
        "ttnn.deallocate"(%1) <{force = false}> : (tensor<512xf32, #ttnn_layout14>) -> () loc(#loc)
        %3 = "ttnn.reshape"(%2) <{shape = [1 : i32, 512 : i32, 1 : i32, 1 : i32]}> : (tensor<512xf32, #ttnn_layout15>) -> tensor<1x512x1x1xf32, #ttnn_layout13> loc(#loc8)
        "ttnn.deallocate"(%2) <{force = false}> : (tensor<512xf32, #ttnn_layout15>) -> () loc(#loc8)
        return %3 : tensor<1x512x1x1xf32, #ttnn_layout13> loc(#loc)
      } loc(#loc)
      func.func private @main_const_eval_8(%arg0: tensor<64xf32, #ttnn_layout> loc(unknown)) -> tensor<1x64x1x1xf32, #ttnn_layout1> attributes {tt.function_type = "const_eval"} {
        %0 = "ttnn.get_device"() <{mesh_offset = #ttnn<mesh_offset 0x0>, mesh_shape = #ttnn<mesh_shape 1x1>}> : () -> !ttnn.device loc(#loc)
        %1 = "ttnn.to_device"(%arg0, %0) : (tensor<64xf32, #ttnn_layout>, !ttnn.device) -> tensor<64xf32, #ttnn_layout2> loc(#loc)
        %2 = "ttnn.to_layout"(%1) <{layout = #ttnn.layout<tile>}> : (tensor<64xf32, #ttnn_layout2>) -> tensor<64xf32, #ttnn_layout3> loc(#loc)
        "ttnn.deallocate"(%1) <{force = false}> : (tensor<64xf32, #ttnn_layout2>) -> () loc(#loc)
        %3 = "ttnn.reshape"(%2) <{shape = [1 : i32, 64 : i32, 1 : i32, 1 : i32]}> : (tensor<64xf32, #ttnn_layout3>) -> tensor<1x64x1x1xf32, #ttnn_layout1> loc(#loc9)
        "ttnn.deallocate"(%2) <{force = false}> : (tensor<64xf32, #ttnn_layout3>) -> () loc(#loc9)
        return %3 : tensor<1x64x1x1xf32, #ttnn_layout1> loc(#loc)
      } loc(#loc)
      func.func private @main_const_eval_9(%arg0: tensor<128xf32, #ttnn_layout8> loc(unknown)) -> tensor<1x128x1x1xf32, #ttnn_layout9> attributes {tt.function_type = "const_eval"} {
        %0 = "ttnn.get_device"() <{mesh_offset = #ttnn<mesh_offset 0x0>, mesh_shape = #ttnn<mesh_shape 1x1>}> : () -> !ttnn.device loc(#loc)
        %1 = "ttnn.to_device"(%arg0, %0) : (tensor<128xf32, #ttnn_layout8>, !ttnn.device) -> tensor<128xf32, #ttnn_layout10> loc(#loc)
        %2 = "ttnn.to_layout"(%1) <{layout = #ttnn.layout<tile>}> : (tensor<128xf32, #ttnn_layout10>) -> tensor<128xf32, #ttnn_layout11> loc(#loc)
        "ttnn.deallocate"(%1) <{force = false}> : (tensor<128xf32, #ttnn_layout10>) -> () loc(#loc)
        %3 = "ttnn.reshape"(%2) <{shape = [1 : i32, 128 : i32, 1 : i32, 1 : i32]}> : (tensor<128xf32, #ttnn_layout11>) -> tensor<1x128x1x1xf32, #ttnn_layout9> loc(#loc10)
        "ttnn.deallocate"(%2) <{force = false}> : (tensor<128xf32, #ttnn_layout11>) -> () loc(#loc10)
        return %3 : tensor<1x128x1x1xf32, #ttnn_layout9> loc(#loc)
      } loc(#loc)
      func.func private @main_const_eval_10(%arg0: tensor<128xf32, #ttnn_layout8> loc(unknown)) -> tensor<1x128x1x1xf32, #ttnn_layout9> attributes {tt.function_type = "const_eval"} {
        %0 = "ttnn.get_device"() <{mesh_offset = #ttnn<mesh_offset 0x0>, mesh_shape = #ttnn<mesh_shape 1x1>}> : () -> !ttnn.device loc(#loc)
        %1 = "ttnn.to_device"(%arg0, %0) : (tensor<128xf32, #ttnn_layout8>, !ttnn.device) -> tensor<128xf32, #ttnn_layout10> loc(#loc)
        %2 = "ttnn.to_layout"(%1) <{layout = #ttnn.layout<tile>}> : (tensor<128xf32, #ttnn_layout10>) -> tensor<128xf32, #ttnn_layout11> loc(#loc)
        "ttnn.deallocate"(%1) <{force = false}> : (tensor<128xf32, #ttnn_layout10>) -> () loc(#loc)
        %3 = "ttnn.reshape"(%2) <{shape = [1 : i32, 128 : i32, 1 : i32, 1 : i32]}> : (tensor<128xf32, #ttnn_layout11>) -> tensor<1x128x1x1xf32, #ttnn_layout9> loc(#loc11)
        "ttnn.deallocate"(%2) <{force = false}> : (tensor<128xf32, #ttnn_layout11>) -> () loc(#loc11)
        return %3 : tensor<1x128x1x1xf32, #ttnn_layout9> loc(#loc)
      } loc(#loc)
      func.func private @main_const_eval_11(%arg0: tensor<256xf32, #ttnn_layout4> loc(unknown)) -> tensor<1x256x1x1xf32, #ttnn_layout5> attributes {tt.function_type = "const_eval"} {
        %0 = "ttnn.get_device"() <{mesh_offset = #ttnn<mesh_offset 0x0>, mesh_shape = #ttnn<mesh_shape 1x1>}> : () -> !ttnn.device loc(#loc)
        %1 = "ttnn.to_device"(%arg0, %0) : (tensor<256xf32, #ttnn_layout4>, !ttnn.device) -> tensor<256xf32, #ttnn_layout6> loc(#loc)
        %2 = "ttnn.to_layout"(%1) <{layout = #ttnn.layout<tile>}> : (tensor<256xf32, #ttnn_layout6>) -> tensor<256xf32, #ttnn_layout7> loc(#loc)
        "ttnn.deallocate"(%1) <{force = false}> : (tensor<256xf32, #ttnn_layout6>) -> () loc(#loc)
        %3 = "ttnn.reshape"(%2) <{shape = [1 : i32, 256 : i32, 1 : i32, 1 : i32]}> : (tensor<256xf32, #ttnn_layout7>) -> tensor<1x256x1x1xf32, #ttnn_layout5> loc(#loc12)
        "ttnn.deallocate"(%2) <{force = false}> : (tensor<256xf32, #ttnn_layout7>) -> () loc(#loc12)
        return %3 : tensor<1x256x1x1xf32, #ttnn_layout5> loc(#loc)
      } loc(#loc)
      func.func private @main_const_eval_12(%arg0: tensor<1024xf32, #ttnn_layout16> loc(unknown)) -> tensor<1x1024x1x1xf32, #ttnn_layout17> attributes {tt.function_type = "const_eval"} {
        %0 = "ttnn.get_device"() <{mesh_offset = #ttnn<mesh_offset 0x0>, mesh_shape = #ttnn<mesh_shape 1x1>}> : () -> !ttnn.device loc(#loc)
        %1 = "ttnn.to_device"(%arg0, %0) : (tensor<1024xf32, #ttnn_layout16>, !ttnn.device) -> tensor<1024xf32, #ttnn_layout18> loc(#loc)
        %2 = "ttnn.to_layout"(%1) <{layout = #ttnn.layout<tile>}> : (tensor<1024xf32, #ttnn_layout18>) -> tensor<1024xf32, #ttnn_layout19> loc(#loc)
        "ttnn.deallocate"(%1) <{force = false}> : (tensor<1024xf32, #ttnn_layout18>) -> () loc(#loc)
        %3 = "ttnn.reshape"(%2) <{shape = [1 : i32, 1024 : i32, 1 : i32, 1 : i32]}> : (tensor<1024xf32, #ttnn_layout19>) -> tensor<1x1024x1x1xf32, #ttnn_layout17> loc(#loc13)
        "ttnn.deallocate"(%2) <{force = false}> : (tensor<1024xf32, #ttnn_layout19>) -> () loc(#loc13)
        return %3 : tensor<1x1024x1x1xf32, #ttnn_layout17> loc(#loc)
      } loc(#loc)
      func.func private @main_const_eval_13(%arg0: tensor<256xf32, #ttnn_layout4> loc(unknown)) -> tensor<1x256x1x1xf32, #ttnn_layout5> attributes {tt.function_type = "const_eval"} {
        %0 = "ttnn.get_device"() <{mesh_offset = #ttnn<mesh_offset 0x0>, mesh_shape = #ttnn<mesh_shape 1x1>}> : () -> !ttnn.device loc(#loc)
        %1 = "ttnn.to_device"(%arg0, %0) : (tensor<256xf32, #ttnn_layout4>, !ttnn.device) -> tensor<256xf32, #ttnn_layout6> loc(#loc)
        %2 = "ttnn.to_layout"(%1) <{layout = #ttnn.layout<tile>}> : (tensor<256xf32, #ttnn_layout6>) -> tensor<256xf32, #ttnn_layout7> loc(#loc)
        "ttnn.deallocate"(%1) <{force = false}> : (tensor<256xf32, #ttnn_layout6>) -> () loc(#loc)
        %3 = "ttnn.reshape"(%2) <{shape = [1 : i32, 256 : i32, 1 : i32, 1 : i32]}> : (tensor<256xf32, #ttnn_layout7>) -> tensor<1x256x1x1xf32, #ttnn_layout5> loc(#loc14)
        "ttnn.deallocate"(%2) <{force = false}> : (tensor<256xf32, #ttnn_layout7>) -> () loc(#loc14)
        return %3 : tensor<1x256x1x1xf32, #ttnn_layout5> loc(#loc)
      } loc(#loc)
      func.func private @main_const_eval_14(%arg0: tensor<2048xf32, #ttnn_layout20> loc(unknown)) -> tensor<1x2048x1x1xf32, #ttnn_layout21> attributes {tt.function_type = "const_eval"} {
        %0 = "ttnn.get_device"() <{mesh_offset = #ttnn<mesh_offset 0x0>, mesh_shape = #ttnn<mesh_shape 1x1>}> : () -> !ttnn.device loc(#loc)
        %1 = "ttnn.to_device"(%arg0, %0) : (tensor<2048xf32, #ttnn_layout20>, !ttnn.device) -> tensor<2048xf32, #ttnn_layout22> loc(#loc)
        %2 = "ttnn.to_layout"(%1) <{layout = #ttnn.layout<tile>}> : (tensor<2048xf32, #ttnn_layout22>) -> tensor<2048xf32, #ttnn_layout23> loc(#loc)
        "ttnn.deallocate"(%1) <{force = false}> : (tensor<2048xf32, #ttnn_layout22>) -> () loc(#loc)
        %3 = "ttnn.reshape"(%2) <{shape = [1 : i32, 2048 : i32, 1 : i32, 1 : i32]}> : (tensor<2048xf32, #ttnn_layout23>) -> tensor<1x2048x1x1xf32, #ttnn_layout21> loc(#loc15)
        "ttnn.deallocate"(%2) <{force = false}> : (tensor<2048xf32, #ttnn_layout23>) -> () loc(#loc15)
        return %3 : tensor<1x2048x1x1xf32, #ttnn_layout21> loc(#loc)
      } loc(#loc)
      func.func private @main_const_eval_15(%arg0: tensor<2048xf32, #ttnn_layout20> loc(unknown)) -> tensor<1x2048x1x1xf32, #ttnn_layout21> attributes {tt.function_type = "const_eval"} {
        %0 = "ttnn.get_device"() <{mesh_offset = #ttnn<mesh_offset 0x0>, mesh_shape = #ttnn<mesh_shape 1x1>}> : () -> !ttnn.device loc(#loc)
        %1 = "ttnn.to_device"(%arg0, %0) : (tensor<2048xf32, #ttnn_layout20>, !ttnn.device) -> tensor<2048xf32, #ttnn_layout22> loc(#loc)
        %2 = "ttnn.to_layout"(%1) <{layout = #ttnn.layout<tile>}> : (tensor<2048xf32, #ttnn_layout22>) -> tensor<2048xf32, #ttnn_layout23> loc(#loc)
        "ttnn.deallocate"(%1) <{force = false}> : (tensor<2048xf32, #ttnn_layout22>) -> () loc(#loc)
        %3 = "ttnn.reshape"(%2) <{shape = [1 : i32, 2048 : i32, 1 : i32, 1 : i32]}> : (tensor<2048xf32, #ttnn_layout23>) -> tensor<1x2048x1x1xf32, #ttnn_layout21> loc(#loc16)
        "ttnn.deallocate"(%2) <{force = false}> : (tensor<2048xf32, #ttnn_layout23>) -> () loc(#loc16)
        return %3 : tensor<1x2048x1x1xf32, #ttnn_layout21> loc(#loc)
      } loc(#loc)
      func.func private @main_const_eval_16(%arg0: tensor<128xf32, #ttnn_layout8> loc(unknown)) -> tensor<1x128x1x1xf32, #ttnn_layout9> attributes {tt.function_type = "const_eval"} {
        %0 = "ttnn.get_device"() <{mesh_offset = #ttnn<mesh_offset 0x0>, mesh_shape = #ttnn<mesh_shape 1x1>}> : () -> !ttnn.device loc(#loc)
        %1 = "ttnn.to_device"(%arg0, %0) : (tensor<128xf32, #ttnn_layout8>, !ttnn.device) -> tensor<128xf32, #ttnn_layout10> loc(#loc)
        %2 = "ttnn.to_layout"(%1) <{layout = #ttnn.layout<tile>}> : (tensor<128xf32, #ttnn_layout10>) -> tensor<128xf32, #ttnn_layout11> loc(#loc)
        "ttnn.deallocate"(%1) <{force = false}> : (tensor<128xf32, #ttnn_layout10>) -> () loc(#loc)
        %3 = "ttnn.reshape"(%2) <{shape = [1 : i32, 128 : i32, 1 : i32, 1 : i32]}> : (tensor<128xf32, #ttnn_layout11>) -> tensor<1x128x1x1xf32, #ttnn_layout9> loc(#loc17)
        "ttnn.deallocate"(%2) <{force = false}> : (tensor<128xf32, #ttnn_layout11>) -> () loc(#loc17)
        return %3 : tensor<1x128x1x1xf32, #ttnn_layout9> loc(#loc)
      } loc(#loc)
      func.func private @main_const_eval_17(%arg0: tensor<128xf32, #ttnn_layout8> loc(unknown)) -> tensor<1x128x1x1xf32, #ttnn_layout9> attributes {tt.function_type = "const_eval"} {
        %0 = "ttnn.get_device"() <{mesh_offset = #ttnn<mesh_offset 0x0>, mesh_shape = #ttnn<mesh_shape 1x1>}> : () -> !ttnn.device loc(#loc)
        %1 = "ttnn.to_device"(%arg0, %0) : (tensor<128xf32, #ttnn_layout8>, !ttnn.device) -> tensor<128xf32, #ttnn_layout10> loc(#loc)
        %2 = "ttnn.to_layout"(%1) <{layout = #ttnn.layout<tile>}> : (tensor<128xf32, #ttnn_layout10>) -> tensor<128xf32, #ttnn_layout11> loc(#loc)
        "ttnn.deallocate"(%1) <{force = false}> : (tensor<128xf32, #ttnn_layout10>) -> () loc(#loc)
        %3 = "ttnn.reshape"(%2) <{shape = [1 : i32, 128 : i32, 1 : i32, 1 : i32]}> : (tensor<128xf32, #ttnn_layout11>) -> tensor<1x128x1x1xf32, #ttnn_layout9> loc(#loc17)
        "ttnn.deallocate"(%2) <{force = false}> : (tensor<128xf32, #ttnn_layout11>) -> () loc(#loc17)
        return %3 : tensor<1x128x1x1xf32, #ttnn_layout9> loc(#loc)
      } loc(#loc)
      func.func private @main_const_eval_18(%arg0: tensor<64xf32, #ttnn_layout> loc(unknown)) -> tensor<1x64x1x1xf32, #ttnn_layout1> attributes {tt.function_type = "const_eval"} {
        %0 = "ttnn.get_device"() <{mesh_offset = #ttnn<mesh_offset 0x0>, mesh_shape = #ttnn<mesh_shape 1x1>}> : () -> !ttnn.device loc(#loc)
        %1 = "ttnn.to_device"(%arg0, %0) : (tensor<64xf32, #ttnn_layout>, !ttnn.device) -> tensor<64xf32, #ttnn_layout2> loc(#loc)
        %2 = "ttnn.to_layout"(%1) <{layout = #ttnn.layout<tile>}> : (tensor<64xf32, #ttnn_layout2>) -> tensor<64xf32, #ttnn_layout3> loc(#loc)
        "ttnn.deallocate"(%1) <{force = false}> : (tensor<64xf32, #ttnn_layout2>) -> () loc(#loc)
        %3 = "ttnn.reshape"(%2) <{shape = [1 : i32, 64 : i32, 1 : i32, 1 : i32]}> : (tensor<64xf32, #ttnn_layout3>) -> tensor<1x64x1x1xf32, #ttnn_layout1> loc(#loc18)
        "ttnn.deallocate"(%2) <{force = false}> : (tensor<64xf32, #ttnn_layout3>) -> () loc(#loc18)
        return %3 : tensor<1x64x1x1xf32, #ttnn_layout1> loc(#loc)
      } loc(#loc)
      func.func private @main_const_eval_19(%arg0: tensor<256xf32, #ttnn_layout4> loc(unknown)) -> tensor<1x256x1x1xf32, #ttnn_layout5> attributes {tt.function_type = "const_eval"} {
        %0 = "ttnn.get_device"() <{mesh_offset = #ttnn<mesh_offset 0x0>, mesh_shape = #ttnn<mesh_shape 1x1>}> : () -> !ttnn.device loc(#loc)
        %1 = "ttnn.to_device"(%arg0, %0) : (tensor<256xf32, #ttnn_layout4>, !ttnn.device) -> tensor<256xf32, #ttnn_layout6> loc(#loc)
        %2 = "ttnn.to_layout"(%1) <{layout = #ttnn.layout<tile>}> : (tensor<256xf32, #ttnn_layout6>) -> tensor<256xf32, #ttnn_layout7> loc(#loc)
        "ttnn.deallocate"(%1) <{force = false}> : (tensor<256xf32, #ttnn_layout6>) -> () loc(#loc)
        %3 = "ttnn.reshape"(%2) <{shape = [1 : i32, 256 : i32, 1 : i32, 1 : i32]}> : (tensor<256xf32, #ttnn_layout7>) -> tensor<1x256x1x1xf32, #ttnn_layout5> loc(#loc19)
        "ttnn.deallocate"(%2) <{force = false}> : (tensor<256xf32, #ttnn_layout7>) -> () loc(#loc19)
        return %3 : tensor<1x256x1x1xf32, #ttnn_layout5> loc(#loc)
      } loc(#loc)
      func.func private @main_const_eval_20(%arg0: tensor<1024xf32, #ttnn_layout16> loc(unknown)) -> tensor<1x1024x1x1xf32, #ttnn_layout17> attributes {tt.function_type = "const_eval"} {
        %0 = "ttnn.get_device"() <{mesh_offset = #ttnn<mesh_offset 0x0>, mesh_shape = #ttnn<mesh_shape 1x1>}> : () -> !ttnn.device loc(#loc)
        %1 = "ttnn.to_device"(%arg0, %0) : (tensor<1024xf32, #ttnn_layout16>, !ttnn.device) -> tensor<1024xf32, #ttnn_layout18> loc(#loc)
        %2 = "ttnn.to_layout"(%1) <{layout = #ttnn.layout<tile>}> : (tensor<1024xf32, #ttnn_layout18>) -> tensor<1024xf32, #ttnn_layout19> loc(#loc)
        "ttnn.deallocate"(%1) <{force = false}> : (tensor<1024xf32, #ttnn_layout18>) -> () loc(#loc)
        %3 = "ttnn.reshape"(%2) <{shape = [1 : i32, 1024 : i32, 1 : i32, 1 : i32]}> : (tensor<1024xf32, #ttnn_layout19>) -> tensor<1x1024x1x1xf32, #ttnn_layout17> loc(#loc20)
        "ttnn.deallocate"(%2) <{force = false}> : (tensor<1024xf32, #ttnn_layout19>) -> () loc(#loc20)
        return %3 : tensor<1x1024x1x1xf32, #ttnn_layout17> loc(#loc)
      } loc(#loc)
      func.func private @main_const_eval_21(%arg0: tensor<256xf32, #ttnn_layout4> loc(unknown)) -> tensor<1x256x1x1xf32, #ttnn_layout5> attributes {tt.function_type = "const_eval"} {
        %0 = "ttnn.get_device"() <{mesh_offset = #ttnn<mesh_offset 0x0>, mesh_shape = #ttnn<mesh_shape 1x1>}> : () -> !ttnn.device loc(#loc)
        %1 = "ttnn.to_device"(%arg0, %0) : (tensor<256xf32, #ttnn_layout4>, !ttnn.device) -> tensor<256xf32, #ttnn_layout6> loc(#loc)
        %2 = "ttnn.to_layout"(%1) <{layout = #ttnn.layout<tile>}> : (tensor<256xf32, #ttnn_layout6>) -> tensor<256xf32, #ttnn_layout7> loc(#loc)
        "ttnn.deallocate"(%1) <{force = false}> : (tensor<256xf32, #ttnn_layout6>) -> () loc(#loc)
        %3 = "ttnn.reshape"(%2) <{shape = [1 : i32, 256 : i32, 1 : i32, 1 : i32]}> : (tensor<256xf32, #ttnn_layout7>) -> tensor<1x256x1x1xf32, #ttnn_layout5> loc(#loc21)
        "ttnn.deallocate"(%2) <{force = false}> : (tensor<256xf32, #ttnn_layout7>) -> () loc(#loc21)
        return %3 : tensor<1x256x1x1xf32, #ttnn_layout5> loc(#loc)
      } loc(#loc)
      func.func private @main_const_eval_22(%arg0: tensor<256xf32, #ttnn_layout4> loc(unknown)) -> tensor<1x256x1x1xf32, #ttnn_layout5> attributes {tt.function_type = "const_eval"} {
        %0 = "ttnn.get_device"() <{mesh_offset = #ttnn<mesh_offset 0x0>, mesh_shape = #ttnn<mesh_shape 1x1>}> : () -> !ttnn.device loc(#loc)
        %1 = "ttnn.to_device"(%arg0, %0) : (tensor<256xf32, #ttnn_layout4>, !ttnn.device) -> tensor<256xf32, #ttnn_layout6> loc(#loc)
        %2 = "ttnn.to_layout"(%1) <{layout = #ttnn.layout<tile>}> : (tensor<256xf32, #ttnn_layout6>) -> tensor<256xf32, #ttnn_layout7> loc(#loc)
        "ttnn.deallocate"(%1) <{force = false}> : (tensor<256xf32, #ttnn_layout6>) -> () loc(#loc)
        %3 = "ttnn.reshape"(%2) <{shape = [1 : i32, 256 : i32, 1 : i32, 1 : i32]}> : (tensor<256xf32, #ttnn_layout7>) -> tensor<1x256x1x1xf32, #ttnn_layout5> loc(#loc22)
        "ttnn.deallocate"(%2) <{force = false}> : (tensor<256xf32, #ttnn_layout7>) -> () loc(#loc22)
        return %3 : tensor<1x256x1x1xf32, #ttnn_layout5> loc(#loc)
      } loc(#loc)
      func.func private @main_const_eval_23(%arg0: tensor<64xf32, #ttnn_layout> loc(unknown)) -> tensor<1x64x1x1xf32, #ttnn_layout1> attributes {tt.function_type = "const_eval"} {
        %0 = "ttnn.get_device"() <{mesh_offset = #ttnn<mesh_offset 0x0>, mesh_shape = #ttnn<mesh_shape 1x1>}> : () -> !ttnn.device loc(#loc)
        %1 = "ttnn.to_device"(%arg0, %0) : (tensor<64xf32, #ttnn_layout>, !ttnn.device) -> tensor<64xf32, #ttnn_layout2> loc(#loc)
        %2 = "ttnn.to_layout"(%1) <{layout = #ttnn.layout<tile>}> : (tensor<64xf32, #ttnn_layout2>) -> tensor<64xf32, #ttnn_layout3> loc(#loc)
        "ttnn.deallocate"(%1) <{force = false}> : (tensor<64xf32, #ttnn_layout2>) -> () loc(#loc)
        %3 = "ttnn.reshape"(%2) <{shape = [1 : i32, 64 : i32, 1 : i32, 1 : i32]}> : (tensor<64xf32, #ttnn_layout3>) -> tensor<1x64x1x1xf32, #ttnn_layout1> loc(#loc9)
        "ttnn.deallocate"(%2) <{force = false}> : (tensor<64xf32, #ttnn_layout3>) -> () loc(#loc9)
        return %3 : tensor<1x64x1x1xf32, #ttnn_layout1> loc(#loc)
      } loc(#loc)
      func.func private @main_const_eval_24(%arg0: tensor<256xf32, #ttnn_layout4> loc(unknown)) -> tensor<1x256x1x1xf32, #ttnn_layout5> attributes {tt.function_type = "const_eval"} {
        %0 = "ttnn.get_device"() <{mesh_offset = #ttnn<mesh_offset 0x0>, mesh_shape = #ttnn<mesh_shape 1x1>}> : () -> !ttnn.device loc(#loc)
        %1 = "ttnn.to_device"(%arg0, %0) : (tensor<256xf32, #ttnn_layout4>, !ttnn.device) -> tensor<256xf32, #ttnn_layout6> loc(#loc)
        %2 = "ttnn.to_layout"(%1) <{layout = #ttnn.layout<tile>}> : (tensor<256xf32, #ttnn_layout6>) -> tensor<256xf32, #ttnn_layout7> loc(#loc)
        "ttnn.deallocate"(%1) <{force = false}> : (tensor<256xf32, #ttnn_layout6>) -> () loc(#loc)
        %3 = "ttnn.reshape"(%2) <{shape = [1 : i32, 256 : i32, 1 : i32, 1 : i32]}> : (tensor<256xf32, #ttnn_layout7>) -> tensor<1x256x1x1xf32, #ttnn_layout5> loc(#loc23)
        "ttnn.deallocate"(%2) <{force = false}> : (tensor<256xf32, #ttnn_layout7>) -> () loc(#loc23)
        return %3 : tensor<1x256x1x1xf32, #ttnn_layout5> loc(#loc)
      } loc(#loc)
      func.func private @main_const_eval_25(%arg0: tensor<512xf32, #ttnn_layout12> loc(unknown)) -> tensor<1x512x1x1xf32, #ttnn_layout13> attributes {tt.function_type = "const_eval"} {
        %0 = "ttnn.get_device"() <{mesh_offset = #ttnn<mesh_offset 0x0>, mesh_shape = #ttnn<mesh_shape 1x1>}> : () -> !ttnn.device loc(#loc)
        %1 = "ttnn.to_device"(%arg0, %0) : (tensor<512xf32, #ttnn_layout12>, !ttnn.device) -> tensor<512xf32, #ttnn_layout14> loc(#loc)
        %2 = "ttnn.to_layout"(%1) <{layout = #ttnn.layout<tile>}> : (tensor<512xf32, #ttnn_layout14>) -> tensor<512xf32, #ttnn_layout15> loc(#loc)
        "ttnn.deallocate"(%1) <{force = false}> : (tensor<512xf32, #ttnn_layout14>) -> () loc(#loc)
        %3 = "ttnn.reshape"(%2) <{shape = [1 : i32, 512 : i32, 1 : i32, 1 : i32]}> : (tensor<512xf32, #ttnn_layout15>) -> tensor<1x512x1x1xf32, #ttnn_layout13> loc(#loc24)
        "ttnn.deallocate"(%2) <{force = false}> : (tensor<512xf32, #ttnn_layout15>) -> () loc(#loc24)
        return %3 : tensor<1x512x1x1xf32, #ttnn_layout13> loc(#loc)
      } loc(#loc)
      func.func private @main_const_eval_26(%arg0: tensor<256xf32, #ttnn_layout4> loc(unknown)) -> tensor<1x256x1x1xf32, #ttnn_layout5> attributes {tt.function_type = "const_eval"} {
        %0 = "ttnn.get_device"() <{mesh_offset = #ttnn<mesh_offset 0x0>, mesh_shape = #ttnn<mesh_shape 1x1>}> : () -> !ttnn.device loc(#loc)
        %1 = "ttnn.to_device"(%arg0, %0) : (tensor<256xf32, #ttnn_layout4>, !ttnn.device) -> tensor<256xf32, #ttnn_layout6> loc(#loc)
        %2 = "ttnn.to_layout"(%1) <{layout = #ttnn.layout<tile>}> : (tensor<256xf32, #ttnn_layout6>) -> tensor<256xf32, #ttnn_layout7> loc(#loc)
        "ttnn.deallocate"(%1) <{force = false}> : (tensor<256xf32, #ttnn_layout6>) -> () loc(#loc)
        %3 = "ttnn.reshape"(%2) <{shape = [1 : i32, 256 : i32, 1 : i32, 1 : i32]}> : (tensor<256xf32, #ttnn_layout7>) -> tensor<1x256x1x1xf32, #ttnn_layout5> loc(#loc25)
        "ttnn.deallocate"(%2) <{force = false}> : (tensor<256xf32, #ttnn_layout7>) -> () loc(#loc25)
        return %3 : tensor<1x256x1x1xf32, #ttnn_layout5> loc(#loc)
      } loc(#loc)
      func.func private @main_const_eval_27(%arg0: tensor<1024xf32, #ttnn_layout16> loc(unknown)) -> tensor<1x1024x1x1xf32, #ttnn_layout17> attributes {tt.function_type = "const_eval"} {
        %0 = "ttnn.get_device"() <{mesh_offset = #ttnn<mesh_offset 0x0>, mesh_shape = #ttnn<mesh_shape 1x1>}> : () -> !ttnn.device loc(#loc)
        %1 = "ttnn.to_device"(%arg0, %0) : (tensor<1024xf32, #ttnn_layout16>, !ttnn.device) -> tensor<1024xf32, #ttnn_layout18> loc(#loc)
        %2 = "ttnn.to_layout"(%1) <{layout = #ttnn.layout<tile>}> : (tensor<1024xf32, #ttnn_layout18>) -> tensor<1024xf32, #ttnn_layout19> loc(#loc)
        "ttnn.deallocate"(%1) <{force = false}> : (tensor<1024xf32, #ttnn_layout18>) -> () loc(#loc)
        %3 = "ttnn.reshape"(%2) <{shape = [1 : i32, 1024 : i32, 1 : i32, 1 : i32]}> : (tensor<1024xf32, #ttnn_layout19>) -> tensor<1x1024x1x1xf32, #ttnn_layout17> loc(#loc26)
        "ttnn.deallocate"(%2) <{force = false}> : (tensor<1024xf32, #ttnn_layout19>) -> () loc(#loc26)
        return %3 : tensor<1x1024x1x1xf32, #ttnn_layout17> loc(#loc)
      } loc(#loc)
      func.func private @main_const_eval_28(%arg0: tensor<256xf32, #ttnn_layout4> loc(unknown)) -> tensor<1x256x1x1xf32, #ttnn_layout5> attributes {tt.function_type = "const_eval"} {
        %0 = "ttnn.get_device"() <{mesh_offset = #ttnn<mesh_offset 0x0>, mesh_shape = #ttnn<mesh_shape 1x1>}> : () -> !ttnn.device loc(#loc)
        %1 = "ttnn.to_device"(%arg0, %0) : (tensor<256xf32, #ttnn_layout4>, !ttnn.device) -> tensor<256xf32, #ttnn_layout6> loc(#loc)
        %2 = "ttnn.to_layout"(%1) <{layout = #ttnn.layout<tile>}> : (tensor<256xf32, #ttnn_layout6>) -> tensor<256xf32, #ttnn_layout7> loc(#loc)
        "ttnn.deallocate"(%1) <{force = false}> : (tensor<256xf32, #ttnn_layout6>) -> () loc(#loc)
        %3 = "ttnn.reshape"(%2) <{shape = [1 : i32, 256 : i32, 1 : i32, 1 : i32]}> : (tensor<256xf32, #ttnn_layout7>) -> tensor<1x256x1x1xf32, #ttnn_layout5> loc(#loc7)
        "ttnn.deallocate"(%2) <{force = false}> : (tensor<256xf32, #ttnn_layout7>) -> () loc(#loc7)
        return %3 : tensor<1x256x1x1xf32, #ttnn_layout5> loc(#loc)
      } loc(#loc)
      func.func private @main_const_eval_29(%arg0: tensor<128xf32, #ttnn_layout8> loc(unknown)) -> tensor<1x128x1x1xf32, #ttnn_layout9> attributes {tt.function_type = "const_eval"} {
        %0 = "ttnn.get_device"() <{mesh_offset = #ttnn<mesh_offset 0x0>, mesh_shape = #ttnn<mesh_shape 1x1>}> : () -> !ttnn.device loc(#loc)
        %1 = "ttnn.to_device"(%arg0, %0) : (tensor<128xf32, #ttnn_layout8>, !ttnn.device) -> tensor<128xf32, #ttnn_layout10> loc(#loc)
        %2 = "ttnn.to_layout"(%1) <{layout = #ttnn.layout<tile>}> : (tensor<128xf32, #ttnn_layout10>) -> tensor<128xf32, #ttnn_layout11> loc(#loc)
        "ttnn.deallocate"(%1) <{force = false}> : (tensor<128xf32, #ttnn_layout10>) -> () loc(#loc)
        %3 = "ttnn.reshape"(%2) <{shape = [1 : i32, 128 : i32, 1 : i32, 1 : i32]}> : (tensor<128xf32, #ttnn_layout11>) -> tensor<1x128x1x1xf32, #ttnn_layout9> loc(#loc4)
        "ttnn.deallocate"(%2) <{force = false}> : (tensor<128xf32, #ttnn_layout11>) -> () loc(#loc4)
        return %3 : tensor<1x128x1x1xf32, #ttnn_layout9> loc(#loc)
      } loc(#loc)
      func.func private @main_const_eval_30(%arg0: tensor<256xf32, #ttnn_layout4> loc(unknown)) -> tensor<1x256x1x1xf32, #ttnn_layout5> attributes {tt.function_type = "const_eval"} {
        %0 = "ttnn.get_device"() <{mesh_offset = #ttnn<mesh_offset 0x0>, mesh_shape = #ttnn<mesh_shape 1x1>}> : () -> !ttnn.device loc(#loc)
        %1 = "ttnn.to_device"(%arg0, %0) : (tensor<256xf32, #ttnn_layout4>, !ttnn.device) -> tensor<256xf32, #ttnn_layout6> loc(#loc)
        %2 = "ttnn.to_layout"(%1) <{layout = #ttnn.layout<tile>}> : (tensor<256xf32, #ttnn_layout6>) -> tensor<256xf32, #ttnn_layout7> loc(#loc)
        "ttnn.deallocate"(%1) <{force = false}> : (tensor<256xf32, #ttnn_layout6>) -> () loc(#loc)
        %3 = "ttnn.reshape"(%2) <{shape = [1 : i32, 256 : i32, 1 : i32, 1 : i32]}> : (tensor<256xf32, #ttnn_layout7>) -> tensor<1x256x1x1xf32, #ttnn_layout5> loc(#loc27)
        "ttnn.deallocate"(%2) <{force = false}> : (tensor<256xf32, #ttnn_layout7>) -> () loc(#loc27)
        return %3 : tensor<1x256x1x1xf32, #ttnn_layout5> loc(#loc)
      } loc(#loc)
      func.func private @main_const_eval_31(%arg0: tensor<1024xf32, #ttnn_layout16> loc(unknown)) -> tensor<1x1024x1x1xf32, #ttnn_layout17> attributes {tt.function_type = "const_eval"} {
        %0 = "ttnn.get_device"() <{mesh_offset = #ttnn<mesh_offset 0x0>, mesh_shape = #ttnn<mesh_shape 1x1>}> : () -> !ttnn.device loc(#loc)
        %1 = "ttnn.to_device"(%arg0, %0) : (tensor<1024xf32, #ttnn_layout16>, !ttnn.device) -> tensor<1024xf32, #ttnn_layout18> loc(#loc)
        %2 = "ttnn.to_layout"(%1) <{layout = #ttnn.layout<tile>}> : (tensor<1024xf32, #ttnn_layout18>) -> tensor<1024xf32, #ttnn_layout19> loc(#loc)
        "ttnn.deallocate"(%1) <{force = false}> : (tensor<1024xf32, #ttnn_layout18>) -> () loc(#loc)
        %3 = "ttnn.reshape"(%2) <{shape = [1 : i32, 1024 : i32, 1 : i32, 1 : i32]}> : (tensor<1024xf32, #ttnn_layout19>) -> tensor<1x1024x1x1xf32, #ttnn_layout17> loc(#loc28)
        "ttnn.deallocate"(%2) <{force = false}> : (tensor<1024xf32, #ttnn_layout19>) -> () loc(#loc28)
        return %3 : tensor<1x1024x1x1xf32, #ttnn_layout17> loc(#loc)
      } loc(#loc)
      func.func private @main_const_eval_32(%arg0: tensor<256xf32, #ttnn_layout4> loc(unknown)) -> tensor<1x256x1x1xf32, #ttnn_layout5> attributes {tt.function_type = "const_eval"} {
        %0 = "ttnn.get_device"() <{mesh_offset = #ttnn<mesh_offset 0x0>, mesh_shape = #ttnn<mesh_shape 1x1>}> : () -> !ttnn.device loc(#loc)
        %1 = "ttnn.to_device"(%arg0, %0) : (tensor<256xf32, #ttnn_layout4>, !ttnn.device) -> tensor<256xf32, #ttnn_layout6> loc(#loc)
        %2 = "ttnn.to_layout"(%1) <{layout = #ttnn.layout<tile>}> : (tensor<256xf32, #ttnn_layout6>) -> tensor<256xf32, #ttnn_layout7> loc(#loc)
        "ttnn.deallocate"(%1) <{force = false}> : (tensor<256xf32, #ttnn_layout6>) -> () loc(#loc)
        %3 = "ttnn.reshape"(%2) <{shape = [1 : i32, 256 : i32, 1 : i32, 1 : i32]}> : (tensor<256xf32, #ttnn_layout7>) -> tensor<1x256x1x1xf32, #ttnn_layout5> loc(#loc22)
        "ttnn.deallocate"(%2) <{force = false}> : (tensor<256xf32, #ttnn_layout7>) -> () loc(#loc22)
        return %3 : tensor<1x256x1x1xf32, #ttnn_layout5> loc(#loc)
      } loc(#loc)
      func.func private @main_const_eval_33(%arg0: tensor<128xf32, #ttnn_layout8> loc(unknown)) -> tensor<1x128x1x1xf32, #ttnn_layout9> attributes {tt.function_type = "const_eval"} {
        %0 = "ttnn.get_device"() <{mesh_offset = #ttnn<mesh_offset 0x0>, mesh_shape = #ttnn<mesh_shape 1x1>}> : () -> !ttnn.device loc(#loc)
        %1 = "ttnn.to_device"(%arg0, %0) : (tensor<128xf32, #ttnn_layout8>, !ttnn.device) -> tensor<128xf32, #ttnn_layout10> loc(#loc)
        %2 = "ttnn.to_layout"(%1) <{layout = #ttnn.layout<tile>}> : (tensor<128xf32, #ttnn_layout10>) -> tensor<128xf32, #ttnn_layout11> loc(#loc)
        "ttnn.deallocate"(%1) <{force = false}> : (tensor<128xf32, #ttnn_layout10>) -> () loc(#loc)
        %3 = "ttnn.reshape"(%2) <{shape = [1 : i32, 128 : i32, 1 : i32, 1 : i32]}> : (tensor<128xf32, #ttnn_layout11>) -> tensor<1x128x1x1xf32, #ttnn_layout9> loc(#loc29)
        "ttnn.deallocate"(%2) <{force = false}> : (tensor<128xf32, #ttnn_layout11>) -> () loc(#loc29)
        return %3 : tensor<1x128x1x1xf32, #ttnn_layout9> loc(#loc)
      } loc(#loc)
      func.func private @main_const_eval_34(%arg0: tensor<512xf32, #ttnn_layout12> loc(unknown)) -> tensor<1x512x1x1xf32, #ttnn_layout13> attributes {tt.function_type = "const_eval"} {
        %0 = "ttnn.get_device"() <{mesh_offset = #ttnn<mesh_offset 0x0>, mesh_shape = #ttnn<mesh_shape 1x1>}> : () -> !ttnn.device loc(#loc)
        %1 = "ttnn.to_device"(%arg0, %0) : (tensor<512xf32, #ttnn_layout12>, !ttnn.device) -> tensor<512xf32, #ttnn_layout14> loc(#loc)
        %2 = "ttnn.to_layout"(%1) <{layout = #ttnn.layout<tile>}> : (tensor<512xf32, #ttnn_layout14>) -> tensor<512xf32, #ttnn_layout15> loc(#loc)
        "ttnn.deallocate"(%1) <{force = false}> : (tensor<512xf32, #ttnn_layout14>) -> () loc(#loc)
        %3 = "ttnn.reshape"(%2) <{shape = [1 : i32, 512 : i32, 1 : i32, 1 : i32]}> : (tensor<512xf32, #ttnn_layout15>) -> tensor<1x512x1x1xf32, #ttnn_layout13> loc(#loc30)
        "ttnn.deallocate"(%2) <{force = false}> : (tensor<512xf32, #ttnn_layout15>) -> () loc(#loc30)
        return %3 : tensor<1x512x1x1xf32, #ttnn_layout13> loc(#loc)
      } loc(#loc)
      func.func private @main_const_eval_35(%arg0: tensor<64xf32, #ttnn_layout> loc(unknown)) -> tensor<1x64x1x1xf32, #ttnn_layout1> attributes {tt.function_type = "const_eval"} {
        %0 = "ttnn.get_device"() <{mesh_offset = #ttnn<mesh_offset 0x0>, mesh_shape = #ttnn<mesh_shape 1x1>}> : () -> !ttnn.device loc(#loc)
        %1 = "ttnn.to_device"(%arg0, %0) : (tensor<64xf32, #ttnn_layout>, !ttnn.device) -> tensor<64xf32, #ttnn_layout2> loc(#loc)
        %2 = "ttnn.to_layout"(%1) <{layout = #ttnn.layout<tile>}> : (tensor<64xf32, #ttnn_layout2>) -> tensor<64xf32, #ttnn_layout3> loc(#loc)
        "ttnn.deallocate"(%1) <{force = false}> : (tensor<64xf32, #ttnn_layout2>) -> () loc(#loc)
        %3 = "ttnn.reshape"(%2) <{shape = [1 : i32, 64 : i32, 1 : i32, 1 : i32]}> : (tensor<64xf32, #ttnn_layout3>) -> tensor<1x64x1x1xf32, #ttnn_layout1> loc(#loc31)
        "ttnn.deallocate"(%2) <{force = false}> : (tensor<64xf32, #ttnn_layout3>) -> () loc(#loc31)
        return %3 : tensor<1x64x1x1xf32, #ttnn_layout1> loc(#loc)
      } loc(#loc)
      func.func private @main_const_eval_36(%arg0: tensor<512xf32, #ttnn_layout12> loc(unknown)) -> tensor<1x512x1x1xf32, #ttnn_layout13> attributes {tt.function_type = "const_eval"} {
        %0 = "ttnn.get_device"() <{mesh_offset = #ttnn<mesh_offset 0x0>, mesh_shape = #ttnn<mesh_shape 1x1>}> : () -> !ttnn.device loc(#loc)
        %1 = "ttnn.to_device"(%arg0, %0) : (tensor<512xf32, #ttnn_layout12>, !ttnn.device) -> tensor<512xf32, #ttnn_layout14> loc(#loc)
        %2 = "ttnn.to_layout"(%1) <{layout = #ttnn.layout<tile>}> : (tensor<512xf32, #ttnn_layout14>) -> tensor<512xf32, #ttnn_layout15> loc(#loc)
        "ttnn.deallocate"(%1) <{force = false}> : (tensor<512xf32, #ttnn_layout14>) -> () loc(#loc)
        %3 = "ttnn.reshape"(%2) <{shape = [1 : i32, 512 : i32, 1 : i32, 1 : i32]}> : (tensor<512xf32, #ttnn_layout15>) -> tensor<1x512x1x1xf32, #ttnn_layout13> loc(#loc30)
        "ttnn.deallocate"(%2) <{force = false}> : (tensor<512xf32, #ttnn_layout15>) -> () loc(#loc30)
        return %3 : tensor<1x512x1x1xf32, #ttnn_layout13> loc(#loc)
      } loc(#loc)
      func.func private @main_const_eval_37(%arg0: tensor<1024xf32, #ttnn_layout16> loc(unknown)) -> tensor<1x1024x1x1xf32, #ttnn_layout17> attributes {tt.function_type = "const_eval"} {
        %0 = "ttnn.get_device"() <{mesh_offset = #ttnn<mesh_offset 0x0>, mesh_shape = #ttnn<mesh_shape 1x1>}> : () -> !ttnn.device loc(#loc)
        %1 = "ttnn.to_device"(%arg0, %0) : (tensor<1024xf32, #ttnn_layout16>, !ttnn.device) -> tensor<1024xf32, #ttnn_layout18> loc(#loc)
        %2 = "ttnn.to_layout"(%1) <{layout = #ttnn.layout<tile>}> : (tensor<1024xf32, #ttnn_layout18>) -> tensor<1024xf32, #ttnn_layout19> loc(#loc)
        "ttnn.deallocate"(%1) <{force = false}> : (tensor<1024xf32, #ttnn_layout18>) -> () loc(#loc)
        %3 = "ttnn.reshape"(%2) <{shape = [1 : i32, 1024 : i32, 1 : i32, 1 : i32]}> : (tensor<1024xf32, #ttnn_layout19>) -> tensor<1x1024x1x1xf32, #ttnn_layout17> loc(#loc20)
        "ttnn.deallocate"(%2) <{force = false}> : (tensor<1024xf32, #ttnn_layout19>) -> () loc(#loc20)
        return %3 : tensor<1x1024x1x1xf32, #ttnn_layout17> loc(#loc)
      } loc(#loc)
      func.func private @main_const_eval_38(%arg0: tensor<512xf32, #ttnn_layout12> loc(unknown)) -> tensor<1x512x1x1xf32, #ttnn_layout13> attributes {tt.function_type = "const_eval"} {
        %0 = "ttnn.get_device"() <{mesh_offset = #ttnn<mesh_offset 0x0>, mesh_shape = #ttnn<mesh_shape 1x1>}> : () -> !ttnn.device loc(#loc)
        %1 = "ttnn.to_device"(%arg0, %0) : (tensor<512xf32, #ttnn_layout12>, !ttnn.device) -> tensor<512xf32, #ttnn_layout14> loc(#loc)
        %2 = "ttnn.to_layout"(%1) <{layout = #ttnn.layout<tile>}> : (tensor<512xf32, #ttnn_layout14>) -> tensor<512xf32, #ttnn_layout15> loc(#loc)
        "ttnn.deallocate"(%1) <{force = false}> : (tensor<512xf32, #ttnn_layout14>) -> () loc(#loc)
        %3 = "ttnn.reshape"(%2) <{shape = [1 : i32, 512 : i32, 1 : i32, 1 : i32]}> : (tensor<512xf32, #ttnn_layout15>) -> tensor<1x512x1x1xf32, #ttnn_layout13> loc(#loc32)
        "ttnn.deallocate"(%2) <{force = false}> : (tensor<512xf32, #ttnn_layout15>) -> () loc(#loc32)
        return %3 : tensor<1x512x1x1xf32, #ttnn_layout13> loc(#loc)
      } loc(#loc)
      func.func private @main_const_eval_39(%arg0: tensor<256xf32, #ttnn_layout4> loc(unknown)) -> tensor<1x256x1x1xf32, #ttnn_layout5> attributes {tt.function_type = "const_eval"} {
        %0 = "ttnn.get_device"() <{mesh_offset = #ttnn<mesh_offset 0x0>, mesh_shape = #ttnn<mesh_shape 1x1>}> : () -> !ttnn.device loc(#loc)
        %1 = "ttnn.to_device"(%arg0, %0) : (tensor<256xf32, #ttnn_layout4>, !ttnn.device) -> tensor<256xf32, #ttnn_layout6> loc(#loc)
        %2 = "ttnn.to_layout"(%1) <{layout = #ttnn.layout<tile>}> : (tensor<256xf32, #ttnn_layout6>) -> tensor<256xf32, #ttnn_layout7> loc(#loc)
        "ttnn.deallocate"(%1) <{force = false}> : (tensor<256xf32, #ttnn_layout6>) -> () loc(#loc)
        %3 = "ttnn.reshape"(%2) <{shape = [1 : i32, 256 : i32, 1 : i32, 1 : i32]}> : (tensor<256xf32, #ttnn_layout7>) -> tensor<1x256x1x1xf32, #ttnn_layout5> loc(#loc19)
        "ttnn.deallocate"(%2) <{force = false}> : (tensor<256xf32, #ttnn_layout7>) -> () loc(#loc19)
        return %3 : tensor<1x256x1x1xf32, #ttnn_layout5> loc(#loc)
      } loc(#loc)
      func.func private @main_const_eval_40(%arg0: tensor<64xf32, #ttnn_layout> loc(unknown)) -> tensor<1x64x1x1xf32, #ttnn_layout1> attributes {tt.function_type = "const_eval"} {
        %0 = "ttnn.get_device"() <{mesh_offset = #ttnn<mesh_offset 0x0>, mesh_shape = #ttnn<mesh_shape 1x1>}> : () -> !ttnn.device loc(#loc)
        %1 = "ttnn.to_device"(%arg0, %0) : (tensor<64xf32, #ttnn_layout>, !ttnn.device) -> tensor<64xf32, #ttnn_layout2> loc(#loc)
        %2 = "ttnn.to_layout"(%1) <{layout = #ttnn.layout<tile>}> : (tensor<64xf32, #ttnn_layout2>) -> tensor<64xf32, #ttnn_layout3> loc(#loc)
        "ttnn.deallocate"(%1) <{force = false}> : (tensor<64xf32, #ttnn_layout2>) -> () loc(#loc)
        %3 = "ttnn.reshape"(%2) <{shape = [1 : i32, 64 : i32, 1 : i32, 1 : i32]}> : (tensor<64xf32, #ttnn_layout3>) -> tensor<1x64x1x1xf32, #ttnn_layout1> loc(#loc33)
        "ttnn.deallocate"(%2) <{force = false}> : (tensor<64xf32, #ttnn_layout3>) -> () loc(#loc33)
        return %3 : tensor<1x64x1x1xf32, #ttnn_layout1> loc(#loc)
      } loc(#loc)
      func.func private @main_const_eval_41(%arg0: tensor<256xf32, #ttnn_layout4> loc(unknown)) -> tensor<1x256x1x1xf32, #ttnn_layout5> attributes {tt.function_type = "const_eval"} {
        %0 = "ttnn.get_device"() <{mesh_offset = #ttnn<mesh_offset 0x0>, mesh_shape = #ttnn<mesh_shape 1x1>}> : () -> !ttnn.device loc(#loc)
        %1 = "ttnn.to_device"(%arg0, %0) : (tensor<256xf32, #ttnn_layout4>, !ttnn.device) -> tensor<256xf32, #ttnn_layout6> loc(#loc)
        %2 = "ttnn.to_layout"(%1) <{layout = #ttnn.layout<tile>}> : (tensor<256xf32, #ttnn_layout6>) -> tensor<256xf32, #ttnn_layout7> loc(#loc)
        "ttnn.deallocate"(%1) <{force = false}> : (tensor<256xf32, #ttnn_layout6>) -> () loc(#loc)
        %3 = "ttnn.reshape"(%2) <{shape = [1 : i32, 256 : i32, 1 : i32, 1 : i32]}> : (tensor<256xf32, #ttnn_layout7>) -> tensor<1x256x1x1xf32, #ttnn_layout5> loc(#loc23)
        "ttnn.deallocate"(%2) <{force = false}> : (tensor<256xf32, #ttnn_layout7>) -> () loc(#loc23)
        return %3 : tensor<1x256x1x1xf32, #ttnn_layout5> loc(#loc)
      } loc(#loc)
      func.func private @main_const_eval_42(%arg0: tensor<64xf32, #ttnn_layout> loc(unknown)) -> tensor<1x64x1x1xf32, #ttnn_layout1> attributes {tt.function_type = "const_eval"} {
        %0 = "ttnn.get_device"() <{mesh_offset = #ttnn<mesh_offset 0x0>, mesh_shape = #ttnn<mesh_shape 1x1>}> : () -> !ttnn.device loc(#loc)
        %1 = "ttnn.to_device"(%arg0, %0) : (tensor<64xf32, #ttnn_layout>, !ttnn.device) -> tensor<64xf32, #ttnn_layout2> loc(#loc)
        %2 = "ttnn.to_layout"(%1) <{layout = #ttnn.layout<tile>}> : (tensor<64xf32, #ttnn_layout2>) -> tensor<64xf32, #ttnn_layout3> loc(#loc)
        "ttnn.deallocate"(%1) <{force = false}> : (tensor<64xf32, #ttnn_layout2>) -> () loc(#loc)
        %3 = "ttnn.reshape"(%2) <{shape = [1 : i32, 64 : i32, 1 : i32, 1 : i32]}> : (tensor<64xf32, #ttnn_layout3>) -> tensor<1x64x1x1xf32, #ttnn_layout1> loc(#loc33)
        "ttnn.deallocate"(%2) <{force = false}> : (tensor<64xf32, #ttnn_layout3>) -> () loc(#loc33)
        return %3 : tensor<1x64x1x1xf32, #ttnn_layout1> loc(#loc)
      } loc(#loc)
      func.func private @main_const_eval_43(%arg0: tensor<128xf32, #ttnn_layout8> loc(unknown)) -> tensor<1x128x1x1xf32, #ttnn_layout9> attributes {tt.function_type = "const_eval"} {
        %0 = "ttnn.get_device"() <{mesh_offset = #ttnn<mesh_offset 0x0>, mesh_shape = #ttnn<mesh_shape 1x1>}> : () -> !ttnn.device loc(#loc)
        %1 = "ttnn.to_device"(%arg0, %0) : (tensor<128xf32, #ttnn_layout8>, !ttnn.device) -> tensor<128xf32, #ttnn_layout10> loc(#loc)
        %2 = "ttnn.to_layout"(%1) <{layout = #ttnn.layout<tile>}> : (tensor<128xf32, #ttnn_layout10>) -> tensor<128xf32, #ttnn_layout11> loc(#loc)
        "ttnn.deallocate"(%1) <{force = false}> : (tensor<128xf32, #ttnn_layout10>) -> () loc(#loc)
        %3 = "ttnn.reshape"(%2) <{shape = [1 : i32, 128 : i32, 1 : i32, 1 : i32]}> : (tensor<128xf32, #ttnn_layout11>) -> tensor<1x128x1x1xf32, #ttnn_layout9> loc(#loc34)
        "ttnn.deallocate"(%2) <{force = false}> : (tensor<128xf32, #ttnn_layout11>) -> () loc(#loc34)
        return %3 : tensor<1x128x1x1xf32, #ttnn_layout9> loc(#loc)
      } loc(#loc)
      func.func private @main_const_eval_44(%arg0: tensor<1024xf32, #ttnn_layout16> loc(unknown)) -> tensor<1x1024x1x1xf32, #ttnn_layout17> attributes {tt.function_type = "const_eval"} {
        %0 = "ttnn.get_device"() <{mesh_offset = #ttnn<mesh_offset 0x0>, mesh_shape = #ttnn<mesh_shape 1x1>}> : () -> !ttnn.device loc(#loc)
        %1 = "ttnn.to_device"(%arg0, %0) : (tensor<1024xf32, #ttnn_layout16>, !ttnn.device) -> tensor<1024xf32, #ttnn_layout18> loc(#loc)
        %2 = "ttnn.to_layout"(%1) <{layout = #ttnn.layout<tile>}> : (tensor<1024xf32, #ttnn_layout18>) -> tensor<1024xf32, #ttnn_layout19> loc(#loc)
        "ttnn.deallocate"(%1) <{force = false}> : (tensor<1024xf32, #ttnn_layout18>) -> () loc(#loc)
        %3 = "ttnn.reshape"(%2) <{shape = [1 : i32, 1024 : i32, 1 : i32, 1 : i32]}> : (tensor<1024xf32, #ttnn_layout19>) -> tensor<1x1024x1x1xf32, #ttnn_layout17> loc(#loc26)
        "ttnn.deallocate"(%2) <{force = false}> : (tensor<1024xf32, #ttnn_layout19>) -> () loc(#loc26)
        return %3 : tensor<1x1024x1x1xf32, #ttnn_layout17> loc(#loc)
      } loc(#loc)
      func.func private @main_const_eval_45(%arg0: tensor<1024xf32, #ttnn_layout16> loc(unknown)) -> tensor<1x1024x1x1xf32, #ttnn_layout17> attributes {tt.function_type = "const_eval"} {
        %0 = "ttnn.get_device"() <{mesh_offset = #ttnn<mesh_offset 0x0>, mesh_shape = #ttnn<mesh_shape 1x1>}> : () -> !ttnn.device loc(#loc)
        %1 = "ttnn.to_device"(%arg0, %0) : (tensor<1024xf32, #ttnn_layout16>, !ttnn.device) -> tensor<1024xf32, #ttnn_layout18> loc(#loc)
        %2 = "ttnn.to_layout"(%1) <{layout = #ttnn.layout<tile>}> : (tensor<1024xf32, #ttnn_layout18>) -> tensor<1024xf32, #ttnn_layout19> loc(#loc)
        "ttnn.deallocate"(%1) <{force = false}> : (tensor<1024xf32, #ttnn_layout18>) -> () loc(#loc)
        %3 = "ttnn.reshape"(%2) <{shape = [1 : i32, 1024 : i32, 1 : i32, 1 : i32]}> : (tensor<1024xf32, #ttnn_layout19>) -> tensor<1x1024x1x1xf32, #ttnn_layout17> loc(#loc28)
        "ttnn.deallocate"(%2) <{force = false}> : (tensor<1024xf32, #ttnn_layout19>) -> () loc(#loc28)
        return %3 : tensor<1x1024x1x1xf32, #ttnn_layout17> loc(#loc)
      } loc(#loc)
      func.func private @main_const_eval_46(%arg0: tensor<128xf32, #ttnn_layout8> loc(unknown)) -> tensor<1x128x1x1xf32, #ttnn_layout9> attributes {tt.function_type = "const_eval"} {
        %0 = "ttnn.get_device"() <{mesh_offset = #ttnn<mesh_offset 0x0>, mesh_shape = #ttnn<mesh_shape 1x1>}> : () -> !ttnn.device loc(#loc)
        %1 = "ttnn.to_device"(%arg0, %0) : (tensor<128xf32, #ttnn_layout8>, !ttnn.device) -> tensor<128xf32, #ttnn_layout10> loc(#loc)
        %2 = "ttnn.to_layout"(%1) <{layout = #ttnn.layout<tile>}> : (tensor<128xf32, #ttnn_layout10>) -> tensor<128xf32, #ttnn_layout11> loc(#loc)
        "ttnn.deallocate"(%1) <{force = false}> : (tensor<128xf32, #ttnn_layout10>) -> () loc(#loc)
        %3 = "ttnn.reshape"(%2) <{shape = [1 : i32, 128 : i32, 1 : i32, 1 : i32]}> : (tensor<128xf32, #ttnn_layout11>) -> tensor<1x128x1x1xf32, #ttnn_layout9> loc(#loc35)
        "ttnn.deallocate"(%2) <{force = false}> : (tensor<128xf32, #ttnn_layout11>) -> () loc(#loc35)
        return %3 : tensor<1x128x1x1xf32, #ttnn_layout9> loc(#loc)
      } loc(#loc)
      func.func private @main_const_eval_47(%arg0: tensor<256xf32, #ttnn_layout4> loc(unknown)) -> tensor<1x256x1x1xf32, #ttnn_layout5> attributes {tt.function_type = "const_eval"} {
        %0 = "ttnn.get_device"() <{mesh_offset = #ttnn<mesh_offset 0x0>, mesh_shape = #ttnn<mesh_shape 1x1>}> : () -> !ttnn.device loc(#loc)
        %1 = "ttnn.to_device"(%arg0, %0) : (tensor<256xf32, #ttnn_layout4>, !ttnn.device) -> tensor<256xf32, #ttnn_layout6> loc(#loc)
        %2 = "ttnn.to_layout"(%1) <{layout = #ttnn.layout<tile>}> : (tensor<256xf32, #ttnn_layout6>) -> tensor<256xf32, #ttnn_layout7> loc(#loc)
        "ttnn.deallocate"(%1) <{force = false}> : (tensor<256xf32, #ttnn_layout6>) -> () loc(#loc)
        %3 = "ttnn.reshape"(%2) <{shape = [1 : i32, 256 : i32, 1 : i32, 1 : i32]}> : (tensor<256xf32, #ttnn_layout7>) -> tensor<1x256x1x1xf32, #ttnn_layout5> loc(#loc36)
        "ttnn.deallocate"(%2) <{force = false}> : (tensor<256xf32, #ttnn_layout7>) -> () loc(#loc36)
        return %3 : tensor<1x256x1x1xf32, #ttnn_layout5> loc(#loc)
      } loc(#loc)
      func.func private @main_const_eval_48(%arg0: tensor<128xf32, #ttnn_layout8> loc(unknown)) -> tensor<1x128x1x1xf32, #ttnn_layout9> attributes {tt.function_type = "const_eval"} {
        %0 = "ttnn.get_device"() <{mesh_offset = #ttnn<mesh_offset 0x0>, mesh_shape = #ttnn<mesh_shape 1x1>}> : () -> !ttnn.device loc(#loc)
        %1 = "ttnn.to_device"(%arg0, %0) : (tensor<128xf32, #ttnn_layout8>, !ttnn.device) -> tensor<128xf32, #ttnn_layout10> loc(#loc)
        %2 = "ttnn.to_layout"(%1) <{layout = #ttnn.layout<tile>}> : (tensor<128xf32, #ttnn_layout10>) -> tensor<128xf32, #ttnn_layout11> loc(#loc)
        "ttnn.deallocate"(%1) <{force = false}> : (tensor<128xf32, #ttnn_layout10>) -> () loc(#loc)
        %3 = "ttnn.reshape"(%2) <{shape = [1 : i32, 128 : i32, 1 : i32, 1 : i32]}> : (tensor<128xf32, #ttnn_layout11>) -> tensor<1x128x1x1xf32, #ttnn_layout9> loc(#loc10)
        "ttnn.deallocate"(%2) <{force = false}> : (tensor<128xf32, #ttnn_layout11>) -> () loc(#loc10)
        return %3 : tensor<1x128x1x1xf32, #ttnn_layout9> loc(#loc)
      } loc(#loc)
      func.func private @main_const_eval_49(%arg0: tensor<256xf32, #ttnn_layout4> loc(unknown)) -> tensor<1x256x1x1xf32, #ttnn_layout5> attributes {tt.function_type = "const_eval"} {
        %0 = "ttnn.get_device"() <{mesh_offset = #ttnn<mesh_offset 0x0>, mesh_shape = #ttnn<mesh_shape 1x1>}> : () -> !ttnn.device loc(#loc)
        %1 = "ttnn.to_device"(%arg0, %0) : (tensor<256xf32, #ttnn_layout4>, !ttnn.device) -> tensor<256xf32, #ttnn_layout6> loc(#loc)
        %2 = "ttnn.to_layout"(%1) <{layout = #ttnn.layout<tile>}> : (tensor<256xf32, #ttnn_layout6>) -> tensor<256xf32, #ttnn_layout7> loc(#loc)
        "ttnn.deallocate"(%1) <{force = false}> : (tensor<256xf32, #ttnn_layout6>) -> () loc(#loc)
        %3 = "ttnn.reshape"(%2) <{shape = [1 : i32, 256 : i32, 1 : i32, 1 : i32]}> : (tensor<256xf32, #ttnn_layout7>) -> tensor<1x256x1x1xf32, #ttnn_layout5> loc(#loc37)
        "ttnn.deallocate"(%2) <{force = false}> : (tensor<256xf32, #ttnn_layout7>) -> () loc(#loc37)
        return %3 : tensor<1x256x1x1xf32, #ttnn_layout5> loc(#loc)
      } loc(#loc)
      func.func private @main_const_eval_50(%arg0: tensor<1024xf32, #ttnn_layout16> loc(unknown)) -> tensor<1x1024x1x1xf32, #ttnn_layout17> attributes {tt.function_type = "const_eval"} {
        %0 = "ttnn.get_device"() <{mesh_offset = #ttnn<mesh_offset 0x0>, mesh_shape = #ttnn<mesh_shape 1x1>}> : () -> !ttnn.device loc(#loc)
        %1 = "ttnn.to_device"(%arg0, %0) : (tensor<1024xf32, #ttnn_layout16>, !ttnn.device) -> tensor<1024xf32, #ttnn_layout18> loc(#loc)
        %2 = "ttnn.to_layout"(%1) <{layout = #ttnn.layout<tile>}> : (tensor<1024xf32, #ttnn_layout18>) -> tensor<1024xf32, #ttnn_layout19> loc(#loc)
        "ttnn.deallocate"(%1) <{force = false}> : (tensor<1024xf32, #ttnn_layout18>) -> () loc(#loc)
        %3 = "ttnn.reshape"(%2) <{shape = [1 : i32, 1024 : i32, 1 : i32, 1 : i32]}> : (tensor<1024xf32, #ttnn_layout19>) -> tensor<1x1024x1x1xf32, #ttnn_layout17> loc(#loc38)
        "ttnn.deallocate"(%2) <{force = false}> : (tensor<1024xf32, #ttnn_layout19>) -> () loc(#loc38)
        return %3 : tensor<1x1024x1x1xf32, #ttnn_layout17> loc(#loc)
      } loc(#loc)
      func.func private @main_const_eval_51(%arg0: tensor<1024xf32, #ttnn_layout16> loc(unknown)) -> tensor<1x1024x1x1xf32, #ttnn_layout17> attributes {tt.function_type = "const_eval"} {
        %0 = "ttnn.get_device"() <{mesh_offset = #ttnn<mesh_offset 0x0>, mesh_shape = #ttnn<mesh_shape 1x1>}> : () -> !ttnn.device loc(#loc)
        %1 = "ttnn.to_device"(%arg0, %0) : (tensor<1024xf32, #ttnn_layout16>, !ttnn.device) -> tensor<1024xf32, #ttnn_layout18> loc(#loc)
        %2 = "ttnn.to_layout"(%1) <{layout = #ttnn.layout<tile>}> : (tensor<1024xf32, #ttnn_layout18>) -> tensor<1024xf32, #ttnn_layout19> loc(#loc)
        "ttnn.deallocate"(%1) <{force = false}> : (tensor<1024xf32, #ttnn_layout18>) -> () loc(#loc)
        %3 = "ttnn.reshape"(%2) <{shape = [1 : i32, 1024 : i32, 1 : i32, 1 : i32]}> : (tensor<1024xf32, #ttnn_layout19>) -> tensor<1x1024x1x1xf32, #ttnn_layout17> loc(#loc26)
        "ttnn.deallocate"(%2) <{force = false}> : (tensor<1024xf32, #ttnn_layout19>) -> () loc(#loc26)
        return %3 : tensor<1x1024x1x1xf32, #ttnn_layout17> loc(#loc)
      } loc(#loc)
      func.func private @main_const_eval_52(%arg0: tensor<512xf32, #ttnn_layout12> loc(unknown)) -> tensor<1x512x1x1xf32, #ttnn_layout13> attributes {tt.function_type = "const_eval"} {
        %0 = "ttnn.get_device"() <{mesh_offset = #ttnn<mesh_offset 0x0>, mesh_shape = #ttnn<mesh_shape 1x1>}> : () -> !ttnn.device loc(#loc)
        %1 = "ttnn.to_device"(%arg0, %0) : (tensor<512xf32, #ttnn_layout12>, !ttnn.device) -> tensor<512xf32, #ttnn_layout14> loc(#loc)
        %2 = "ttnn.to_layout"(%1) <{layout = #ttnn.layout<tile>}> : (tensor<512xf32, #ttnn_layout14>) -> tensor<512xf32, #ttnn_layout15> loc(#loc)
        "ttnn.deallocate"(%1) <{force = false}> : (tensor<512xf32, #ttnn_layout14>) -> () loc(#loc)
        %3 = "ttnn.reshape"(%2) <{shape = [1 : i32, 512 : i32, 1 : i32, 1 : i32]}> : (tensor<512xf32, #ttnn_layout15>) -> tensor<1x512x1x1xf32, #ttnn_layout13> loc(#loc24)
        "ttnn.deallocate"(%2) <{force = false}> : (tensor<512xf32, #ttnn_layout15>) -> () loc(#loc24)
        return %3 : tensor<1x512x1x1xf32, #ttnn_layout13> loc(#loc)
      } loc(#loc)
      func.func private @main_const_eval_53(%arg0: tensor<256xf32, #ttnn_layout4> loc(unknown)) -> tensor<1x256x1x1xf32, #ttnn_layout5> attributes {tt.function_type = "const_eval"} {
        %0 = "ttnn.get_device"() <{mesh_offset = #ttnn<mesh_offset 0x0>, mesh_shape = #ttnn<mesh_shape 1x1>}> : () -> !ttnn.device loc(#loc)
        %1 = "ttnn.to_device"(%arg0, %0) : (tensor<256xf32, #ttnn_layout4>, !ttnn.device) -> tensor<256xf32, #ttnn_layout6> loc(#loc)
        %2 = "ttnn.to_layout"(%1) <{layout = #ttnn.layout<tile>}> : (tensor<256xf32, #ttnn_layout6>) -> tensor<256xf32, #ttnn_layout7> loc(#loc)
        "ttnn.deallocate"(%1) <{force = false}> : (tensor<256xf32, #ttnn_layout6>) -> () loc(#loc)
        %3 = "ttnn.reshape"(%2) <{shape = [1 : i32, 256 : i32, 1 : i32, 1 : i32]}> : (tensor<256xf32, #ttnn_layout7>) -> tensor<1x256x1x1xf32, #ttnn_layout5> loc(#loc19)
        "ttnn.deallocate"(%2) <{force = false}> : (tensor<256xf32, #ttnn_layout7>) -> () loc(#loc19)
        return %3 : tensor<1x256x1x1xf32, #ttnn_layout5> loc(#loc)
      } loc(#loc)
      func.func private @main_const_eval_54(%arg0: tensor<256xf32, #ttnn_layout4> loc(unknown)) -> tensor<1x256x1x1xf32, #ttnn_layout5> attributes {tt.function_type = "const_eval"} {
        %0 = "ttnn.get_device"() <{mesh_offset = #ttnn<mesh_offset 0x0>, mesh_shape = #ttnn<mesh_shape 1x1>}> : () -> !ttnn.device loc(#loc)
        %1 = "ttnn.to_device"(%arg0, %0) : (tensor<256xf32, #ttnn_layout4>, !ttnn.device) -> tensor<256xf32, #ttnn_layout6> loc(#loc)
        %2 = "ttnn.to_layout"(%1) <{layout = #ttnn.layout<tile>}> : (tensor<256xf32, #ttnn_layout6>) -> tensor<256xf32, #ttnn_layout7> loc(#loc)
        "ttnn.deallocate"(%1) <{force = false}> : (tensor<256xf32, #ttnn_layout6>) -> () loc(#loc)
        %3 = "ttnn.reshape"(%2) <{shape = [1 : i32, 256 : i32, 1 : i32, 1 : i32]}> : (tensor<256xf32, #ttnn_layout7>) -> tensor<1x256x1x1xf32, #ttnn_layout5> loc(#loc22)
        "ttnn.deallocate"(%2) <{force = false}> : (tensor<256xf32, #ttnn_layout7>) -> () loc(#loc22)
        return %3 : tensor<1x256x1x1xf32, #ttnn_layout5> loc(#loc)
      } loc(#loc)
      func.func private @main_const_eval_55(%arg0: tensor<512xf32, #ttnn_layout12> loc(unknown)) -> tensor<1x512x1x1xf32, #ttnn_layout13> attributes {tt.function_type = "const_eval"} {
        %0 = "ttnn.get_device"() <{mesh_offset = #ttnn<mesh_offset 0x0>, mesh_shape = #ttnn<mesh_shape 1x1>}> : () -> !ttnn.device loc(#loc)
        %1 = "ttnn.to_device"(%arg0, %0) : (tensor<512xf32, #ttnn_layout12>, !ttnn.device) -> tensor<512xf32, #ttnn_layout14> loc(#loc)
        %2 = "ttnn.to_layout"(%1) <{layout = #ttnn.layout<tile>}> : (tensor<512xf32, #ttnn_layout14>) -> tensor<512xf32, #ttnn_layout15> loc(#loc)
        "ttnn.deallocate"(%1) <{force = false}> : (tensor<512xf32, #ttnn_layout14>) -> () loc(#loc)
        %3 = "ttnn.reshape"(%2) <{shape = [1 : i32, 512 : i32, 1 : i32, 1 : i32]}> : (tensor<512xf32, #ttnn_layout15>) -> tensor<1x512x1x1xf32, #ttnn_layout13> loc(#loc39)
        "ttnn.deallocate"(%2) <{force = false}> : (tensor<512xf32, #ttnn_layout15>) -> () loc(#loc39)
        return %3 : tensor<1x512x1x1xf32, #ttnn_layout13> loc(#loc)
      } loc(#loc)
      func.func private @main_const_eval_56(%arg0: tensor<512xf32, #ttnn_layout12> loc(unknown)) -> tensor<1x512x1x1xf32, #ttnn_layout13> attributes {tt.function_type = "const_eval"} {
        %0 = "ttnn.get_device"() <{mesh_offset = #ttnn<mesh_offset 0x0>, mesh_shape = #ttnn<mesh_shape 1x1>}> : () -> !ttnn.device loc(#loc)
        %1 = "ttnn.to_device"(%arg0, %0) : (tensor<512xf32, #ttnn_layout12>, !ttnn.device) -> tensor<512xf32, #ttnn_layout14> loc(#loc)
        %2 = "ttnn.to_layout"(%1) <{layout = #ttnn.layout<tile>}> : (tensor<512xf32, #ttnn_layout14>) -> tensor<512xf32, #ttnn_layout15> loc(#loc)
        "ttnn.deallocate"(%1) <{force = false}> : (tensor<512xf32, #ttnn_layout14>) -> () loc(#loc)
        %3 = "ttnn.reshape"(%2) <{shape = [1 : i32, 512 : i32, 1 : i32, 1 : i32]}> : (tensor<512xf32, #ttnn_layout15>) -> tensor<1x512x1x1xf32, #ttnn_layout13> loc(#loc40)
        "ttnn.deallocate"(%2) <{force = false}> : (tensor<512xf32, #ttnn_layout15>) -> () loc(#loc40)
        return %3 : tensor<1x512x1x1xf32, #ttnn_layout13> loc(#loc)
      } loc(#loc)
      func.func private @main_const_eval_57(%arg0: tensor<128xf32, #ttnn_layout8> loc(unknown)) -> tensor<1x128x1x1xf32, #ttnn_layout9> attributes {tt.function_type = "const_eval"} {
        %0 = "ttnn.get_device"() <{mesh_offset = #ttnn<mesh_offset 0x0>, mesh_shape = #ttnn<mesh_shape 1x1>}> : () -> !ttnn.device loc(#loc)
        %1 = "ttnn.to_device"(%arg0, %0) : (tensor<128xf32, #ttnn_layout8>, !ttnn.device) -> tensor<128xf32, #ttnn_layout10> loc(#loc)
        %2 = "ttnn.to_layout"(%1) <{layout = #ttnn.layout<tile>}> : (tensor<128xf32, #ttnn_layout10>) -> tensor<128xf32, #ttnn_layout11> loc(#loc)
        "ttnn.deallocate"(%1) <{force = false}> : (tensor<128xf32, #ttnn_layout10>) -> () loc(#loc)
        %3 = "ttnn.reshape"(%2) <{shape = [1 : i32, 128 : i32, 1 : i32, 1 : i32]}> : (tensor<128xf32, #ttnn_layout11>) -> tensor<1x128x1x1xf32, #ttnn_layout9> loc(#loc41)
        "ttnn.deallocate"(%2) <{force = false}> : (tensor<128xf32, #ttnn_layout11>) -> () loc(#loc41)
        return %3 : tensor<1x128x1x1xf32, #ttnn_layout9> loc(#loc)
      } loc(#loc)
      func.func private @main_const_eval_58(%arg0: tensor<128xf32, #ttnn_layout8> loc(unknown)) -> tensor<1x128x1x1xf32, #ttnn_layout9> attributes {tt.function_type = "const_eval"} {
        %0 = "ttnn.get_device"() <{mesh_offset = #ttnn<mesh_offset 0x0>, mesh_shape = #ttnn<mesh_shape 1x1>}> : () -> !ttnn.device loc(#loc)
        %1 = "ttnn.to_device"(%arg0, %0) : (tensor<128xf32, #ttnn_layout8>, !ttnn.device) -> tensor<128xf32, #ttnn_layout10> loc(#loc)
        %2 = "ttnn.to_layout"(%1) <{layout = #ttnn.layout<tile>}> : (tensor<128xf32, #ttnn_layout10>) -> tensor<128xf32, #ttnn_layout11> loc(#loc)
        "ttnn.deallocate"(%1) <{force = false}> : (tensor<128xf32, #ttnn_layout10>) -> () loc(#loc)
        %3 = "ttnn.reshape"(%2) <{shape = [1 : i32, 128 : i32, 1 : i32, 1 : i32]}> : (tensor<128xf32, #ttnn_layout11>) -> tensor<1x128x1x1xf32, #ttnn_layout9> loc(#loc35)
        "ttnn.deallocate"(%2) <{force = false}> : (tensor<128xf32, #ttnn_layout11>) -> () loc(#loc35)
        return %3 : tensor<1x128x1x1xf32, #ttnn_layout9> loc(#loc)
      } loc(#loc)
      func.func private @main_const_eval_59(%arg0: tensor<256xf32, #ttnn_layout4> loc(unknown)) -> tensor<1x256x1x1xf32, #ttnn_layout5> attributes {tt.function_type = "const_eval"} {
        %0 = "ttnn.get_device"() <{mesh_offset = #ttnn<mesh_offset 0x0>, mesh_shape = #ttnn<mesh_shape 1x1>}> : () -> !ttnn.device loc(#loc)
        %1 = "ttnn.to_device"(%arg0, %0) : (tensor<256xf32, #ttnn_layout4>, !ttnn.device) -> tensor<256xf32, #ttnn_layout6> loc(#loc)
        %2 = "ttnn.to_layout"(%1) <{layout = #ttnn.layout<tile>}> : (tensor<256xf32, #ttnn_layout6>) -> tensor<256xf32, #ttnn_layout7> loc(#loc)
        "ttnn.deallocate"(%1) <{force = false}> : (tensor<256xf32, #ttnn_layout6>) -> () loc(#loc)
        %3 = "ttnn.reshape"(%2) <{shape = [1 : i32, 256 : i32, 1 : i32, 1 : i32]}> : (tensor<256xf32, #ttnn_layout7>) -> tensor<1x256x1x1xf32, #ttnn_layout5> loc(#loc42)
        "ttnn.deallocate"(%2) <{force = false}> : (tensor<256xf32, #ttnn_layout7>) -> () loc(#loc42)
        return %3 : tensor<1x256x1x1xf32, #ttnn_layout5> loc(#loc)
      } loc(#loc)
      func.func private @main_const_eval_60(%arg0: tensor<256xf32, #ttnn_layout4> loc(unknown)) -> tensor<1x256x1x1xf32, #ttnn_layout5> attributes {tt.function_type = "const_eval"} {
        %0 = "ttnn.get_device"() <{mesh_offset = #ttnn<mesh_offset 0x0>, mesh_shape = #ttnn<mesh_shape 1x1>}> : () -> !ttnn.device loc(#loc)
        %1 = "ttnn.to_device"(%arg0, %0) : (tensor<256xf32, #ttnn_layout4>, !ttnn.device) -> tensor<256xf32, #ttnn_layout6> loc(#loc)
        %2 = "ttnn.to_layout"(%1) <{layout = #ttnn.layout<tile>}> : (tensor<256xf32, #ttnn_layout6>) -> tensor<256xf32, #ttnn_layout7> loc(#loc)
        "ttnn.deallocate"(%1) <{force = false}> : (tensor<256xf32, #ttnn_layout6>) -> () loc(#loc)
        %3 = "ttnn.reshape"(%2) <{shape = [1 : i32, 256 : i32, 1 : i32, 1 : i32]}> : (tensor<256xf32, #ttnn_layout7>) -> tensor<1x256x1x1xf32, #ttnn_layout5> loc(#loc36)
        "ttnn.deallocate"(%2) <{force = false}> : (tensor<256xf32, #ttnn_layout7>) -> () loc(#loc36)
        return %3 : tensor<1x256x1x1xf32, #ttnn_layout5> loc(#loc)
      } loc(#loc)
      func.func private @main_const_eval_61(%arg0: tensor<512xf32, #ttnn_layout12> loc(unknown)) -> tensor<1x512x1x1xf32, #ttnn_layout13> attributes {tt.function_type = "const_eval"} {
        %0 = "ttnn.get_device"() <{mesh_offset = #ttnn<mesh_offset 0x0>, mesh_shape = #ttnn<mesh_shape 1x1>}> : () -> !ttnn.device loc(#loc)
        %1 = "ttnn.to_device"(%arg0, %0) : (tensor<512xf32, #ttnn_layout12>, !ttnn.device) -> tensor<512xf32, #ttnn_layout14> loc(#loc)
        %2 = "ttnn.to_layout"(%1) <{layout = #ttnn.layout<tile>}> : (tensor<512xf32, #ttnn_layout14>) -> tensor<512xf32, #ttnn_layout15> loc(#loc)
        "ttnn.deallocate"(%1) <{force = false}> : (tensor<512xf32, #ttnn_layout14>) -> () loc(#loc)
        %3 = "ttnn.reshape"(%2) <{shape = [1 : i32, 512 : i32, 1 : i32, 1 : i32]}> : (tensor<512xf32, #ttnn_layout15>) -> tensor<1x512x1x1xf32, #ttnn_layout13> loc(#loc43)
        "ttnn.deallocate"(%2) <{force = false}> : (tensor<512xf32, #ttnn_layout15>) -> () loc(#loc43)
        return %3 : tensor<1x512x1x1xf32, #ttnn_layout13> loc(#loc)
      } loc(#loc)
      func.func private @main_const_eval_62(%arg0: tensor<128xf32, #ttnn_layout8> loc(unknown)) -> tensor<1x128x1x1xf32, #ttnn_layout9> attributes {tt.function_type = "const_eval"} {
        %0 = "ttnn.get_device"() <{mesh_offset = #ttnn<mesh_offset 0x0>, mesh_shape = #ttnn<mesh_shape 1x1>}> : () -> !ttnn.device loc(#loc)
        %1 = "ttnn.to_device"(%arg0, %0) : (tensor<128xf32, #ttnn_layout8>, !ttnn.device) -> tensor<128xf32, #ttnn_layout10> loc(#loc)
        %2 = "ttnn.to_layout"(%1) <{layout = #ttnn.layout<tile>}> : (tensor<128xf32, #ttnn_layout10>) -> tensor<128xf32, #ttnn_layout11> loc(#loc)
        "ttnn.deallocate"(%1) <{force = false}> : (tensor<128xf32, #ttnn_layout10>) -> () loc(#loc)
        %3 = "ttnn.reshape"(%2) <{shape = [1 : i32, 128 : i32, 1 : i32, 1 : i32]}> : (tensor<128xf32, #ttnn_layout11>) -> tensor<1x128x1x1xf32, #ttnn_layout9> loc(#loc41)
        "ttnn.deallocate"(%2) <{force = false}> : (tensor<128xf32, #ttnn_layout11>) -> () loc(#loc41)
        return %3 : tensor<1x128x1x1xf32, #ttnn_layout9> loc(#loc)
      } loc(#loc)
      func.func private @main_const_eval_63(%arg0: tensor<128xf32, #ttnn_layout8> loc(unknown)) -> tensor<1x128x1x1xf32, #ttnn_layout9> attributes {tt.function_type = "const_eval"} {
        %0 = "ttnn.get_device"() <{mesh_offset = #ttnn<mesh_offset 0x0>, mesh_shape = #ttnn<mesh_shape 1x1>}> : () -> !ttnn.device loc(#loc)
        %1 = "ttnn.to_device"(%arg0, %0) : (tensor<128xf32, #ttnn_layout8>, !ttnn.device) -> tensor<128xf32, #ttnn_layout10> loc(#loc)
        %2 = "ttnn.to_layout"(%1) <{layout = #ttnn.layout<tile>}> : (tensor<128xf32, #ttnn_layout10>) -> tensor<128xf32, #ttnn_layout11> loc(#loc)
        "ttnn.deallocate"(%1) <{force = false}> : (tensor<128xf32, #ttnn_layout10>) -> () loc(#loc)
        %3 = "ttnn.reshape"(%2) <{shape = [1 : i32, 128 : i32, 1 : i32, 1 : i32]}> : (tensor<128xf32, #ttnn_layout11>) -> tensor<1x128x1x1xf32, #ttnn_layout9> loc(#loc29)
        "ttnn.deallocate"(%2) <{force = false}> : (tensor<128xf32, #ttnn_layout11>) -> () loc(#loc29)
        return %3 : tensor<1x128x1x1xf32, #ttnn_layout9> loc(#loc)
      } loc(#loc)
      func.func private @main_const_eval_64(%arg0: tensor<256xf32, #ttnn_layout4> loc(unknown)) -> tensor<1x256x1x1xf32, #ttnn_layout5> attributes {tt.function_type = "const_eval"} {
        %0 = "ttnn.get_device"() <{mesh_offset = #ttnn<mesh_offset 0x0>, mesh_shape = #ttnn<mesh_shape 1x1>}> : () -> !ttnn.device loc(#loc)
        %1 = "ttnn.to_device"(%arg0, %0) : (tensor<256xf32, #ttnn_layout4>, !ttnn.device) -> tensor<256xf32, #ttnn_layout6> loc(#loc)
        %2 = "ttnn.to_layout"(%1) <{layout = #ttnn.layout<tile>}> : (tensor<256xf32, #ttnn_layout6>) -> tensor<256xf32, #ttnn_layout7> loc(#loc)
        "ttnn.deallocate"(%1) <{force = false}> : (tensor<256xf32, #ttnn_layout6>) -> () loc(#loc)
        %3 = "ttnn.reshape"(%2) <{shape = [1 : i32, 256 : i32, 1 : i32, 1 : i32]}> : (tensor<256xf32, #ttnn_layout7>) -> tensor<1x256x1x1xf32, #ttnn_layout5> loc(#loc44)
        "ttnn.deallocate"(%2) <{force = false}> : (tensor<256xf32, #ttnn_layout7>) -> () loc(#loc44)
        return %3 : tensor<1x256x1x1xf32, #ttnn_layout5> loc(#loc)
      } loc(#loc)
      func.func private @main_const_eval_65(%arg0: tensor<512xf32, #ttnn_layout12> loc(unknown)) -> tensor<1x512x1x1xf32, #ttnn_layout13> attributes {tt.function_type = "const_eval"} {
        %0 = "ttnn.get_device"() <{mesh_offset = #ttnn<mesh_offset 0x0>, mesh_shape = #ttnn<mesh_shape 1x1>}> : () -> !ttnn.device loc(#loc)
        %1 = "ttnn.to_device"(%arg0, %0) : (tensor<512xf32, #ttnn_layout12>, !ttnn.device) -> tensor<512xf32, #ttnn_layout14> loc(#loc)
        %2 = "ttnn.to_layout"(%1) <{layout = #ttnn.layout<tile>}> : (tensor<512xf32, #ttnn_layout14>) -> tensor<512xf32, #ttnn_layout15> loc(#loc)
        "ttnn.deallocate"(%1) <{force = false}> : (tensor<512xf32, #ttnn_layout14>) -> () loc(#loc)
        %3 = "ttnn.reshape"(%2) <{shape = [1 : i32, 512 : i32, 1 : i32, 1 : i32]}> : (tensor<512xf32, #ttnn_layout15>) -> tensor<1x512x1x1xf32, #ttnn_layout13> loc(#loc24)
        "ttnn.deallocate"(%2) <{force = false}> : (tensor<512xf32, #ttnn_layout15>) -> () loc(#loc24)
        return %3 : tensor<1x512x1x1xf32, #ttnn_layout13> loc(#loc)
      } loc(#loc)
      func.func private @main_const_eval_66(%arg0: tensor<2048xf32, #ttnn_layout20> loc(unknown)) -> tensor<1x2048x1x1xf32, #ttnn_layout21> attributes {tt.function_type = "const_eval"} {
        %0 = "ttnn.get_device"() <{mesh_offset = #ttnn<mesh_offset 0x0>, mesh_shape = #ttnn<mesh_shape 1x1>}> : () -> !ttnn.device loc(#loc)
        %1 = "ttnn.to_device"(%arg0, %0) : (tensor<2048xf32, #ttnn_layout20>, !ttnn.device) -> tensor<2048xf32, #ttnn_layout22> loc(#loc)
        %2 = "ttnn.to_layout"(%1) <{layout = #ttnn.layout<tile>}> : (tensor<2048xf32, #ttnn_layout22>) -> tensor<2048xf32, #ttnn_layout23> loc(#loc)
        "ttnn.deallocate"(%1) <{force = false}> : (tensor<2048xf32, #ttnn_layout22>) -> () loc(#loc)
        %3 = "ttnn.reshape"(%2) <{shape = [1 : i32, 2048 : i32, 1 : i32, 1 : i32]}> : (tensor<2048xf32, #ttnn_layout23>) -> tensor<1x2048x1x1xf32, #ttnn_layout21> loc(#loc45)
        "ttnn.deallocate"(%2) <{force = false}> : (tensor<2048xf32, #ttnn_layout23>) -> () loc(#loc45)
        return %3 : tensor<1x2048x1x1xf32, #ttnn_layout21> loc(#loc)
      } loc(#loc)
      func.func private @main_const_eval_67(%arg0: tensor<512xf32, #ttnn_layout12> loc(unknown)) -> tensor<1x512x1x1xf32, #ttnn_layout13> attributes {tt.function_type = "const_eval"} {
        %0 = "ttnn.get_device"() <{mesh_offset = #ttnn<mesh_offset 0x0>, mesh_shape = #ttnn<mesh_shape 1x1>}> : () -> !ttnn.device loc(#loc)
        %1 = "ttnn.to_device"(%arg0, %0) : (tensor<512xf32, #ttnn_layout12>, !ttnn.device) -> tensor<512xf32, #ttnn_layout14> loc(#loc)
        %2 = "ttnn.to_layout"(%1) <{layout = #ttnn.layout<tile>}> : (tensor<512xf32, #ttnn_layout14>) -> tensor<512xf32, #ttnn_layout15> loc(#loc)
        "ttnn.deallocate"(%1) <{force = false}> : (tensor<512xf32, #ttnn_layout14>) -> () loc(#loc)
        %3 = "ttnn.reshape"(%2) <{shape = [1 : i32, 512 : i32, 1 : i32, 1 : i32]}> : (tensor<512xf32, #ttnn_layout15>) -> tensor<1x512x1x1xf32, #ttnn_layout13> loc(#loc43)
        "ttnn.deallocate"(%2) <{force = false}> : (tensor<512xf32, #ttnn_layout15>) -> () loc(#loc43)
        return %3 : tensor<1x512x1x1xf32, #ttnn_layout13> loc(#loc)
      } loc(#loc)
      func.func private @main_const_eval_68(%arg0: tensor<256xf32, #ttnn_layout4> loc(unknown)) -> tensor<1x256x1x1xf32, #ttnn_layout5> attributes {tt.function_type = "const_eval"} {
        %0 = "ttnn.get_device"() <{mesh_offset = #ttnn<mesh_offset 0x0>, mesh_shape = #ttnn<mesh_shape 1x1>}> : () -> !ttnn.device loc(#loc)
        %1 = "ttnn.to_device"(%arg0, %0) : (tensor<256xf32, #ttnn_layout4>, !ttnn.device) -> tensor<256xf32, #ttnn_layout6> loc(#loc)
        %2 = "ttnn.to_layout"(%1) <{layout = #ttnn.layout<tile>}> : (tensor<256xf32, #ttnn_layout6>) -> tensor<256xf32, #ttnn_layout7> loc(#loc)
        "ttnn.deallocate"(%1) <{force = false}> : (tensor<256xf32, #ttnn_layout6>) -> () loc(#loc)
        %3 = "ttnn.reshape"(%2) <{shape = [1 : i32, 256 : i32, 1 : i32, 1 : i32]}> : (tensor<256xf32, #ttnn_layout7>) -> tensor<1x256x1x1xf32, #ttnn_layout5> loc(#loc46)
        "ttnn.deallocate"(%2) <{force = false}> : (tensor<256xf32, #ttnn_layout7>) -> () loc(#loc46)
        return %3 : tensor<1x256x1x1xf32, #ttnn_layout5> loc(#loc)
      } loc(#loc)
      func.func private @main_const_eval_69(%arg0: tensor<2048xf32, #ttnn_layout20> loc(unknown)) -> tensor<1x2048x1x1xf32, #ttnn_layout21> attributes {tt.function_type = "const_eval"} {
        %0 = "ttnn.get_device"() <{mesh_offset = #ttnn<mesh_offset 0x0>, mesh_shape = #ttnn<mesh_shape 1x1>}> : () -> !ttnn.device loc(#loc)
        %1 = "ttnn.to_device"(%arg0, %0) : (tensor<2048xf32, #ttnn_layout20>, !ttnn.device) -> tensor<2048xf32, #ttnn_layout22> loc(#loc)
        %2 = "ttnn.to_layout"(%1) <{layout = #ttnn.layout<tile>}> : (tensor<2048xf32, #ttnn_layout22>) -> tensor<2048xf32, #ttnn_layout23> loc(#loc)
        "ttnn.deallocate"(%1) <{force = false}> : (tensor<2048xf32, #ttnn_layout22>) -> () loc(#loc)
        %3 = "ttnn.reshape"(%2) <{shape = [1 : i32, 2048 : i32, 1 : i32, 1 : i32]}> : (tensor<2048xf32, #ttnn_layout23>) -> tensor<1x2048x1x1xf32, #ttnn_layout21> loc(#loc15)
        "ttnn.deallocate"(%2) <{force = false}> : (tensor<2048xf32, #ttnn_layout23>) -> () loc(#loc15)
        return %3 : tensor<1x2048x1x1xf32, #ttnn_layout21> loc(#loc)
      } loc(#loc)
      func.func private @main_const_eval_70(%arg0: tensor<2048xf32, #ttnn_layout20> loc(unknown)) -> tensor<1x2048x1x1xf32, #ttnn_layout21> attributes {tt.function_type = "const_eval"} {
        %0 = "ttnn.get_device"() <{mesh_offset = #ttnn<mesh_offset 0x0>, mesh_shape = #ttnn<mesh_shape 1x1>}> : () -> !ttnn.device loc(#loc)
        %1 = "ttnn.to_device"(%arg0, %0) : (tensor<2048xf32, #ttnn_layout20>, !ttnn.device) -> tensor<2048xf32, #ttnn_layout22> loc(#loc)
        %2 = "ttnn.to_layout"(%1) <{layout = #ttnn.layout<tile>}> : (tensor<2048xf32, #ttnn_layout22>) -> tensor<2048xf32, #ttnn_layout23> loc(#loc)
        "ttnn.deallocate"(%1) <{force = false}> : (tensor<2048xf32, #ttnn_layout22>) -> () loc(#loc)
        %3 = "ttnn.reshape"(%2) <{shape = [1 : i32, 2048 : i32, 1 : i32, 1 : i32]}> : (tensor<2048xf32, #ttnn_layout23>) -> tensor<1x2048x1x1xf32, #ttnn_layout21> loc(#loc47)
        "ttnn.deallocate"(%2) <{force = false}> : (tensor<2048xf32, #ttnn_layout23>) -> () loc(#loc47)
        return %3 : tensor<1x2048x1x1xf32, #ttnn_layout21> loc(#loc)
      } loc(#loc)
      func.func private @main_const_eval_71(%arg0: tensor<2048xf32, #ttnn_layout20> loc(unknown)) -> tensor<1x2048x1x1xf32, #ttnn_layout21> attributes {tt.function_type = "const_eval"} {
        %0 = "ttnn.get_device"() <{mesh_offset = #ttnn<mesh_offset 0x0>, mesh_shape = #ttnn<mesh_shape 1x1>}> : () -> !ttnn.device loc(#loc)
        %1 = "ttnn.to_device"(%arg0, %0) : (tensor<2048xf32, #ttnn_layout20>, !ttnn.device) -> tensor<2048xf32, #ttnn_layout22> loc(#loc)
        %2 = "ttnn.to_layout"(%1) <{layout = #ttnn.layout<tile>}> : (tensor<2048xf32, #ttnn_layout22>) -> tensor<2048xf32, #ttnn_layout23> loc(#loc)
        "ttnn.deallocate"(%1) <{force = false}> : (tensor<2048xf32, #ttnn_layout22>) -> () loc(#loc)
        %3 = "ttnn.reshape"(%2) <{shape = [1 : i32, 2048 : i32, 1 : i32, 1 : i32]}> : (tensor<2048xf32, #ttnn_layout23>) -> tensor<1x2048x1x1xf32, #ttnn_layout21> loc(#loc47)
        "ttnn.deallocate"(%2) <{force = false}> : (tensor<2048xf32, #ttnn_layout23>) -> () loc(#loc47)
        return %3 : tensor<1x2048x1x1xf32, #ttnn_layout21> loc(#loc)
      } loc(#loc)
      func.func private @main_const_eval_72(%arg0: tensor<64xf32, #ttnn_layout> loc(unknown)) -> tensor<1x64x1x1xf32, #ttnn_layout1> attributes {tt.function_type = "const_eval"} {
        %0 = "ttnn.get_device"() <{mesh_offset = #ttnn<mesh_offset 0x0>, mesh_shape = #ttnn<mesh_shape 1x1>}> : () -> !ttnn.device loc(#loc)
        %1 = "ttnn.to_device"(%arg0, %0) : (tensor<64xf32, #ttnn_layout>, !ttnn.device) -> tensor<64xf32, #ttnn_layout2> loc(#loc)
        %2 = "ttnn.to_layout"(%1) <{layout = #ttnn.layout<tile>}> : (tensor<64xf32, #ttnn_layout2>) -> tensor<64xf32, #ttnn_layout3> loc(#loc)
        "ttnn.deallocate"(%1) <{force = false}> : (tensor<64xf32, #ttnn_layout2>) -> () loc(#loc)
        %3 = "ttnn.reshape"(%2) <{shape = [1 : i32, 64 : i32, 1 : i32, 1 : i32]}> : (tensor<64xf32, #ttnn_layout3>) -> tensor<1x64x1x1xf32, #ttnn_layout1> loc(#loc9)
        "ttnn.deallocate"(%2) <{force = false}> : (tensor<64xf32, #ttnn_layout3>) -> () loc(#loc9)
        return %3 : tensor<1x64x1x1xf32, #ttnn_layout1> loc(#loc)
      } loc(#loc)
      func.func private @main_const_eval_73(%arg0: tensor<256xf32, #ttnn_layout4> loc(unknown)) -> tensor<1x256x1x1xf32, #ttnn_layout5> attributes {tt.function_type = "const_eval"} {
        %0 = "ttnn.get_device"() <{mesh_offset = #ttnn<mesh_offset 0x0>, mesh_shape = #ttnn<mesh_shape 1x1>}> : () -> !ttnn.device loc(#loc)
        %1 = "ttnn.to_device"(%arg0, %0) : (tensor<256xf32, #ttnn_layout4>, !ttnn.device) -> tensor<256xf32, #ttnn_layout6> loc(#loc)
        %2 = "ttnn.to_layout"(%1) <{layout = #ttnn.layout<tile>}> : (tensor<256xf32, #ttnn_layout6>) -> tensor<256xf32, #ttnn_layout7> loc(#loc)
        "ttnn.deallocate"(%1) <{force = false}> : (tensor<256xf32, #ttnn_layout6>) -> () loc(#loc)
        %3 = "ttnn.reshape"(%2) <{shape = [1 : i32, 256 : i32, 1 : i32, 1 : i32]}> : (tensor<256xf32, #ttnn_layout7>) -> tensor<1x256x1x1xf32, #ttnn_layout5> loc(#loc27)
        "ttnn.deallocate"(%2) <{force = false}> : (tensor<256xf32, #ttnn_layout7>) -> () loc(#loc27)
        return %3 : tensor<1x256x1x1xf32, #ttnn_layout5> loc(#loc)
      } loc(#loc)
      func.func private @main_const_eval_74(%arg0: tensor<256xf32, #ttnn_layout4> loc(unknown)) -> tensor<1x256x1x1xf32, #ttnn_layout5> attributes {tt.function_type = "const_eval"} {
        %0 = "ttnn.get_device"() <{mesh_offset = #ttnn<mesh_offset 0x0>, mesh_shape = #ttnn<mesh_shape 1x1>}> : () -> !ttnn.device loc(#loc)
        %1 = "ttnn.to_device"(%arg0, %0) : (tensor<256xf32, #ttnn_layout4>, !ttnn.device) -> tensor<256xf32, #ttnn_layout6> loc(#loc)
        %2 = "ttnn.to_layout"(%1) <{layout = #ttnn.layout<tile>}> : (tensor<256xf32, #ttnn_layout6>) -> tensor<256xf32, #ttnn_layout7> loc(#loc)
        "ttnn.deallocate"(%1) <{force = false}> : (tensor<256xf32, #ttnn_layout6>) -> () loc(#loc)
        %3 = "ttnn.reshape"(%2) <{shape = [1 : i32, 256 : i32, 1 : i32, 1 : i32]}> : (tensor<256xf32, #ttnn_layout7>) -> tensor<1x256x1x1xf32, #ttnn_layout5> loc(#loc48)
        "ttnn.deallocate"(%2) <{force = false}> : (tensor<256xf32, #ttnn_layout7>) -> () loc(#loc48)
        return %3 : tensor<1x256x1x1xf32, #ttnn_layout5> loc(#loc)
      } loc(#loc)
      func.func private @main_const_eval_75(%arg0: tensor<512xf32, #ttnn_layout12> loc(unknown)) -> tensor<1x512x1x1xf32, #ttnn_layout13> attributes {tt.function_type = "const_eval"} {
        %0 = "ttnn.get_device"() <{mesh_offset = #ttnn<mesh_offset 0x0>, mesh_shape = #ttnn<mesh_shape 1x1>}> : () -> !ttnn.device loc(#loc)
        %1 = "ttnn.to_device"(%arg0, %0) : (tensor<512xf32, #ttnn_layout12>, !ttnn.device) -> tensor<512xf32, #ttnn_layout14> loc(#loc)
        %2 = "ttnn.to_layout"(%1) <{layout = #ttnn.layout<tile>}> : (tensor<512xf32, #ttnn_layout14>) -> tensor<512xf32, #ttnn_layout15> loc(#loc)
        "ttnn.deallocate"(%1) <{force = false}> : (tensor<512xf32, #ttnn_layout14>) -> () loc(#loc)
        %3 = "ttnn.reshape"(%2) <{shape = [1 : i32, 512 : i32, 1 : i32, 1 : i32]}> : (tensor<512xf32, #ttnn_layout15>) -> tensor<1x512x1x1xf32, #ttnn_layout13> loc(#loc39)
        "ttnn.deallocate"(%2) <{force = false}> : (tensor<512xf32, #ttnn_layout15>) -> () loc(#loc39)
        return %3 : tensor<1x512x1x1xf32, #ttnn_layout13> loc(#loc)
      } loc(#loc)
      func.func private @main_const_eval_76(%arg0: tensor<512xf32, #ttnn_layout12> loc(unknown)) -> tensor<1x512x1x1xf32, #ttnn_layout13> attributes {tt.function_type = "const_eval"} {
        %0 = "ttnn.get_device"() <{mesh_offset = #ttnn<mesh_offset 0x0>, mesh_shape = #ttnn<mesh_shape 1x1>}> : () -> !ttnn.device loc(#loc)
        %1 = "ttnn.to_device"(%arg0, %0) : (tensor<512xf32, #ttnn_layout12>, !ttnn.device) -> tensor<512xf32, #ttnn_layout14> loc(#loc)
        %2 = "ttnn.to_layout"(%1) <{layout = #ttnn.layout<tile>}> : (tensor<512xf32, #ttnn_layout14>) -> tensor<512xf32, #ttnn_layout15> loc(#loc)
        "ttnn.deallocate"(%1) <{force = false}> : (tensor<512xf32, #ttnn_layout14>) -> () loc(#loc)
        %3 = "ttnn.reshape"(%2) <{shape = [1 : i32, 512 : i32, 1 : i32, 1 : i32]}> : (tensor<512xf32, #ttnn_layout15>) -> tensor<1x512x1x1xf32, #ttnn_layout13> loc(#loc49)
        "ttnn.deallocate"(%2) <{force = false}> : (tensor<512xf32, #ttnn_layout15>) -> () loc(#loc49)
        return %3 : tensor<1x512x1x1xf32, #ttnn_layout13> loc(#loc)
      } loc(#loc)
      func.func private @main_const_eval_77(%arg0: tensor<1024xf32, #ttnn_layout16> loc(unknown)) -> tensor<1x1024x1x1xf32, #ttnn_layout17> attributes {tt.function_type = "const_eval"} {
        %0 = "ttnn.get_device"() <{mesh_offset = #ttnn<mesh_offset 0x0>, mesh_shape = #ttnn<mesh_shape 1x1>}> : () -> !ttnn.device loc(#loc)
        %1 = "ttnn.to_device"(%arg0, %0) : (tensor<1024xf32, #ttnn_layout16>, !ttnn.device) -> tensor<1024xf32, #ttnn_layout18> loc(#loc)
        %2 = "ttnn.to_layout"(%1) <{layout = #ttnn.layout<tile>}> : (tensor<1024xf32, #ttnn_layout18>) -> tensor<1024xf32, #ttnn_layout19> loc(#loc)
        "ttnn.deallocate"(%1) <{force = false}> : (tensor<1024xf32, #ttnn_layout18>) -> () loc(#loc)
        %3 = "ttnn.reshape"(%2) <{shape = [1 : i32, 1024 : i32, 1 : i32, 1 : i32]}> : (tensor<1024xf32, #ttnn_layout19>) -> tensor<1x1024x1x1xf32, #ttnn_layout17> loc(#loc13)
        "ttnn.deallocate"(%2) <{force = false}> : (tensor<1024xf32, #ttnn_layout19>) -> () loc(#loc13)
        return %3 : tensor<1x1024x1x1xf32, #ttnn_layout17> loc(#loc)
      } loc(#loc)
      func.func private @main_const_eval_78(%arg0: tensor<128xf32, #ttnn_layout8> loc(unknown)) -> tensor<1x128x1x1xf32, #ttnn_layout9> attributes {tt.function_type = "const_eval"} {
        %0 = "ttnn.get_device"() <{mesh_offset = #ttnn<mesh_offset 0x0>, mesh_shape = #ttnn<mesh_shape 1x1>}> : () -> !ttnn.device loc(#loc)
        %1 = "ttnn.to_device"(%arg0, %0) : (tensor<128xf32, #ttnn_layout8>, !ttnn.device) -> tensor<128xf32, #ttnn_layout10> loc(#loc)
        %2 = "ttnn.to_layout"(%1) <{layout = #ttnn.layout<tile>}> : (tensor<128xf32, #ttnn_layout10>) -> tensor<128xf32, #ttnn_layout11> loc(#loc)
        "ttnn.deallocate"(%1) <{force = false}> : (tensor<128xf32, #ttnn_layout10>) -> () loc(#loc)
        %3 = "ttnn.reshape"(%2) <{shape = [1 : i32, 128 : i32, 1 : i32, 1 : i32]}> : (tensor<128xf32, #ttnn_layout11>) -> tensor<1x128x1x1xf32, #ttnn_layout9> loc(#loc29)
        "ttnn.deallocate"(%2) <{force = false}> : (tensor<128xf32, #ttnn_layout11>) -> () loc(#loc29)
        return %3 : tensor<1x128x1x1xf32, #ttnn_layout9> loc(#loc)
      } loc(#loc)
      func.func private @main_const_eval_79(%arg0: tensor<2048xf32, #ttnn_layout20> loc(unknown)) -> tensor<1x2048x1x1xf32, #ttnn_layout21> attributes {tt.function_type = "const_eval"} {
        %0 = "ttnn.get_device"() <{mesh_offset = #ttnn<mesh_offset 0x0>, mesh_shape = #ttnn<mesh_shape 1x1>}> : () -> !ttnn.device loc(#loc)
        %1 = "ttnn.to_device"(%arg0, %0) : (tensor<2048xf32, #ttnn_layout20>, !ttnn.device) -> tensor<2048xf32, #ttnn_layout22> loc(#loc)
        %2 = "ttnn.to_layout"(%1) <{layout = #ttnn.layout<tile>}> : (tensor<2048xf32, #ttnn_layout22>) -> tensor<2048xf32, #ttnn_layout23> loc(#loc)
        "ttnn.deallocate"(%1) <{force = false}> : (tensor<2048xf32, #ttnn_layout22>) -> () loc(#loc)
        %3 = "ttnn.reshape"(%2) <{shape = [1 : i32, 2048 : i32, 1 : i32, 1 : i32]}> : (tensor<2048xf32, #ttnn_layout23>) -> tensor<1x2048x1x1xf32, #ttnn_layout21> loc(#loc45)
        "ttnn.deallocate"(%2) <{force = false}> : (tensor<2048xf32, #ttnn_layout23>) -> () loc(#loc45)
        return %3 : tensor<1x2048x1x1xf32, #ttnn_layout21> loc(#loc)
      } loc(#loc)
      func.func private @main_const_eval_80(%arg0: tensor<1024xf32, #ttnn_layout16> loc(unknown)) -> tensor<1x1024x1x1xf32, #ttnn_layout17> attributes {tt.function_type = "const_eval"} {
        %0 = "ttnn.get_device"() <{mesh_offset = #ttnn<mesh_offset 0x0>, mesh_shape = #ttnn<mesh_shape 1x1>}> : () -> !ttnn.device loc(#loc)
        %1 = "ttnn.to_device"(%arg0, %0) : (tensor<1024xf32, #ttnn_layout16>, !ttnn.device) -> tensor<1024xf32, #ttnn_layout18> loc(#loc)
        %2 = "ttnn.to_layout"(%1) <{layout = #ttnn.layout<tile>}> : (tensor<1024xf32, #ttnn_layout18>) -> tensor<1024xf32, #ttnn_layout19> loc(#loc)
        "ttnn.deallocate"(%1) <{force = false}> : (tensor<1024xf32, #ttnn_layout18>) -> () loc(#loc)
        %3 = "ttnn.reshape"(%2) <{shape = [1 : i32, 1024 : i32, 1 : i32, 1 : i32]}> : (tensor<1024xf32, #ttnn_layout19>) -> tensor<1x1024x1x1xf32, #ttnn_layout17> loc(#loc50)
        "ttnn.deallocate"(%2) <{force = false}> : (tensor<1024xf32, #ttnn_layout19>) -> () loc(#loc50)
        return %3 : tensor<1x1024x1x1xf32, #ttnn_layout17> loc(#loc)
      } loc(#loc)
      func.func private @main_const_eval_81(%arg0: tensor<2048xf32, #ttnn_layout20> loc(unknown)) -> tensor<1x2048x1x1xf32, #ttnn_layout21> attributes {tt.function_type = "const_eval"} {
        %0 = "ttnn.get_device"() <{mesh_offset = #ttnn<mesh_offset 0x0>, mesh_shape = #ttnn<mesh_shape 1x1>}> : () -> !ttnn.device loc(#loc)
        %1 = "ttnn.to_device"(%arg0, %0) : (tensor<2048xf32, #ttnn_layout20>, !ttnn.device) -> tensor<2048xf32, #ttnn_layout22> loc(#loc)
        %2 = "ttnn.to_layout"(%1) <{layout = #ttnn.layout<tile>}> : (tensor<2048xf32, #ttnn_layout22>) -> tensor<2048xf32, #ttnn_layout23> loc(#loc)
        "ttnn.deallocate"(%1) <{force = false}> : (tensor<2048xf32, #ttnn_layout22>) -> () loc(#loc)
        %3 = "ttnn.reshape"(%2) <{shape = [1 : i32, 2048 : i32, 1 : i32, 1 : i32]}> : (tensor<2048xf32, #ttnn_layout23>) -> tensor<1x2048x1x1xf32, #ttnn_layout21> loc(#loc15)
        "ttnn.deallocate"(%2) <{force = false}> : (tensor<2048xf32, #ttnn_layout23>) -> () loc(#loc15)
        return %3 : tensor<1x2048x1x1xf32, #ttnn_layout21> loc(#loc)
      } loc(#loc)
      func.func private @main_const_eval_82(%arg0: tensor<64xf32, #ttnn_layout> loc(unknown)) -> tensor<1x64x1x1xf32, #ttnn_layout1> attributes {tt.function_type = "const_eval"} {
        %0 = "ttnn.get_device"() <{mesh_offset = #ttnn<mesh_offset 0x0>, mesh_shape = #ttnn<mesh_shape 1x1>}> : () -> !ttnn.device loc(#loc)
        %1 = "ttnn.to_device"(%arg0, %0) : (tensor<64xf32, #ttnn_layout>, !ttnn.device) -> tensor<64xf32, #ttnn_layout2> loc(#loc)
        %2 = "ttnn.to_layout"(%1) <{layout = #ttnn.layout<tile>}> : (tensor<64xf32, #ttnn_layout2>) -> tensor<64xf32, #ttnn_layout3> loc(#loc)
        "ttnn.deallocate"(%1) <{force = false}> : (tensor<64xf32, #ttnn_layout2>) -> () loc(#loc)
        %3 = "ttnn.reshape"(%2) <{shape = [1 : i32, 64 : i32, 1 : i32, 1 : i32]}> : (tensor<64xf32, #ttnn_layout3>) -> tensor<1x64x1x1xf32, #ttnn_layout1> loc(#loc1)
        "ttnn.deallocate"(%2) <{force = false}> : (tensor<64xf32, #ttnn_layout3>) -> () loc(#loc1)
        return %3 : tensor<1x64x1x1xf32, #ttnn_layout1> loc(#loc)
      } loc(#loc)
      func.func private @main_const_eval_83(%arg0: tensor<512xf32, #ttnn_layout12> loc(unknown)) -> tensor<1x512x1x1xf32, #ttnn_layout13> attributes {tt.function_type = "const_eval"} {
        %0 = "ttnn.get_device"() <{mesh_offset = #ttnn<mesh_offset 0x0>, mesh_shape = #ttnn<mesh_shape 1x1>}> : () -> !ttnn.device loc(#loc)
        %1 = "ttnn.to_device"(%arg0, %0) : (tensor<512xf32, #ttnn_layout12>, !ttnn.device) -> tensor<512xf32, #ttnn_layout14> loc(#loc)
        %2 = "ttnn.to_layout"(%1) <{layout = #ttnn.layout<tile>}> : (tensor<512xf32, #ttnn_layout14>) -> tensor<512xf32, #ttnn_layout15> loc(#loc)
        "ttnn.deallocate"(%1) <{force = false}> : (tensor<512xf32, #ttnn_layout14>) -> () loc(#loc)
        %3 = "ttnn.reshape"(%2) <{shape = [1 : i32, 512 : i32, 1 : i32, 1 : i32]}> : (tensor<512xf32, #ttnn_layout15>) -> tensor<1x512x1x1xf32, #ttnn_layout13> loc(#loc6)
        "ttnn.deallocate"(%2) <{force = false}> : (tensor<512xf32, #ttnn_layout15>) -> () loc(#loc6)
        return %3 : tensor<1x512x1x1xf32, #ttnn_layout13> loc(#loc)
      } loc(#loc)
      func.func private @main_const_eval_84(%arg0: tensor<256xf32, #ttnn_layout4> loc(unknown)) -> tensor<1x256x1x1xf32, #ttnn_layout5> attributes {tt.function_type = "const_eval"} {
        %0 = "ttnn.get_device"() <{mesh_offset = #ttnn<mesh_offset 0x0>, mesh_shape = #ttnn<mesh_shape 1x1>}> : () -> !ttnn.device loc(#loc)
        %1 = "ttnn.to_device"(%arg0, %0) : (tensor<256xf32, #ttnn_layout4>, !ttnn.device) -> tensor<256xf32, #ttnn_layout6> loc(#loc)
        %2 = "ttnn.to_layout"(%1) <{layout = #ttnn.layout<tile>}> : (tensor<256xf32, #ttnn_layout6>) -> tensor<256xf32, #ttnn_layout7> loc(#loc)
        "ttnn.deallocate"(%1) <{force = false}> : (tensor<256xf32, #ttnn_layout6>) -> () loc(#loc)
        %3 = "ttnn.reshape"(%2) <{shape = [1 : i32, 256 : i32, 1 : i32, 1 : i32]}> : (tensor<256xf32, #ttnn_layout7>) -> tensor<1x256x1x1xf32, #ttnn_layout5> loc(#loc12)
        "ttnn.deallocate"(%2) <{force = false}> : (tensor<256xf32, #ttnn_layout7>) -> () loc(#loc12)
        return %3 : tensor<1x256x1x1xf32, #ttnn_layout5> loc(#loc)
      } loc(#loc)
      func.func private @main_const_eval_85(%arg0: tensor<512xf32, #ttnn_layout12> loc(unknown)) -> tensor<1x512x1x1xf32, #ttnn_layout13> attributes {tt.function_type = "const_eval"} {
        %0 = "ttnn.get_device"() <{mesh_offset = #ttnn<mesh_offset 0x0>, mesh_shape = #ttnn<mesh_shape 1x1>}> : () -> !ttnn.device loc(#loc)
        %1 = "ttnn.to_device"(%arg0, %0) : (tensor<512xf32, #ttnn_layout12>, !ttnn.device) -> tensor<512xf32, #ttnn_layout14> loc(#loc)
        %2 = "ttnn.to_layout"(%1) <{layout = #ttnn.layout<tile>}> : (tensor<512xf32, #ttnn_layout14>) -> tensor<512xf32, #ttnn_layout15> loc(#loc)
        "ttnn.deallocate"(%1) <{force = false}> : (tensor<512xf32, #ttnn_layout14>) -> () loc(#loc)
        %3 = "ttnn.reshape"(%2) <{shape = [1 : i32, 512 : i32, 1 : i32, 1 : i32]}> : (tensor<512xf32, #ttnn_layout15>) -> tensor<1x512x1x1xf32, #ttnn_layout13> loc(#loc5)
        "ttnn.deallocate"(%2) <{force = false}> : (tensor<512xf32, #ttnn_layout15>) -> () loc(#loc5)
        return %3 : tensor<1x512x1x1xf32, #ttnn_layout13> loc(#loc)
      } loc(#loc)
      func.func private @main_const_eval_86(%arg0: tensor<128xf32, #ttnn_layout8> loc(unknown)) -> tensor<1x128x1x1xf32, #ttnn_layout9> attributes {tt.function_type = "const_eval"} {
        %0 = "ttnn.get_device"() <{mesh_offset = #ttnn<mesh_offset 0x0>, mesh_shape = #ttnn<mesh_shape 1x1>}> : () -> !ttnn.device loc(#loc)
        %1 = "ttnn.to_device"(%arg0, %0) : (tensor<128xf32, #ttnn_layout8>, !ttnn.device) -> tensor<128xf32, #ttnn_layout10> loc(#loc)
        %2 = "ttnn.to_layout"(%1) <{layout = #ttnn.layout<tile>}> : (tensor<128xf32, #ttnn_layout10>) -> tensor<128xf32, #ttnn_layout11> loc(#loc)
        "ttnn.deallocate"(%1) <{force = false}> : (tensor<128xf32, #ttnn_layout10>) -> () loc(#loc)
        %3 = "ttnn.reshape"(%2) <{shape = [1 : i32, 128 : i32, 1 : i32, 1 : i32]}> : (tensor<128xf32, #ttnn_layout11>) -> tensor<1x128x1x1xf32, #ttnn_layout9> loc(#loc35)
        "ttnn.deallocate"(%2) <{force = false}> : (tensor<128xf32, #ttnn_layout11>) -> () loc(#loc35)
        return %3 : tensor<1x128x1x1xf32, #ttnn_layout9> loc(#loc)
      } loc(#loc)
      func.func private @main_const_eval_87(%arg0: tensor<1024xf32, #ttnn_layout16> loc(unknown)) -> tensor<1x1024x1x1xf32, #ttnn_layout17> attributes {tt.function_type = "const_eval"} {
        %0 = "ttnn.get_device"() <{mesh_offset = #ttnn<mesh_offset 0x0>, mesh_shape = #ttnn<mesh_shape 1x1>}> : () -> !ttnn.device loc(#loc)
        %1 = "ttnn.to_device"(%arg0, %0) : (tensor<1024xf32, #ttnn_layout16>, !ttnn.device) -> tensor<1024xf32, #ttnn_layout18> loc(#loc)
        %2 = "ttnn.to_layout"(%1) <{layout = #ttnn.layout<tile>}> : (tensor<1024xf32, #ttnn_layout18>) -> tensor<1024xf32, #ttnn_layout19> loc(#loc)
        "ttnn.deallocate"(%1) <{force = false}> : (tensor<1024xf32, #ttnn_layout18>) -> () loc(#loc)
        %3 = "ttnn.reshape"(%2) <{shape = [1 : i32, 1024 : i32, 1 : i32, 1 : i32]}> : (tensor<1024xf32, #ttnn_layout19>) -> tensor<1x1024x1x1xf32, #ttnn_layout17> loc(#loc28)
        "ttnn.deallocate"(%2) <{force = false}> : (tensor<1024xf32, #ttnn_layout19>) -> () loc(#loc28)
        return %3 : tensor<1x1024x1x1xf32, #ttnn_layout17> loc(#loc)
      } loc(#loc)
      func.func private @main_const_eval_88(%arg0: tensor<512xf32, #ttnn_layout12> loc(unknown)) -> tensor<1x512x1x1xf32, #ttnn_layout13> attributes {tt.function_type = "const_eval"} {
        %0 = "ttnn.get_device"() <{mesh_offset = #ttnn<mesh_offset 0x0>, mesh_shape = #ttnn<mesh_shape 1x1>}> : () -> !ttnn.device loc(#loc)
        %1 = "ttnn.to_device"(%arg0, %0) : (tensor<512xf32, #ttnn_layout12>, !ttnn.device) -> tensor<512xf32, #ttnn_layout14> loc(#loc)
        %2 = "ttnn.to_layout"(%1) <{layout = #ttnn.layout<tile>}> : (tensor<512xf32, #ttnn_layout14>) -> tensor<512xf32, #ttnn_layout15> loc(#loc)
        "ttnn.deallocate"(%1) <{force = false}> : (tensor<512xf32, #ttnn_layout14>) -> () loc(#loc)
        %3 = "ttnn.reshape"(%2) <{shape = [1 : i32, 512 : i32, 1 : i32, 1 : i32]}> : (tensor<512xf32, #ttnn_layout15>) -> tensor<1x512x1x1xf32, #ttnn_layout13> loc(#loc32)
        "ttnn.deallocate"(%2) <{force = false}> : (tensor<512xf32, #ttnn_layout15>) -> () loc(#loc32)
        return %3 : tensor<1x512x1x1xf32, #ttnn_layout13> loc(#loc)
      } loc(#loc)
      func.func private @main_const_eval_89(%arg0: tensor<512xf32, #ttnn_layout12> loc(unknown)) -> tensor<1x512x1x1xf32, #ttnn_layout13> attributes {tt.function_type = "const_eval"} {
        %0 = "ttnn.get_device"() <{mesh_offset = #ttnn<mesh_offset 0x0>, mesh_shape = #ttnn<mesh_shape 1x1>}> : () -> !ttnn.device loc(#loc)
        %1 = "ttnn.to_device"(%arg0, %0) : (tensor<512xf32, #ttnn_layout12>, !ttnn.device) -> tensor<512xf32, #ttnn_layout14> loc(#loc)
        %2 = "ttnn.to_layout"(%1) <{layout = #ttnn.layout<tile>}> : (tensor<512xf32, #ttnn_layout14>) -> tensor<512xf32, #ttnn_layout15> loc(#loc)
        "ttnn.deallocate"(%1) <{force = false}> : (tensor<512xf32, #ttnn_layout14>) -> () loc(#loc)
        %3 = "ttnn.reshape"(%2) <{shape = [1 : i32, 512 : i32, 1 : i32, 1 : i32]}> : (tensor<512xf32, #ttnn_layout15>) -> tensor<1x512x1x1xf32, #ttnn_layout13> loc(#loc6)
        "ttnn.deallocate"(%2) <{force = false}> : (tensor<512xf32, #ttnn_layout15>) -> () loc(#loc6)
        return %3 : tensor<1x512x1x1xf32, #ttnn_layout13> loc(#loc)
      } loc(#loc)
      func.func private @main_const_eval_90(%arg0: tensor<256xf32, #ttnn_layout4> loc(unknown)) -> tensor<1x256x1x1xf32, #ttnn_layout5> attributes {tt.function_type = "const_eval"} {
        %0 = "ttnn.get_device"() <{mesh_offset = #ttnn<mesh_offset 0x0>, mesh_shape = #ttnn<mesh_shape 1x1>}> : () -> !ttnn.device loc(#loc)
        %1 = "ttnn.to_device"(%arg0, %0) : (tensor<256xf32, #ttnn_layout4>, !ttnn.device) -> tensor<256xf32, #ttnn_layout6> loc(#loc)
        %2 = "ttnn.to_layout"(%1) <{layout = #ttnn.layout<tile>}> : (tensor<256xf32, #ttnn_layout6>) -> tensor<256xf32, #ttnn_layout7> loc(#loc)
        "ttnn.deallocate"(%1) <{force = false}> : (tensor<256xf32, #ttnn_layout6>) -> () loc(#loc)
        %3 = "ttnn.reshape"(%2) <{shape = [1 : i32, 256 : i32, 1 : i32, 1 : i32]}> : (tensor<256xf32, #ttnn_layout7>) -> tensor<1x256x1x1xf32, #ttnn_layout5> loc(#loc37)
        "ttnn.deallocate"(%2) <{force = false}> : (tensor<256xf32, #ttnn_layout7>) -> () loc(#loc37)
        return %3 : tensor<1x256x1x1xf32, #ttnn_layout5> loc(#loc)
      } loc(#loc)
      func.func private @main_const_eval_91(%arg0: tensor<128xf32, #ttnn_layout8> loc(unknown)) -> tensor<1x128x1x1xf32, #ttnn_layout9> attributes {tt.function_type = "const_eval"} {
        %0 = "ttnn.get_device"() <{mesh_offset = #ttnn<mesh_offset 0x0>, mesh_shape = #ttnn<mesh_shape 1x1>}> : () -> !ttnn.device loc(#loc)
        %1 = "ttnn.to_device"(%arg0, %0) : (tensor<128xf32, #ttnn_layout8>, !ttnn.device) -> tensor<128xf32, #ttnn_layout10> loc(#loc)
        %2 = "ttnn.to_layout"(%1) <{layout = #ttnn.layout<tile>}> : (tensor<128xf32, #ttnn_layout10>) -> tensor<128xf32, #ttnn_layout11> loc(#loc)
        "ttnn.deallocate"(%1) <{force = false}> : (tensor<128xf32, #ttnn_layout10>) -> () loc(#loc)
        %3 = "ttnn.reshape"(%2) <{shape = [1 : i32, 128 : i32, 1 : i32, 1 : i32]}> : (tensor<128xf32, #ttnn_layout11>) -> tensor<1x128x1x1xf32, #ttnn_layout9> loc(#loc34)
        "ttnn.deallocate"(%2) <{force = false}> : (tensor<128xf32, #ttnn_layout11>) -> () loc(#loc34)
        return %3 : tensor<1x128x1x1xf32, #ttnn_layout9> loc(#loc)
      } loc(#loc)
      func.func private @main_const_eval_92(%arg0: tensor<64xf32, #ttnn_layout> loc(unknown)) -> tensor<1x64x1x1xf32, #ttnn_layout1> attributes {tt.function_type = "const_eval"} {
        %0 = "ttnn.get_device"() <{mesh_offset = #ttnn<mesh_offset 0x0>, mesh_shape = #ttnn<mesh_shape 1x1>}> : () -> !ttnn.device loc(#loc)
        %1 = "ttnn.to_device"(%arg0, %0) : (tensor<64xf32, #ttnn_layout>, !ttnn.device) -> tensor<64xf32, #ttnn_layout2> loc(#loc)
        %2 = "ttnn.to_layout"(%1) <{layout = #ttnn.layout<tile>}> : (tensor<64xf32, #ttnn_layout2>) -> tensor<64xf32, #ttnn_layout3> loc(#loc)
        "ttnn.deallocate"(%1) <{force = false}> : (tensor<64xf32, #ttnn_layout2>) -> () loc(#loc)
        %3 = "ttnn.reshape"(%2) <{shape = [1 : i32, 64 : i32, 1 : i32, 1 : i32]}> : (tensor<64xf32, #ttnn_layout3>) -> tensor<1x64x1x1xf32, #ttnn_layout1> loc(#loc51)
        "ttnn.deallocate"(%2) <{force = false}> : (tensor<64xf32, #ttnn_layout3>) -> () loc(#loc51)
        return %3 : tensor<1x64x1x1xf32, #ttnn_layout1> loc(#loc)
      } loc(#loc)
      func.func private @main_const_eval_93(%arg0: tensor<256xf32, #ttnn_layout4> loc(unknown)) -> tensor<1x256x1x1xf32, #ttnn_layout5> attributes {tt.function_type = "const_eval"} {
        %0 = "ttnn.get_device"() <{mesh_offset = #ttnn<mesh_offset 0x0>, mesh_shape = #ttnn<mesh_shape 1x1>}> : () -> !ttnn.device loc(#loc)
        %1 = "ttnn.to_device"(%arg0, %0) : (tensor<256xf32, #ttnn_layout4>, !ttnn.device) -> tensor<256xf32, #ttnn_layout6> loc(#loc)
        %2 = "ttnn.to_layout"(%1) <{layout = #ttnn.layout<tile>}> : (tensor<256xf32, #ttnn_layout6>) -> tensor<256xf32, #ttnn_layout7> loc(#loc)
        "ttnn.deallocate"(%1) <{force = false}> : (tensor<256xf32, #ttnn_layout6>) -> () loc(#loc)
        %3 = "ttnn.reshape"(%2) <{shape = [1 : i32, 256 : i32, 1 : i32, 1 : i32]}> : (tensor<256xf32, #ttnn_layout7>) -> tensor<1x256x1x1xf32, #ttnn_layout5> loc(#loc46)
        "ttnn.deallocate"(%2) <{force = false}> : (tensor<256xf32, #ttnn_layout7>) -> () loc(#loc46)
        return %3 : tensor<1x256x1x1xf32, #ttnn_layout5> loc(#loc)
      } loc(#loc)
      func.func private @main_const_eval_94(%arg0: tensor<64xf32, #ttnn_layout> loc(unknown)) -> tensor<1x64x1x1xf32, #ttnn_layout1> attributes {tt.function_type = "const_eval"} {
        %0 = "ttnn.get_device"() <{mesh_offset = #ttnn<mesh_offset 0x0>, mesh_shape = #ttnn<mesh_shape 1x1>}> : () -> !ttnn.device loc(#loc)
        %1 = "ttnn.to_device"(%arg0, %0) : (tensor<64xf32, #ttnn_layout>, !ttnn.device) -> tensor<64xf32, #ttnn_layout2> loc(#loc)
        %2 = "ttnn.to_layout"(%1) <{layout = #ttnn.layout<tile>}> : (tensor<64xf32, #ttnn_layout2>) -> tensor<64xf32, #ttnn_layout3> loc(#loc)
        "ttnn.deallocate"(%1) <{force = false}> : (tensor<64xf32, #ttnn_layout2>) -> () loc(#loc)
        %3 = "ttnn.reshape"(%2) <{shape = [1 : i32, 64 : i32, 1 : i32, 1 : i32]}> : (tensor<64xf32, #ttnn_layout3>) -> tensor<1x64x1x1xf32, #ttnn_layout1> loc(#loc31)
        "ttnn.deallocate"(%2) <{force = false}> : (tensor<64xf32, #ttnn_layout3>) -> () loc(#loc31)
        return %3 : tensor<1x64x1x1xf32, #ttnn_layout1> loc(#loc)
      } loc(#loc)
      func.func private @main_const_eval_95(%arg0: tensor<512xf32, #ttnn_layout12> loc(unknown)) -> tensor<1x512x1x1xf32, #ttnn_layout13> attributes {tt.function_type = "const_eval"} {
        %0 = "ttnn.get_device"() <{mesh_offset = #ttnn<mesh_offset 0x0>, mesh_shape = #ttnn<mesh_shape 1x1>}> : () -> !ttnn.device loc(#loc)
        %1 = "ttnn.to_device"(%arg0, %0) : (tensor<512xf32, #ttnn_layout12>, !ttnn.device) -> tensor<512xf32, #ttnn_layout14> loc(#loc)
        %2 = "ttnn.to_layout"(%1) <{layout = #ttnn.layout<tile>}> : (tensor<512xf32, #ttnn_layout14>) -> tensor<512xf32, #ttnn_layout15> loc(#loc)
        "ttnn.deallocate"(%1) <{force = false}> : (tensor<512xf32, #ttnn_layout14>) -> () loc(#loc)
        %3 = "ttnn.reshape"(%2) <{shape = [1 : i32, 512 : i32, 1 : i32, 1 : i32]}> : (tensor<512xf32, #ttnn_layout15>) -> tensor<1x512x1x1xf32, #ttnn_layout13> loc(#loc40)
        "ttnn.deallocate"(%2) <{force = false}> : (tensor<512xf32, #ttnn_layout15>) -> () loc(#loc40)
        return %3 : tensor<1x512x1x1xf32, #ttnn_layout13> loc(#loc)
      } loc(#loc)
      func.func private @main_const_eval_96(%arg0: tensor<128xf32, #ttnn_layout8> loc(unknown)) -> tensor<1x128x1x1xf32, #ttnn_layout9> attributes {tt.function_type = "const_eval"} {
        %0 = "ttnn.get_device"() <{mesh_offset = #ttnn<mesh_offset 0x0>, mesh_shape = #ttnn<mesh_shape 1x1>}> : () -> !ttnn.device loc(#loc)
        %1 = "ttnn.to_device"(%arg0, %0) : (tensor<128xf32, #ttnn_layout8>, !ttnn.device) -> tensor<128xf32, #ttnn_layout10> loc(#loc)
        %2 = "ttnn.to_layout"(%1) <{layout = #ttnn.layout<tile>}> : (tensor<128xf32, #ttnn_layout10>) -> tensor<128xf32, #ttnn_layout11> loc(#loc)
        "ttnn.deallocate"(%1) <{force = false}> : (tensor<128xf32, #ttnn_layout10>) -> () loc(#loc)
        %3 = "ttnn.reshape"(%2) <{shape = [1 : i32, 128 : i32, 1 : i32, 1 : i32]}> : (tensor<128xf32, #ttnn_layout11>) -> tensor<1x128x1x1xf32, #ttnn_layout9> loc(#loc4)
        "ttnn.deallocate"(%2) <{force = false}> : (tensor<128xf32, #ttnn_layout11>) -> () loc(#loc4)
        return %3 : tensor<1x128x1x1xf32, #ttnn_layout9> loc(#loc)
      } loc(#loc)
      func.func private @main_const_eval_97(%arg0: tensor<2048xf32, #ttnn_layout20> loc(unknown)) -> tensor<1x2048x1x1xf32, #ttnn_layout21> attributes {tt.function_type = "const_eval"} {
        %0 = "ttnn.get_device"() <{mesh_offset = #ttnn<mesh_offset 0x0>, mesh_shape = #ttnn<mesh_shape 1x1>}> : () -> !ttnn.device loc(#loc)
        %1 = "ttnn.to_device"(%arg0, %0) : (tensor<2048xf32, #ttnn_layout20>, !ttnn.device) -> tensor<2048xf32, #ttnn_layout22> loc(#loc)
        %2 = "ttnn.to_layout"(%1) <{layout = #ttnn.layout<tile>}> : (tensor<2048xf32, #ttnn_layout22>) -> tensor<2048xf32, #ttnn_layout23> loc(#loc)
        "ttnn.deallocate"(%1) <{force = false}> : (tensor<2048xf32, #ttnn_layout22>) -> () loc(#loc)
        %3 = "ttnn.reshape"(%2) <{shape = [1 : i32, 2048 : i32, 1 : i32, 1 : i32]}> : (tensor<2048xf32, #ttnn_layout23>) -> tensor<1x2048x1x1xf32, #ttnn_layout21> loc(#loc16)
        "ttnn.deallocate"(%2) <{force = false}> : (tensor<2048xf32, #ttnn_layout23>) -> () loc(#loc16)
        return %3 : tensor<1x2048x1x1xf32, #ttnn_layout21> loc(#loc)
      } loc(#loc)
      func.func private @main_const_eval_98(%arg0: tensor<128xf32, #ttnn_layout8> loc(unknown)) -> tensor<1x128x1x1xf32, #ttnn_layout9> attributes {tt.function_type = "const_eval"} {
        %0 = "ttnn.get_device"() <{mesh_offset = #ttnn<mesh_offset 0x0>, mesh_shape = #ttnn<mesh_shape 1x1>}> : () -> !ttnn.device loc(#loc)
        %1 = "ttnn.to_device"(%arg0, %0) : (tensor<128xf32, #ttnn_layout8>, !ttnn.device) -> tensor<128xf32, #ttnn_layout10> loc(#loc)
        %2 = "ttnn.to_layout"(%1) <{layout = #ttnn.layout<tile>}> : (tensor<128xf32, #ttnn_layout10>) -> tensor<128xf32, #ttnn_layout11> loc(#loc)
        "ttnn.deallocate"(%1) <{force = false}> : (tensor<128xf32, #ttnn_layout10>) -> () loc(#loc)
        %3 = "ttnn.reshape"(%2) <{shape = [1 : i32, 128 : i32, 1 : i32, 1 : i32]}> : (tensor<128xf32, #ttnn_layout11>) -> tensor<1x128x1x1xf32, #ttnn_layout9> loc(#loc10)
        "ttnn.deallocate"(%2) <{force = false}> : (tensor<128xf32, #ttnn_layout11>) -> () loc(#loc10)
        return %3 : tensor<1x128x1x1xf32, #ttnn_layout9> loc(#loc)
      } loc(#loc)
      func.func private @main_const_eval_99(%arg0: tensor<1024xf32, #ttnn_layout16> loc(unknown)) -> tensor<1x1024x1x1xf32, #ttnn_layout17> attributes {tt.function_type = "const_eval"} {
        %0 = "ttnn.get_device"() <{mesh_offset = #ttnn<mesh_offset 0x0>, mesh_shape = #ttnn<mesh_shape 1x1>}> : () -> !ttnn.device loc(#loc)
        %1 = "ttnn.to_device"(%arg0, %0) : (tensor<1024xf32, #ttnn_layout16>, !ttnn.device) -> tensor<1024xf32, #ttnn_layout18> loc(#loc)
        %2 = "ttnn.to_layout"(%1) <{layout = #ttnn.layout<tile>}> : (tensor<1024xf32, #ttnn_layout18>) -> tensor<1024xf32, #ttnn_layout19> loc(#loc)
        "ttnn.deallocate"(%1) <{force = false}> : (tensor<1024xf32, #ttnn_layout18>) -> () loc(#loc)
        %3 = "ttnn.reshape"(%2) <{shape = [1 : i32, 1024 : i32, 1 : i32, 1 : i32]}> : (tensor<1024xf32, #ttnn_layout19>) -> tensor<1x1024x1x1xf32, #ttnn_layout17> loc(#loc38)
        "ttnn.deallocate"(%2) <{force = false}> : (tensor<1024xf32, #ttnn_layout19>) -> () loc(#loc38)
        return %3 : tensor<1x1024x1x1xf32, #ttnn_layout17> loc(#loc)
      } loc(#loc)
      func.func private @main_const_eval_100(%arg0: tensor<256xf32, #ttnn_layout4> loc(unknown)) -> tensor<1x256x1x1xf32, #ttnn_layout5> attributes {tt.function_type = "const_eval"} {
        %0 = "ttnn.get_device"() <{mesh_offset = #ttnn<mesh_offset 0x0>, mesh_shape = #ttnn<mesh_shape 1x1>}> : () -> !ttnn.device loc(#loc)
        %1 = "ttnn.to_device"(%arg0, %0) : (tensor<256xf32, #ttnn_layout4>, !ttnn.device) -> tensor<256xf32, #ttnn_layout6> loc(#loc)
        %2 = "ttnn.to_layout"(%1) <{layout = #ttnn.layout<tile>}> : (tensor<256xf32, #ttnn_layout6>) -> tensor<256xf32, #ttnn_layout7> loc(#loc)
        "ttnn.deallocate"(%1) <{force = false}> : (tensor<256xf32, #ttnn_layout6>) -> () loc(#loc)
        %3 = "ttnn.reshape"(%2) <{shape = [1 : i32, 256 : i32, 1 : i32, 1 : i32]}> : (tensor<256xf32, #ttnn_layout7>) -> tensor<1x256x1x1xf32, #ttnn_layout5> loc(#loc48)
        "ttnn.deallocate"(%2) <{force = false}> : (tensor<256xf32, #ttnn_layout7>) -> () loc(#loc48)
        return %3 : tensor<1x256x1x1xf32, #ttnn_layout5> loc(#loc)
      } loc(#loc)
      func.func private @main_const_eval_101(%arg0: tensor<256xf32, #ttnn_layout4> loc(unknown)) -> tensor<1x256x1x1xf32, #ttnn_layout5> attributes {tt.function_type = "const_eval"} {
        %0 = "ttnn.get_device"() <{mesh_offset = #ttnn<mesh_offset 0x0>, mesh_shape = #ttnn<mesh_shape 1x1>}> : () -> !ttnn.device loc(#loc)
        %1 = "ttnn.to_device"(%arg0, %0) : (tensor<256xf32, #ttnn_layout4>, !ttnn.device) -> tensor<256xf32, #ttnn_layout6> loc(#loc)
        %2 = "ttnn.to_layout"(%1) <{layout = #ttnn.layout<tile>}> : (tensor<256xf32, #ttnn_layout6>) -> tensor<256xf32, #ttnn_layout7> loc(#loc)
        "ttnn.deallocate"(%1) <{force = false}> : (tensor<256xf32, #ttnn_layout6>) -> () loc(#loc)
        %3 = "ttnn.reshape"(%2) <{shape = [1 : i32, 256 : i32, 1 : i32, 1 : i32]}> : (tensor<256xf32, #ttnn_layout7>) -> tensor<1x256x1x1xf32, #ttnn_layout5> loc(#loc27)
        "ttnn.deallocate"(%2) <{force = false}> : (tensor<256xf32, #ttnn_layout7>) -> () loc(#loc27)
        return %3 : tensor<1x256x1x1xf32, #ttnn_layout5> loc(#loc)
      } loc(#loc)
      func.func private @main_const_eval_102(%arg0: tensor<1024xf32, #ttnn_layout16> loc(unknown)) -> tensor<1x1024x1x1xf32, #ttnn_layout17> attributes {tt.function_type = "const_eval"} {
        %0 = "ttnn.get_device"() <{mesh_offset = #ttnn<mesh_offset 0x0>, mesh_shape = #ttnn<mesh_shape 1x1>}> : () -> !ttnn.device loc(#loc)
        %1 = "ttnn.to_device"(%arg0, %0) : (tensor<1024xf32, #ttnn_layout16>, !ttnn.device) -> tensor<1024xf32, #ttnn_layout18> loc(#loc)
        %2 = "ttnn.to_layout"(%1) <{layout = #ttnn.layout<tile>}> : (tensor<1024xf32, #ttnn_layout18>) -> tensor<1024xf32, #ttnn_layout19> loc(#loc)
        "ttnn.deallocate"(%1) <{force = false}> : (tensor<1024xf32, #ttnn_layout18>) -> () loc(#loc)
        %3 = "ttnn.reshape"(%2) <{shape = [1 : i32, 1024 : i32, 1 : i32, 1 : i32]}> : (tensor<1024xf32, #ttnn_layout19>) -> tensor<1x1024x1x1xf32, #ttnn_layout17> loc(#loc52)
        "ttnn.deallocate"(%2) <{force = false}> : (tensor<1024xf32, #ttnn_layout19>) -> () loc(#loc52)
        return %3 : tensor<1x1024x1x1xf32, #ttnn_layout17> loc(#loc)
      } loc(#loc)
      func.func private @main_const_eval_103(%arg0: tensor<512xf32, #ttnn_layout12> loc(unknown)) -> tensor<1x512x1x1xf32, #ttnn_layout13> attributes {tt.function_type = "const_eval"} {
        %0 = "ttnn.get_device"() <{mesh_offset = #ttnn<mesh_offset 0x0>, mesh_shape = #ttnn<mesh_shape 1x1>}> : () -> !ttnn.device loc(#loc)
        %1 = "ttnn.to_device"(%arg0, %0) : (tensor<512xf32, #ttnn_layout12>, !ttnn.device) -> tensor<512xf32, #ttnn_layout14> loc(#loc)
        %2 = "ttnn.to_layout"(%1) <{layout = #ttnn.layout<tile>}> : (tensor<512xf32, #ttnn_layout14>) -> tensor<512xf32, #ttnn_layout15> loc(#loc)
        "ttnn.deallocate"(%1) <{force = false}> : (tensor<512xf32, #ttnn_layout14>) -> () loc(#loc)
        %3 = "ttnn.reshape"(%2) <{shape = [1 : i32, 512 : i32, 1 : i32, 1 : i32]}> : (tensor<512xf32, #ttnn_layout15>) -> tensor<1x512x1x1xf32, #ttnn_layout13> loc(#loc49)
        "ttnn.deallocate"(%2) <{force = false}> : (tensor<512xf32, #ttnn_layout15>) -> () loc(#loc49)
        return %3 : tensor<1x512x1x1xf32, #ttnn_layout13> loc(#loc)
      } loc(#loc)
      func.func private @main_const_eval_104(%arg0: tensor<64xf32, #ttnn_layout> loc(unknown)) -> tensor<1x64x1x1xf32, #ttnn_layout1> attributes {tt.function_type = "const_eval"} {
        %0 = "ttnn.get_device"() <{mesh_offset = #ttnn<mesh_offset 0x0>, mesh_shape = #ttnn<mesh_shape 1x1>}> : () -> !ttnn.device loc(#loc)
        %1 = "ttnn.to_device"(%arg0, %0) : (tensor<64xf32, #ttnn_layout>, !ttnn.device) -> tensor<64xf32, #ttnn_layout2> loc(#loc)
        %2 = "ttnn.to_layout"(%1) <{layout = #ttnn.layout<tile>}> : (tensor<64xf32, #ttnn_layout2>) -> tensor<64xf32, #ttnn_layout3> loc(#loc)
        "ttnn.deallocate"(%1) <{force = false}> : (tensor<64xf32, #ttnn_layout2>) -> () loc(#loc)
        %3 = "ttnn.reshape"(%2) <{shape = [1 : i32, 64 : i32, 1 : i32, 1 : i32]}> : (tensor<64xf32, #ttnn_layout3>) -> tensor<1x64x1x1xf32, #ttnn_layout1> loc(#loc33)
        "ttnn.deallocate"(%2) <{force = false}> : (tensor<64xf32, #ttnn_layout3>) -> () loc(#loc33)
        return %3 : tensor<1x64x1x1xf32, #ttnn_layout1> loc(#loc)
      } loc(#loc)
      func.func private @main_const_eval_105(%arg0: tensor<256xf32, #ttnn_layout4> loc(unknown)) -> tensor<1x256x1x1xf32, #ttnn_layout5> attributes {tt.function_type = "const_eval"} {
        %0 = "ttnn.get_device"() <{mesh_offset = #ttnn<mesh_offset 0x0>, mesh_shape = #ttnn<mesh_shape 1x1>}> : () -> !ttnn.device loc(#loc)
        %1 = "ttnn.to_device"(%arg0, %0) : (tensor<256xf32, #ttnn_layout4>, !ttnn.device) -> tensor<256xf32, #ttnn_layout6> loc(#loc)
        %2 = "ttnn.to_layout"(%1) <{layout = #ttnn.layout<tile>}> : (tensor<256xf32, #ttnn_layout6>) -> tensor<256xf32, #ttnn_layout7> loc(#loc)
        "ttnn.deallocate"(%1) <{force = false}> : (tensor<256xf32, #ttnn_layout6>) -> () loc(#loc)
        %3 = "ttnn.reshape"(%2) <{shape = [1 : i32, 256 : i32, 1 : i32, 1 : i32]}> : (tensor<256xf32, #ttnn_layout7>) -> tensor<1x256x1x1xf32, #ttnn_layout5> loc(#loc14)
        "ttnn.deallocate"(%2) <{force = false}> : (tensor<256xf32, #ttnn_layout7>) -> () loc(#loc14)
        return %3 : tensor<1x256x1x1xf32, #ttnn_layout5> loc(#loc)
      } loc(#loc)
      func.func private @main_const_eval_106(%arg0: tensor<512xf32, #ttnn_layout12> loc(unknown)) -> tensor<1x512x1x1xf32, #ttnn_layout13> attributes {tt.function_type = "const_eval"} {
        %0 = "ttnn.get_device"() <{mesh_offset = #ttnn<mesh_offset 0x0>, mesh_shape = #ttnn<mesh_shape 1x1>}> : () -> !ttnn.device loc(#loc)
        %1 = "ttnn.to_device"(%arg0, %0) : (tensor<512xf32, #ttnn_layout12>, !ttnn.device) -> tensor<512xf32, #ttnn_layout14> loc(#loc)
        %2 = "ttnn.to_layout"(%1) <{layout = #ttnn.layout<tile>}> : (tensor<512xf32, #ttnn_layout14>) -> tensor<512xf32, #ttnn_layout15> loc(#loc)
        "ttnn.deallocate"(%1) <{force = false}> : (tensor<512xf32, #ttnn_layout14>) -> () loc(#loc)
        %3 = "ttnn.reshape"(%2) <{shape = [1 : i32, 512 : i32, 1 : i32, 1 : i32]}> : (tensor<512xf32, #ttnn_layout15>) -> tensor<1x512x1x1xf32, #ttnn_layout13> loc(#loc53)
        "ttnn.deallocate"(%2) <{force = false}> : (tensor<512xf32, #ttnn_layout15>) -> () loc(#loc53)
        return %3 : tensor<1x512x1x1xf32, #ttnn_layout13> loc(#loc)
      } loc(#loc)
      func.func private @main_const_eval_107(%arg0: tensor<2048xf32, #ttnn_layout20> loc(unknown)) -> tensor<1x2048x1x1xf32, #ttnn_layout21> attributes {tt.function_type = "const_eval"} {
        %0 = "ttnn.get_device"() <{mesh_offset = #ttnn<mesh_offset 0x0>, mesh_shape = #ttnn<mesh_shape 1x1>}> : () -> !ttnn.device loc(#loc)
        %1 = "ttnn.to_device"(%arg0, %0) : (tensor<2048xf32, #ttnn_layout20>, !ttnn.device) -> tensor<2048xf32, #ttnn_layout22> loc(#loc)
        %2 = "ttnn.to_layout"(%1) <{layout = #ttnn.layout<tile>}> : (tensor<2048xf32, #ttnn_layout22>) -> tensor<2048xf32, #ttnn_layout23> loc(#loc)
        "ttnn.deallocate"(%1) <{force = false}> : (tensor<2048xf32, #ttnn_layout22>) -> () loc(#loc)
        %3 = "ttnn.reshape"(%2) <{shape = [1 : i32, 2048 : i32, 1 : i32, 1 : i32]}> : (tensor<2048xf32, #ttnn_layout23>) -> tensor<1x2048x1x1xf32, #ttnn_layout21> loc(#loc16)
        "ttnn.deallocate"(%2) <{force = false}> : (tensor<2048xf32, #ttnn_layout23>) -> () loc(#loc16)
        return %3 : tensor<1x2048x1x1xf32, #ttnn_layout21> loc(#loc)
      } loc(#loc)
      func.func private @main_const_eval_108(%arg0: tensor<128xf32, #ttnn_layout8> loc(unknown)) -> tensor<1x128x1x1xf32, #ttnn_layout9> attributes {tt.function_type = "const_eval"} {
        %0 = "ttnn.get_device"() <{mesh_offset = #ttnn<mesh_offset 0x0>, mesh_shape = #ttnn<mesh_shape 1x1>}> : () -> !ttnn.device loc(#loc)
        %1 = "ttnn.to_device"(%arg0, %0) : (tensor<128xf32, #ttnn_layout8>, !ttnn.device) -> tensor<128xf32, #ttnn_layout10> loc(#loc)
        %2 = "ttnn.to_layout"(%1) <{layout = #ttnn.layout<tile>}> : (tensor<128xf32, #ttnn_layout10>) -> tensor<128xf32, #ttnn_layout11> loc(#loc)
        "ttnn.deallocate"(%1) <{force = false}> : (tensor<128xf32, #ttnn_layout10>) -> () loc(#loc)
        %3 = "ttnn.reshape"(%2) <{shape = [1 : i32, 128 : i32, 1 : i32, 1 : i32]}> : (tensor<128xf32, #ttnn_layout11>) -> tensor<1x128x1x1xf32, #ttnn_layout9> loc(#loc17)
        "ttnn.deallocate"(%2) <{force = false}> : (tensor<128xf32, #ttnn_layout11>) -> () loc(#loc17)
        return %3 : tensor<1x128x1x1xf32, #ttnn_layout9> loc(#loc)
      } loc(#loc)
      func.func private @main_const_eval_109(%arg0: tensor<256xf32, #ttnn_layout4> loc(unknown)) -> tensor<1x256x1x1xf32, #ttnn_layout5> attributes {tt.function_type = "const_eval"} {
        %0 = "ttnn.get_device"() <{mesh_offset = #ttnn<mesh_offset 0x0>, mesh_shape = #ttnn<mesh_shape 1x1>}> : () -> !ttnn.device loc(#loc)
        %1 = "ttnn.to_device"(%arg0, %0) : (tensor<256xf32, #ttnn_layout4>, !ttnn.device) -> tensor<256xf32, #ttnn_layout6> loc(#loc)
        %2 = "ttnn.to_layout"(%1) <{layout = #ttnn.layout<tile>}> : (tensor<256xf32, #ttnn_layout6>) -> tensor<256xf32, #ttnn_layout7> loc(#loc)
        "ttnn.deallocate"(%1) <{force = false}> : (tensor<256xf32, #ttnn_layout6>) -> () loc(#loc)
        %3 = "ttnn.reshape"(%2) <{shape = [1 : i32, 256 : i32, 1 : i32, 1 : i32]}> : (tensor<256xf32, #ttnn_layout7>) -> tensor<1x256x1x1xf32, #ttnn_layout5> loc(#loc23)
        "ttnn.deallocate"(%2) <{force = false}> : (tensor<256xf32, #ttnn_layout7>) -> () loc(#loc23)
        return %3 : tensor<1x256x1x1xf32, #ttnn_layout5> loc(#loc)
      } loc(#loc)
      func.func private @main_const_eval_110(%arg0: tensor<256xf32, #ttnn_layout4> loc(unknown)) -> tensor<1x256x1x1xf32, #ttnn_layout5> attributes {tt.function_type = "const_eval"} {
        %0 = "ttnn.get_device"() <{mesh_offset = #ttnn<mesh_offset 0x0>, mesh_shape = #ttnn<mesh_shape 1x1>}> : () -> !ttnn.device loc(#loc)
        %1 = "ttnn.to_device"(%arg0, %0) : (tensor<256xf32, #ttnn_layout4>, !ttnn.device) -> tensor<256xf32, #ttnn_layout6> loc(#loc)
        %2 = "ttnn.to_layout"(%1) <{layout = #ttnn.layout<tile>}> : (tensor<256xf32, #ttnn_layout6>) -> tensor<256xf32, #ttnn_layout7> loc(#loc)
        "ttnn.deallocate"(%1) <{force = false}> : (tensor<256xf32, #ttnn_layout6>) -> () loc(#loc)
        %3 = "ttnn.reshape"(%2) <{shape = [1 : i32, 256 : i32, 1 : i32, 1 : i32]}> : (tensor<256xf32, #ttnn_layout7>) -> tensor<1x256x1x1xf32, #ttnn_layout5> loc(#loc25)
        "ttnn.deallocate"(%2) <{force = false}> : (tensor<256xf32, #ttnn_layout7>) -> () loc(#loc25)
        return %3 : tensor<1x256x1x1xf32, #ttnn_layout5> loc(#loc)
      } loc(#loc)
      func.func private @main_const_eval_111(%arg0: tensor<512xf32, #ttnn_layout12> loc(unknown)) -> tensor<1x512x1x1xf32, #ttnn_layout13> attributes {tt.function_type = "const_eval"} {
        %0 = "ttnn.get_device"() <{mesh_offset = #ttnn<mesh_offset 0x0>, mesh_shape = #ttnn<mesh_shape 1x1>}> : () -> !ttnn.device loc(#loc)
        %1 = "ttnn.to_device"(%arg0, %0) : (tensor<512xf32, #ttnn_layout12>, !ttnn.device) -> tensor<512xf32, #ttnn_layout14> loc(#loc)
        %2 = "ttnn.to_layout"(%1) <{layout = #ttnn.layout<tile>}> : (tensor<512xf32, #ttnn_layout14>) -> tensor<512xf32, #ttnn_layout15> loc(#loc)
        "ttnn.deallocate"(%1) <{force = false}> : (tensor<512xf32, #ttnn_layout14>) -> () loc(#loc)
        %3 = "ttnn.reshape"(%2) <{shape = [1 : i32, 512 : i32, 1 : i32, 1 : i32]}> : (tensor<512xf32, #ttnn_layout15>) -> tensor<1x512x1x1xf32, #ttnn_layout13> loc(#loc30)
        "ttnn.deallocate"(%2) <{force = false}> : (tensor<512xf32, #ttnn_layout15>) -> () loc(#loc30)
        return %3 : tensor<1x512x1x1xf32, #ttnn_layout13> loc(#loc)
      } loc(#loc)
      func.func private @main_const_eval_112(%arg0: tensor<256xf32, #ttnn_layout4> loc(unknown)) -> tensor<1x256x1x1xf32, #ttnn_layout5> attributes {tt.function_type = "const_eval"} {
        %0 = "ttnn.get_device"() <{mesh_offset = #ttnn<mesh_offset 0x0>, mesh_shape = #ttnn<mesh_shape 1x1>}> : () -> !ttnn.device loc(#loc)
        %1 = "ttnn.to_device"(%arg0, %0) : (tensor<256xf32, #ttnn_layout4>, !ttnn.device) -> tensor<256xf32, #ttnn_layout6> loc(#loc)
        %2 = "ttnn.to_layout"(%1) <{layout = #ttnn.layout<tile>}> : (tensor<256xf32, #ttnn_layout6>) -> tensor<256xf32, #ttnn_layout7> loc(#loc)
        "ttnn.deallocate"(%1) <{force = false}> : (tensor<256xf32, #ttnn_layout6>) -> () loc(#loc)
        %3 = "ttnn.reshape"(%2) <{shape = [1 : i32, 256 : i32, 1 : i32, 1 : i32]}> : (tensor<256xf32, #ttnn_layout7>) -> tensor<1x256x1x1xf32, #ttnn_layout5> loc(#loc12)
        "ttnn.deallocate"(%2) <{force = false}> : (tensor<256xf32, #ttnn_layout7>) -> () loc(#loc12)
        return %3 : tensor<1x256x1x1xf32, #ttnn_layout5> loc(#loc)
      } loc(#loc)
      func.func private @main_const_eval_113(%arg0: tensor<64xf32, #ttnn_layout> loc(unknown)) -> tensor<1x64x1x1xf32, #ttnn_layout1> attributes {tt.function_type = "const_eval"} {
        %0 = "ttnn.get_device"() <{mesh_offset = #ttnn<mesh_offset 0x0>, mesh_shape = #ttnn<mesh_shape 1x1>}> : () -> !ttnn.device loc(#loc)
        %1 = "ttnn.to_device"(%arg0, %0) : (tensor<64xf32, #ttnn_layout>, !ttnn.device) -> tensor<64xf32, #ttnn_layout2> loc(#loc)
        %2 = "ttnn.to_layout"(%1) <{layout = #ttnn.layout<tile>}> : (tensor<64xf32, #ttnn_layout2>) -> tensor<64xf32, #ttnn_layout3> loc(#loc)
        "ttnn.deallocate"(%1) <{force = false}> : (tensor<64xf32, #ttnn_layout2>) -> () loc(#loc)
        %3 = "ttnn.reshape"(%2) <{shape = [1 : i32, 64 : i32, 1 : i32, 1 : i32]}> : (tensor<64xf32, #ttnn_layout3>) -> tensor<1x64x1x1xf32, #ttnn_layout1> loc(#loc9)
        "ttnn.deallocate"(%2) <{force = false}> : (tensor<64xf32, #ttnn_layout3>) -> () loc(#loc9)
        return %3 : tensor<1x64x1x1xf32, #ttnn_layout1> loc(#loc)
      } loc(#loc)
      func.func private @main_const_eval_114(%arg0: tensor<512xf32, #ttnn_layout12> loc(unknown)) -> tensor<1x512x1x1xf32, #ttnn_layout13> attributes {tt.function_type = "const_eval"} {
        %0 = "ttnn.get_device"() <{mesh_offset = #ttnn<mesh_offset 0x0>, mesh_shape = #ttnn<mesh_shape 1x1>}> : () -> !ttnn.device loc(#loc)
        %1 = "ttnn.to_device"(%arg0, %0) : (tensor<512xf32, #ttnn_layout12>, !ttnn.device) -> tensor<512xf32, #ttnn_layout14> loc(#loc)
        %2 = "ttnn.to_layout"(%1) <{layout = #ttnn.layout<tile>}> : (tensor<512xf32, #ttnn_layout14>) -> tensor<512xf32, #ttnn_layout15> loc(#loc)
        "ttnn.deallocate"(%1) <{force = false}> : (tensor<512xf32, #ttnn_layout14>) -> () loc(#loc)
        %3 = "ttnn.reshape"(%2) <{shape = [1 : i32, 512 : i32, 1 : i32, 1 : i32]}> : (tensor<512xf32, #ttnn_layout15>) -> tensor<1x512x1x1xf32, #ttnn_layout13> loc(#loc49)
        "ttnn.deallocate"(%2) <{force = false}> : (tensor<512xf32, #ttnn_layout15>) -> () loc(#loc49)
        return %3 : tensor<1x512x1x1xf32, #ttnn_layout13> loc(#loc)
      } loc(#loc)
      func.func private @main_const_eval_115(%arg0: tensor<64xf32, #ttnn_layout> loc(unknown)) -> tensor<1x64x1x1xf32, #ttnn_layout1> attributes {tt.function_type = "const_eval"} {
        %0 = "ttnn.get_device"() <{mesh_offset = #ttnn<mesh_offset 0x0>, mesh_shape = #ttnn<mesh_shape 1x1>}> : () -> !ttnn.device loc(#loc)
        %1 = "ttnn.to_device"(%arg0, %0) : (tensor<64xf32, #ttnn_layout>, !ttnn.device) -> tensor<64xf32, #ttnn_layout2> loc(#loc)
        %2 = "ttnn.to_layout"(%1) <{layout = #ttnn.layout<tile>}> : (tensor<64xf32, #ttnn_layout2>) -> tensor<64xf32, #ttnn_layout3> loc(#loc)
        "ttnn.deallocate"(%1) <{force = false}> : (tensor<64xf32, #ttnn_layout2>) -> () loc(#loc)
        %3 = "ttnn.reshape"(%2) <{shape = [1 : i32, 64 : i32, 1 : i32, 1 : i32]}> : (tensor<64xf32, #ttnn_layout3>) -> tensor<1x64x1x1xf32, #ttnn_layout1> loc(#loc18)
        "ttnn.deallocate"(%2) <{force = false}> : (tensor<64xf32, #ttnn_layout3>) -> () loc(#loc18)
        return %3 : tensor<1x64x1x1xf32, #ttnn_layout1> loc(#loc)
      } loc(#loc)
      func.func private @main_const_eval_116(%arg0: tensor<256xf32, #ttnn_layout4> loc(unknown)) -> tensor<1x256x1x1xf32, #ttnn_layout5> attributes {tt.function_type = "const_eval"} {
        %0 = "ttnn.get_device"() <{mesh_offset = #ttnn<mesh_offset 0x0>, mesh_shape = #ttnn<mesh_shape 1x1>}> : () -> !ttnn.device loc(#loc)
        %1 = "ttnn.to_device"(%arg0, %0) : (tensor<256xf32, #ttnn_layout4>, !ttnn.device) -> tensor<256xf32, #ttnn_layout6> loc(#loc)
        %2 = "ttnn.to_layout"(%1) <{layout = #ttnn.layout<tile>}> : (tensor<256xf32, #ttnn_layout6>) -> tensor<256xf32, #ttnn_layout7> loc(#loc)
        "ttnn.deallocate"(%1) <{force = false}> : (tensor<256xf32, #ttnn_layout6>) -> () loc(#loc)
        %3 = "ttnn.reshape"(%2) <{shape = [1 : i32, 256 : i32, 1 : i32, 1 : i32]}> : (tensor<256xf32, #ttnn_layout7>) -> tensor<1x256x1x1xf32, #ttnn_layout5> loc(#loc42)
        "ttnn.deallocate"(%2) <{force = false}> : (tensor<256xf32, #ttnn_layout7>) -> () loc(#loc42)
        return %3 : tensor<1x256x1x1xf32, #ttnn_layout5> loc(#loc)
      } loc(#loc)
      func.func private @main_const_eval_117(%arg0: tensor<512xf32, #ttnn_layout12> loc(unknown)) -> tensor<1x512x1x1xf32, #ttnn_layout13> attributes {tt.function_type = "const_eval"} {
        %0 = "ttnn.get_device"() <{mesh_offset = #ttnn<mesh_offset 0x0>, mesh_shape = #ttnn<mesh_shape 1x1>}> : () -> !ttnn.device loc(#loc)
        %1 = "ttnn.to_device"(%arg0, %0) : (tensor<512xf32, #ttnn_layout12>, !ttnn.device) -> tensor<512xf32, #ttnn_layout14> loc(#loc)
        %2 = "ttnn.to_layout"(%1) <{layout = #ttnn.layout<tile>}> : (tensor<512xf32, #ttnn_layout14>) -> tensor<512xf32, #ttnn_layout15> loc(#loc)
        "ttnn.deallocate"(%1) <{force = false}> : (tensor<512xf32, #ttnn_layout14>) -> () loc(#loc)
        %3 = "ttnn.reshape"(%2) <{shape = [1 : i32, 512 : i32, 1 : i32, 1 : i32]}> : (tensor<512xf32, #ttnn_layout15>) -> tensor<1x512x1x1xf32, #ttnn_layout13> loc(#loc5)
        "ttnn.deallocate"(%2) <{force = false}> : (tensor<512xf32, #ttnn_layout15>) -> () loc(#loc5)
        return %3 : tensor<1x512x1x1xf32, #ttnn_layout13> loc(#loc)
      } loc(#loc)
      func.func private @main_const_eval_118(%arg0: tensor<2048xf32, #ttnn_layout20> loc(unknown)) -> tensor<1x2048x1x1xf32, #ttnn_layout21> attributes {tt.function_type = "const_eval"} {
        %0 = "ttnn.get_device"() <{mesh_offset = #ttnn<mesh_offset 0x0>, mesh_shape = #ttnn<mesh_shape 1x1>}> : () -> !ttnn.device loc(#loc)
        %1 = "ttnn.to_device"(%arg0, %0) : (tensor<2048xf32, #ttnn_layout20>, !ttnn.device) -> tensor<2048xf32, #ttnn_layout22> loc(#loc)
        %2 = "ttnn.to_layout"(%1) <{layout = #ttnn.layout<tile>}> : (tensor<2048xf32, #ttnn_layout22>) -> tensor<2048xf32, #ttnn_layout23> loc(#loc)
        "ttnn.deallocate"(%1) <{force = false}> : (tensor<2048xf32, #ttnn_layout22>) -> () loc(#loc)
        %3 = "ttnn.reshape"(%2) <{shape = [1 : i32, 2048 : i32, 1 : i32, 1 : i32]}> : (tensor<2048xf32, #ttnn_layout23>) -> tensor<1x2048x1x1xf32, #ttnn_layout21> loc(#loc15)
        "ttnn.deallocate"(%2) <{force = false}> : (tensor<2048xf32, #ttnn_layout23>) -> () loc(#loc15)
        return %3 : tensor<1x2048x1x1xf32, #ttnn_layout21> loc(#loc)
      } loc(#loc)
      func.func private @main_const_eval_119(%arg0: tensor<256xf32, #ttnn_layout4> loc(unknown)) -> tensor<1x256x1x1xf32, #ttnn_layout5> attributes {tt.function_type = "const_eval"} {
        %0 = "ttnn.get_device"() <{mesh_offset = #ttnn<mesh_offset 0x0>, mesh_shape = #ttnn<mesh_shape 1x1>}> : () -> !ttnn.device loc(#loc)
        %1 = "ttnn.to_device"(%arg0, %0) : (tensor<256xf32, #ttnn_layout4>, !ttnn.device) -> tensor<256xf32, #ttnn_layout6> loc(#loc)
        %2 = "ttnn.to_layout"(%1) <{layout = #ttnn.layout<tile>}> : (tensor<256xf32, #ttnn_layout6>) -> tensor<256xf32, #ttnn_layout7> loc(#loc)
        "ttnn.deallocate"(%1) <{force = false}> : (tensor<256xf32, #ttnn_layout6>) -> () loc(#loc)
        %3 = "ttnn.reshape"(%2) <{shape = [1 : i32, 256 : i32, 1 : i32, 1 : i32]}> : (tensor<256xf32, #ttnn_layout7>) -> tensor<1x256x1x1xf32, #ttnn_layout5> loc(#loc2)
        "ttnn.deallocate"(%2) <{force = false}> : (tensor<256xf32, #ttnn_layout7>) -> () loc(#loc2)
        return %3 : tensor<1x256x1x1xf32, #ttnn_layout5> loc(#loc)
      } loc(#loc)
      func.func private @main_const_eval_120(%arg0: tensor<256xf32, #ttnn_layout4> loc(unknown)) -> tensor<1x256x1x1xf32, #ttnn_layout5> attributes {tt.function_type = "const_eval"} {
        %0 = "ttnn.get_device"() <{mesh_offset = #ttnn<mesh_offset 0x0>, mesh_shape = #ttnn<mesh_shape 1x1>}> : () -> !ttnn.device loc(#loc)
…
        "ttnn.deallocate"(%142) <{force = false}> : (tensor<1x1024x1x1xf32, #ttnn_layout17>) -> () loc(#loc20)
        "ttnn.deallocate"(%125) <{force = false}> : (tensor<1x1024x1x1xf32, #ttnn_layout17>) -> () loc(#loc20)
        "ttnn.deallocate"(%37) <{force = false}> : (tensor<1x1024x1x1xf32, #ttnn_layout17>) -> () loc(#loc20)
        "ttnn.deallocate"(%20) <{force = false}> : (tensor<1x1024x1x1xf32, #ttnn_layout17>) -> () loc(#loc20)
        %560 = "ttnn.add"(%559, %536) : (tensor<1x1024x14x14xf32, #ttnn_layout17>, tensor<1x1024x14x14xf32, #ttnn_layout17>) -> tensor<1x1024x14x14xf32, #ttnn_layout17> loc(#loc418)
        "ttnn.deallocate"(%559) <{force = false}> : (tensor<1x1024x14x14xf32, #ttnn_layout17>) -> () loc(#loc418)
        "ttnn.deallocate"(%536) <{force = false}> : (tensor<1x1024x14x14xf32, #ttnn_layout17>) -> () loc(#loc418)
        %561 = "ttnn.relu"(%560) : (tensor<1x1024x14x14xf32, #ttnn_layout17>) -> tensor<1x1024x14x14xf32, #ttnn_layout17> loc(#loc419)
        "ttnn.deallocate"(%560) <{force = false}> : (tensor<1x1024x14x14xf32, #ttnn_layout17>) -> () loc(#loc419)
        %562 = "ttnn.permute"(%561) <{permutation = array<i64: 0, 2, 3, 1>}> : (tensor<1x1024x14x14xf32, #ttnn_layout17>) -> tensor<1x14x14x1024xf32, #ttnn_layout82> loc(#loc419)
        "ttnn.deallocate"(%561) <{force = false}> : (tensor<1x1024x14x14xf32, #ttnn_layout17>) -> () loc(#loc419)
        %563 = "ttnn.reshape"(%562) <{shape = [1 : i32, 1 : i32, 196 : i32, 1024 : i32]}> : (tensor<1x14x14x1024xf32, #ttnn_layout82>) -> tensor<1x1x196x1024xf32, #ttnn_layout81> loc(#loc419)
        "ttnn.deallocate"(%562) <{force = false}> : (tensor<1x14x14x1024xf32, #ttnn_layout82>) -> () loc(#loc419)
        %564 = "ttnn.to_layout"(%563) <{layout = #ttnn.layout<row_major>}> : (tensor<1x1x196x1024xf32, #ttnn_layout81>) -> tensor<1x1x196x1024xf32, #ttnn_layout83> loc(#loc528)
        "ttnn.deallocate"(%563) <{force = false}> : (tensor<1x1x196x1024xf32, #ttnn_layout81>) -> () loc(#loc528)
        %565 = "ttnn.conv2d"(%564, %arg237, %212) <{batch_size = 1 : i32, compute_config = #ttnn.device_compute_kernel_config<math_fidelity = hifi4, fp32_dest_acc_en = true>, conv2d_config = #ttnn.conv2d_config<enable_kernel_stride_folding = false, config_tensors_in_dram = true>, dilation = array<i32: 1, 1>, groups = 1 : i32, in_channels = 1024 : i32, input_height = 14 : i32, input_width = 14 : i32, kernel_size = array<i32: 1, 1>, out_channels = 512 : i32, padding = array<i32: 0, 0, 0, 0>, stride = array<i32: 1, 1>}> : (tensor<1x1x196x1024xf32, #ttnn_layout83>, tensor<512x1024x1x1xf32, #ttnn_layout44>, !ttnn.device) -> tensor<1x1x196x512xf32, #ttnn_layout84> loc(#loc420)
        "ttnn.deallocate"(%arg237) <{force = false}> : (tensor<512x1024x1x1xf32, #ttnn_layout44>) -> () loc(#loc420)
        %566 = "ttnn.reshape"(%565) <{shape = [1 : i32, 14 : i32, 14 : i32, 512 : i32]}> : (tensor<1x1x196x512xf32, #ttnn_layout84>) -> tensor<1x14x14x512xf32, #ttnn_layout85> loc(#loc529)
        "ttnn.deallocate"(%565) <{force = false}> : (tensor<1x1x196x512xf32, #ttnn_layout84>) -> () loc(#loc529)
        %567 = "ttnn.permute"(%566) <{permutation = array<i64: 0, 3, 1, 2>}> : (tensor<1x14x14x512xf32, #ttnn_layout85>) -> tensor<1x512x14x14xf32, #ttnn_layout13> loc(#loc420)
        "ttnn.deallocate"(%566) <{force = false}> : (tensor<1x14x14x512xf32, #ttnn_layout85>) -> () loc(#loc420)
        %568 = "ttnn.batch_norm_inference"(%567, %203, %38, %88, %158) <{compute_config = #ttnn.device_compute_kernel_config<math_fidelity = hifi4, fp32_dest_acc_en = true>, epsilon = 9.99999974E-6 : f32, operandSegmentSizes = array<i32: 1, 1, 1, 1, 1>}> : (tensor<1x512x14x14xf32, #ttnn_layout13>, tensor<1x512x1x1xf32, #ttnn_layout13>, tensor<1x512x1x1xf32, #ttnn_layout13>, tensor<1x512x1x1xf32, #ttnn_layout13>, tensor<1x512x1x1xf32, #ttnn_layout13>) -> tensor<1x512x14x14xf32, #ttnn_layout13> loc(#loc32)
        "ttnn.deallocate"(%567) <{force = false}> : (tensor<1x512x14x14xf32, #ttnn_layout13>) -> () loc(#loc32)
        "ttnn.deallocate"(%203) <{force = false}> : (tensor<1x512x1x1xf32, #ttnn_layout13>) -> () loc(#loc32)
        "ttnn.deallocate"(%158) <{force = false}> : (tensor<1x512x1x1xf32, #ttnn_layout13>) -> () loc(#loc32)
        "ttnn.deallocate"(%88) <{force = false}> : (tensor<1x512x1x1xf32, #ttnn_layout13>) -> () loc(#loc32)
        "ttnn.deallocate"(%38) <{force = false}> : (tensor<1x512x1x1xf32, #ttnn_layout13>) -> () loc(#loc32)
        %569 = "ttnn.relu"(%568) : (tensor<1x512x14x14xf32, #ttnn_layout13>) -> tensor<1x512x14x14xf32, #ttnn_layout13> loc(#loc421)
        "ttnn.deallocate"(%568) <{force = false}> : (tensor<1x512x14x14xf32, #ttnn_layout13>) -> () loc(#loc421)
        %570 = "ttnn.permute"(%569) <{permutation = array<i64: 0, 2, 3, 1>}> : (tensor<1x512x14x14xf32, #ttnn_layout13>) -> tensor<1x14x14x512xf32, #ttnn_layout85> loc(#loc421)
        "ttnn.deallocate"(%569) <{force = false}> : (tensor<1x512x14x14xf32, #ttnn_layout13>) -> () loc(#loc421)
        %571 = "ttnn.reshape"(%570) <{shape = [1 : i32, 1 : i32, 196 : i32, 512 : i32]}> : (tensor<1x14x14x512xf32, #ttnn_layout85>) -> tensor<1x1x196x512xf32, #ttnn_layout84> loc(#loc421)
        "ttnn.deallocate"(%570) <{force = false}> : (tensor<1x14x14x512xf32, #ttnn_layout85>) -> () loc(#loc421)
        %572 = "ttnn.to_layout"(%571) <{layout = #ttnn.layout<row_major>}> : (tensor<1x1x196x512xf32, #ttnn_layout84>) -> tensor<1x1x196x512xf32, #ttnn_layout86> loc(#loc530)
        "ttnn.deallocate"(%571) <{force = false}> : (tensor<1x1x196x512xf32, #ttnn_layout84>) -> () loc(#loc530)
        %573 = "ttnn.conv2d"(%572, %arg232, %212) <{batch_size = 1 : i32, compute_config = #ttnn.device_compute_kernel_config<math_fidelity = hifi4, fp32_dest_acc_en = true>, conv2d_config = #ttnn.conv2d_config<enable_kernel_stride_folding = false, config_tensors_in_dram = true>, dilation = array<i32: 1, 1>, groups = 1 : i32, in_channels = 512 : i32, input_height = 14 : i32, input_width = 14 : i32, kernel_size = array<i32: 3, 3>, out_channels = 512 : i32, padding = array<i32: 1, 1, 1, 1>, stride = array<i32: 2, 2>}> : (tensor<1x1x196x512xf32, #ttnn_layout86>, tensor<512x512x3x3xf32, #ttnn_layout43>, !ttnn.device) -> tensor<1x1x49x512xf32, #ttnn_layout87> loc(#loc422)
        "ttnn.deallocate"(%572) <{force = false}> : (tensor<1x1x196x512xf32, #ttnn_layout86>) -> () loc(#loc422)
        "ttnn.deallocate"(%arg232) <{force = false}> : (tensor<512x512x3x3xf32, #ttnn_layout43>) -> () loc(#loc422)
        %574 = "ttnn.reshape"(%573) <{shape = [1 : i32, 7 : i32, 7 : i32, 512 : i32]}> : (tensor<1x1x49x512xf32, #ttnn_layout87>) -> tensor<1x7x7x512xf32, #ttnn_layout88> loc(#loc531)
        "ttnn.deallocate"(%573) <{force = false}> : (tensor<1x1x49x512xf32, #ttnn_layout87>) -> () loc(#loc531)
        %575 = "ttnn.permute"(%574) <{permutation = array<i64: 0, 3, 1, 2>}> : (tensor<1x7x7x512xf32, #ttnn_layout88>) -> tensor<1x512x7x7xf32, #ttnn_layout13> loc(#loc422)
        "ttnn.deallocate"(%574) <{force = false}> : (tensor<1x7x7x512xf32, #ttnn_layout88>) -> () loc(#loc422)
        %576 = "ttnn.batch_norm_inference"(%575, %4, %85, %117, %129) <{compute_config = #ttnn.device_compute_kernel_config<math_fidelity = hifi4, fp32_dest_acc_en = true>, epsilon = 9.99999974E-6 : f32, operandSegmentSizes = array<i32: 1, 1, 1, 1, 1>}> : (tensor<1x512x7x7xf32, #ttnn_layout13>, tensor<1x512x1x1xf32, #ttnn_layout13>, tensor<1x512x1x1xf32, #ttnn_layout13>, tensor<1x512x1x1xf32, #ttnn_layout13>, tensor<1x512x1x1xf32, #ttnn_layout13>) -> tensor<1x512x7x7xf32, #ttnn_layout13> loc(#loc5)
        "ttnn.deallocate"(%575) <{force = false}> : (tensor<1x512x7x7xf32, #ttnn_layout13>) -> () loc(#loc5)
        "ttnn.deallocate"(%129) <{force = false}> : (tensor<1x512x1x1xf32, #ttnn_layout13>) -> () loc(#loc5)
        "ttnn.deallocate"(%117) <{force = false}> : (tensor<1x512x1x1xf32, #ttnn_layout13>) -> () loc(#loc5)
        "ttnn.deallocate"(%85) <{force = false}> : (tensor<1x512x1x1xf32, #ttnn_layout13>) -> () loc(#loc5)
        "ttnn.deallocate"(%4) <{force = false}> : (tensor<1x512x1x1xf32, #ttnn_layout13>) -> () loc(#loc5)
        %577 = "ttnn.relu"(%576) : (tensor<1x512x7x7xf32, #ttnn_layout13>) -> tensor<1x512x7x7xf32, #ttnn_layout13> loc(#loc423)
        "ttnn.deallocate"(%576) <{force = false}> : (tensor<1x512x7x7xf32, #ttnn_layout13>) -> () loc(#loc423)
        %578 = "ttnn.permute"(%577) <{permutation = array<i64: 0, 2, 3, 1>}> : (tensor<1x512x7x7xf32, #ttnn_layout13>) -> tensor<1x7x7x512xf32, #ttnn_layout88> loc(#loc423)
        "ttnn.deallocate"(%577) <{force = false}> : (tensor<1x512x7x7xf32, #ttnn_layout13>) -> () loc(#loc423)
        %579 = "ttnn.reshape"(%578) <{shape = [1 : i32, 1 : i32, 49 : i32, 512 : i32]}> : (tensor<1x7x7x512xf32, #ttnn_layout88>) -> tensor<1x1x49x512xf32, #ttnn_layout87> loc(#loc423)
        "ttnn.deallocate"(%578) <{force = false}> : (tensor<1x7x7x512xf32, #ttnn_layout88>) -> () loc(#loc423)
        %580 = "ttnn.to_layout"(%579) <{layout = #ttnn.layout<row_major>}> : (tensor<1x1x49x512xf32, #ttnn_layout87>) -> tensor<1x1x49x512xf32, #ttnn_layout89> loc(#loc532)
        "ttnn.deallocate"(%579) <{force = false}> : (tensor<1x1x49x512xf32, #ttnn_layout87>) -> () loc(#loc532)
        %581 = "ttnn.conv2d"(%580, %arg227, %212) <{batch_size = 1 : i32, compute_config = #ttnn.device_compute_kernel_config<math_fidelity = hifi4, fp32_dest_acc_en = true>, conv2d_config = #ttnn.conv2d_config<enable_kernel_stride_folding = false, config_tensors_in_dram = true>, dilation = array<i32: 1, 1>, groups = 1 : i32, in_channels = 512 : i32, input_height = 7 : i32, input_width = 7 : i32, kernel_size = array<i32: 1, 1>, out_channels = 2048 : i32, padding = array<i32: 0, 0, 0, 0>, stride = array<i32: 1, 1>}> : (tensor<1x1x49x512xf32, #ttnn_layout89>, tensor<2048x512x1x1xf32, #ttnn_layout42>, !ttnn.device) -> tensor<1x1x49x2048xf32, #ttnn_layout90> loc(#loc424)
        "ttnn.deallocate"(%580) <{force = false}> : (tensor<1x1x49x512xf32, #ttnn_layout89>) -> () loc(#loc424)
        "ttnn.deallocate"(%arg227) <{force = false}> : (tensor<2048x512x1x1xf32, #ttnn_layout42>) -> () loc(#loc424)
        %582 = "ttnn.reshape"(%581) <{shape = [1 : i32, 7 : i32, 7 : i32, 2048 : i32]}> : (tensor<1x1x49x2048xf32, #ttnn_layout90>) -> tensor<1x7x7x2048xf32, #ttnn_layout91> loc(#loc533)
        "ttnn.deallocate"(%581) <{force = false}> : (tensor<1x1x49x2048xf32, #ttnn_layout90>) -> () loc(#loc533)
        %583 = "ttnn.permute"(%582) <{permutation = array<i64: 0, 3, 1, 2>}> : (tensor<1x7x7x2048xf32, #ttnn_layout91>) -> tensor<1x2048x7x7xf32, #ttnn_layout21> loc(#loc424)
        "ttnn.deallocate"(%582) <{force = false}> : (tensor<1x7x7x2048xf32, #ttnn_layout91>) -> () loc(#loc424)
        %584 = "ttnn.batch_norm_inference"(%583, %147, %160, %66, %79) <{compute_config = #ttnn.device_compute_kernel_config<math_fidelity = hifi4, fp32_dest_acc_en = true>, epsilon = 9.99999974E-6 : f32, operandSegmentSizes = array<i32: 1, 1, 1, 1, 1>}> : (tensor<1x2048x7x7xf32, #ttnn_layout21>, tensor<1x2048x1x1xf32, #ttnn_layout21>, tensor<1x2048x1x1xf32, #ttnn_layout21>, tensor<1x2048x1x1xf32, #ttnn_layout21>, tensor<1x2048x1x1xf32, #ttnn_layout21>) -> tensor<1x2048x7x7xf32, #ttnn_layout21> loc(#loc45)
        "ttnn.deallocate"(%583) <{force = false}> : (tensor<1x2048x7x7xf32, #ttnn_layout21>) -> () loc(#loc45)
        "ttnn.deallocate"(%160) <{force = false}> : (tensor<1x2048x1x1xf32, #ttnn_layout21>) -> () loc(#loc45)
        "ttnn.deallocate"(%147) <{force = false}> : (tensor<1x2048x1x1xf32, #ttnn_layout21>) -> () loc(#loc45)
        "ttnn.deallocate"(%79) <{force = false}> : (tensor<1x2048x1x1xf32, #ttnn_layout21>) -> () loc(#loc45)
        "ttnn.deallocate"(%66) <{force = false}> : (tensor<1x2048x1x1xf32, #ttnn_layout21>) -> () loc(#loc45)
        %585 = "ttnn.conv2d"(%564, %arg6, %212) <{batch_size = 1 : i32, compute_config = #ttnn.device_compute_kernel_config<math_fidelity = hifi4, fp32_dest_acc_en = true>, conv2d_config = #ttnn.conv2d_config<enable_kernel_stride_folding = false, config_tensors_in_dram = true>, dilation = array<i32: 1, 1>, groups = 1 : i32, in_channels = 1024 : i32, input_height = 14 : i32, input_width = 14 : i32, kernel_size = array<i32: 1, 1>, out_channels = 2048 : i32, padding = array<i32: 0, 0, 0, 0>, stride = array<i32: 2, 2>}> : (tensor<1x1x196x1024xf32, #ttnn_layout83>, tensor<2048x1024x1x1xf32, #ttnn_layout25>, !ttnn.device) -> tensor<1x1x49x2048xf32, #ttnn_layout90> loc(#loc425)
        "ttnn.deallocate"(%564) <{force = false}> : (tensor<1x1x196x1024xf32, #ttnn_layout83>) -> () loc(#loc425)
        "ttnn.deallocate"(%arg6) <{force = false}> : (tensor<2048x1024x1x1xf32, #ttnn_layout25>) -> () loc(#loc425)
        %586 = "ttnn.reshape"(%585) <{shape = [1 : i32, 7 : i32, 7 : i32, 2048 : i32]}> : (tensor<1x1x49x2048xf32, #ttnn_layout90>) -> tensor<1x7x7x2048xf32, #ttnn_layout91> loc(#loc534)
        "ttnn.deallocate"(%585) <{force = false}> : (tensor<1x1x49x2048xf32, #ttnn_layout90>) -> () loc(#loc534)
        %587 = "ttnn.permute"(%586) <{permutation = array<i64: 0, 3, 1, 2>}> : (tensor<1x7x7x2048xf32, #ttnn_layout91>) -> tensor<1x2048x7x7xf32, #ttnn_layout21> loc(#loc425)
        "ttnn.deallocate"(%586) <{force = false}> : (tensor<1x7x7x2048xf32, #ttnn_layout91>) -> () loc(#loc425)
        %588 = "ttnn.batch_norm_inference"(%587, %15, %107, %97, %137) <{compute_config = #ttnn.device_compute_kernel_config<math_fidelity = hifi4, fp32_dest_acc_en = true>, epsilon = 9.99999974E-6 : f32, operandSegmentSizes = array<i32: 1, 1, 1, 1, 1>}> : (tensor<1x2048x7x7xf32, #ttnn_layout21>, tensor<1x2048x1x1xf32, #ttnn_layout21>, tensor<1x2048x1x1xf32, #ttnn_layout21>, tensor<1x2048x1x1xf32, #ttnn_layout21>, tensor<1x2048x1x1xf32, #ttnn_layout21>) -> tensor<1x2048x7x7xf32, #ttnn_layout21> loc(#loc16)
        "ttnn.deallocate"(%587) <{force = false}> : (tensor<1x2048x7x7xf32, #ttnn_layout21>) -> () loc(#loc16)
        "ttnn.deallocate"(%137) <{force = false}> : (tensor<1x2048x1x1xf32, #ttnn_layout21>) -> () loc(#loc16)
        "ttnn.deallocate"(%107) <{force = false}> : (tensor<1x2048x1x1xf32, #ttnn_layout21>) -> () loc(#loc16)
        "ttnn.deallocate"(%97) <{force = false}> : (tensor<1x2048x1x1xf32, #ttnn_layout21>) -> () loc(#loc16)
        "ttnn.deallocate"(%15) <{force = false}> : (tensor<1x2048x1x1xf32, #ttnn_layout21>) -> () loc(#loc16)
        %589 = "ttnn.add"(%584, %588) : (tensor<1x2048x7x7xf32, #ttnn_layout21>, tensor<1x2048x7x7xf32, #ttnn_layout21>) -> tensor<1x2048x7x7xf32, #ttnn_layout21> loc(#loc426)
        "ttnn.deallocate"(%588) <{force = false}> : (tensor<1x2048x7x7xf32, #ttnn_layout21>) -> () loc(#loc426)
        "ttnn.deallocate"(%584) <{force = false}> : (tensor<1x2048x7x7xf32, #ttnn_layout21>) -> () loc(#loc426)
        %590 = "ttnn.relu"(%589) : (tensor<1x2048x7x7xf32, #ttnn_layout21>) -> tensor<1x2048x7x7xf32, #ttnn_layout21> loc(#loc427)
        "ttnn.deallocate"(%589) <{force = false}> : (tensor<1x2048x7x7xf32, #ttnn_layout21>) -> () loc(#loc427)
        %591 = "ttnn.permute"(%590) <{permutation = array<i64: 0, 2, 3, 1>}> : (tensor<1x2048x7x7xf32, #ttnn_layout21>) -> tensor<1x7x7x2048xf32, #ttnn_layout91> loc(#loc428)
        %592 = "ttnn.reshape"(%591) <{shape = [1 : i32, 1 : i32, 49 : i32, 2048 : i32]}> : (tensor<1x7x7x2048xf32, #ttnn_layout91>) -> tensor<1x1x49x2048xf32, #ttnn_layout90> loc(#loc535)
        "ttnn.deallocate"(%591) <{force = false}> : (tensor<1x7x7x2048xf32, #ttnn_layout91>) -> () loc(#loc535)
        %593 = "ttnn.to_layout"(%592) <{layout = #ttnn.layout<row_major>}> : (tensor<1x1x49x2048xf32, #ttnn_layout90>) -> tensor<1x1x49x2048xf32, #ttnn_layout92> loc(#loc536)
        "ttnn.deallocate"(%592) <{force = false}> : (tensor<1x1x49x2048xf32, #ttnn_layout90>) -> () loc(#loc536)
        %594 = "ttnn.conv2d"(%593, %arg252, %212) <{batch_size = 1 : i32, compute_config = #ttnn.device_compute_kernel_config<math_fidelity = hifi4, fp32_dest_acc_en = true>, conv2d_config = #ttnn.conv2d_config<enable_kernel_stride_folding = false, config_tensors_in_dram = true>, dilation = array<i32: 1, 1>, groups = 1 : i32, in_channels = 2048 : i32, input_height = 7 : i32, input_width = 7 : i32, kernel_size = array<i32: 1, 1>, out_channels = 512 : i32, padding = array<i32: 0, 0, 0, 0>, stride = array<i32: 1, 1>}> : (tensor<1x1x49x2048xf32, #ttnn_layout92>, tensor<512x2048x1x1xf32, #ttnn_layout45>, !ttnn.device) -> tensor<1x1x49x512xf32, #ttnn_layout87> loc(#loc428)
        "ttnn.deallocate"(%593) <{force = false}> : (tensor<1x1x49x2048xf32, #ttnn_layout92>) -> () loc(#loc428)
        "ttnn.deallocate"(%arg252) <{force = false}> : (tensor<512x2048x1x1xf32, #ttnn_layout45>) -> () loc(#loc428)
        %595 = "ttnn.reshape"(%594) <{shape = [1 : i32, 7 : i32, 7 : i32, 512 : i32]}> : (tensor<1x1x49x512xf32, #ttnn_layout87>) -> tensor<1x7x7x512xf32, #ttnn_layout88> loc(#loc535)
        "ttnn.deallocate"(%594) <{force = false}> : (tensor<1x1x49x512xf32, #ttnn_layout87>) -> () loc(#loc535)
        %596 = "ttnn.permute"(%595) <{permutation = array<i64: 0, 3, 1, 2>}> : (tensor<1x7x7x512xf32, #ttnn_layout88>) -> tensor<1x512x7x7xf32, #ttnn_layout13> loc(#loc428)
        "ttnn.deallocate"(%595) <{force = false}> : (tensor<1x7x7x512xf32, #ttnn_layout88>) -> () loc(#loc428)
        %597 = "ttnn.batch_norm_inference"(%596, %55, %75, %171, %193) <{compute_config = #ttnn.device_compute_kernel_config<math_fidelity = hifi4, fp32_dest_acc_en = true>, epsilon = 9.99999974E-6 : f32, operandSegmentSizes = array<i32: 1, 1, 1, 1, 1>}> : (tensor<1x512x7x7xf32, #ttnn_layout13>, tensor<1x512x1x1xf32, #ttnn_layout13>, tensor<1x512x1x1xf32, #ttnn_layout13>, tensor<1x512x1x1xf32, #ttnn_layout13>, tensor<1x512x1x1xf32, #ttnn_layout13>) -> tensor<1x512x7x7xf32, #ttnn_layout13> loc(#loc39)
        "ttnn.deallocate"(%596) <{force = false}> : (tensor<1x512x7x7xf32, #ttnn_layout13>) -> () loc(#loc39)
        "ttnn.deallocate"(%193) <{force = false}> : (tensor<1x512x1x1xf32, #ttnn_layout13>) -> () loc(#loc39)
        "ttnn.deallocate"(%171) <{force = false}> : (tensor<1x512x1x1xf32, #ttnn_layout13>) -> () loc(#loc39)
        "ttnn.deallocate"(%75) <{force = false}> : (tensor<1x512x1x1xf32, #ttnn_layout13>) -> () loc(#loc39)
        "ttnn.deallocate"(%55) <{force = false}> : (tensor<1x512x1x1xf32, #ttnn_layout13>) -> () loc(#loc39)
        %598 = "ttnn.relu"(%597) : (tensor<1x512x7x7xf32, #ttnn_layout13>) -> tensor<1x512x7x7xf32, #ttnn_layout13> loc(#loc429)
        "ttnn.deallocate"(%597) <{force = false}> : (tensor<1x512x7x7xf32, #ttnn_layout13>) -> () loc(#loc429)
        %599 = "ttnn.permute"(%598) <{permutation = array<i64: 0, 2, 3, 1>}> : (tensor<1x512x7x7xf32, #ttnn_layout13>) -> tensor<1x7x7x512xf32, #ttnn_layout88> loc(#loc429)
        "ttnn.deallocate"(%598) <{force = false}> : (tensor<1x512x7x7xf32, #ttnn_layout13>) -> () loc(#loc429)
        %600 = "ttnn.reshape"(%599) <{shape = [1 : i32, 1 : i32, 49 : i32, 512 : i32]}> : (tensor<1x7x7x512xf32, #ttnn_layout88>) -> tensor<1x1x49x512xf32, #ttnn_layout87> loc(#loc429)
        "ttnn.deallocate"(%599) <{force = false}> : (tensor<1x7x7x512xf32, #ttnn_layout88>) -> () loc(#loc429)
        %601 = "ttnn.to_layout"(%600) <{layout = #ttnn.layout<row_major>}> : (tensor<1x1x49x512xf32, #ttnn_layout87>) -> tensor<1x1x49x512xf32, #ttnn_layout89> loc(#loc537)
        "ttnn.deallocate"(%600) <{force = false}> : (tensor<1x1x49x512xf32, #ttnn_layout87>) -> () loc(#loc537)
        %602 = "ttnn.conv2d"(%601, %arg247, %212) <{batch_size = 1 : i32, compute_config = #ttnn.device_compute_kernel_config<math_fidelity = hifi4, fp32_dest_acc_en = true>, conv2d_config = #ttnn.conv2d_config<enable_kernel_stride_folding = false, config_tensors_in_dram = true>, dilation = array<i32: 1, 1>, groups = 1 : i32, in_channels = 512 : i32, input_height = 7 : i32, input_width = 7 : i32, kernel_size = array<i32: 3, 3>, out_channels = 512 : i32, padding = array<i32: 1, 1, 1, 1>, stride = array<i32: 1, 1>}> : (tensor<1x1x49x512xf32, #ttnn_layout89>, tensor<512x512x3x3xf32, #ttnn_layout43>, !ttnn.device) -> tensor<1x1x49x512xf32, #ttnn_layout87> loc(#loc430)
        "ttnn.deallocate"(%601) <{force = false}> : (tensor<1x1x49x512xf32, #ttnn_layout89>) -> () loc(#loc430)
        "ttnn.deallocate"(%arg247) <{force = false}> : (tensor<512x512x3x3xf32, #ttnn_layout43>) -> () loc(#loc430)
        %603 = "ttnn.reshape"(%602) <{shape = [1 : i32, 7 : i32, 7 : i32, 512 : i32]}> : (tensor<1x1x49x512xf32, #ttnn_layout87>) -> tensor<1x7x7x512xf32, #ttnn_layout88> loc(#loc538)
        "ttnn.deallocate"(%602) <{force = false}> : (tensor<1x1x49x512xf32, #ttnn_layout87>) -> () loc(#loc538)
        %604 = "ttnn.permute"(%603) <{permutation = array<i64: 0, 3, 1, 2>}> : (tensor<1x7x7x512xf32, #ttnn_layout88>) -> tensor<1x512x7x7xf32, #ttnn_layout13> loc(#loc430)
        "ttnn.deallocate"(%603) <{force = false}> : (tensor<1x7x7x512xf32, #ttnn_layout88>) -> () loc(#loc430)
        %605 = "ttnn.batch_norm_inference"(%604, %151, %106, %152, %191) <{compute_config = #ttnn.device_compute_kernel_config<math_fidelity = hifi4, fp32_dest_acc_en = true>, epsilon = 9.99999974E-6 : f32, operandSegmentSizes = array<i32: 1, 1, 1, 1, 1>}> : (tensor<1x512x7x7xf32, #ttnn_layout13>, tensor<1x512x1x1xf32, #ttnn_layout13>, tensor<1x512x1x1xf32, #ttnn_layout13>, tensor<1x512x1x1xf32, #ttnn_layout13>, tensor<1x512x1x1xf32, #ttnn_layout13>) -> tensor<1x512x7x7xf32, #ttnn_layout13> loc(#loc53)
        "ttnn.deallocate"(%604) <{force = false}> : (tensor<1x512x7x7xf32, #ttnn_layout13>) -> () loc(#loc53)
        "ttnn.deallocate"(%191) <{force = false}> : (tensor<1x512x1x1xf32, #ttnn_layout13>) -> () loc(#loc53)
        "ttnn.deallocate"(%152) <{force = false}> : (tensor<1x512x1x1xf32, #ttnn_layout13>) -> () loc(#loc53)
        "ttnn.deallocate"(%151) <{force = false}> : (tensor<1x512x1x1xf32, #ttnn_layout13>) -> () loc(#loc53)
        "ttnn.deallocate"(%106) <{force = false}> : (tensor<1x512x1x1xf32, #ttnn_layout13>) -> () loc(#loc53)
        %606 = "ttnn.relu"(%605) : (tensor<1x512x7x7xf32, #ttnn_layout13>) -> tensor<1x512x7x7xf32, #ttnn_layout13> loc(#loc431)
        "ttnn.deallocate"(%605) <{force = false}> : (tensor<1x512x7x7xf32, #ttnn_layout13>) -> () loc(#loc431)
        %607 = "ttnn.permute"(%606) <{permutation = array<i64: 0, 2, 3, 1>}> : (tensor<1x512x7x7xf32, #ttnn_layout13>) -> tensor<1x7x7x512xf32, #ttnn_layout88> loc(#loc431)
        "ttnn.deallocate"(%606) <{force = false}> : (tensor<1x512x7x7xf32, #ttnn_layout13>) -> () loc(#loc431)
        %608 = "ttnn.reshape"(%607) <{shape = [1 : i32, 1 : i32, 49 : i32, 512 : i32]}> : (tensor<1x7x7x512xf32, #ttnn_layout88>) -> tensor<1x1x49x512xf32, #ttnn_layout87> loc(#loc431)
        "ttnn.deallocate"(%607) <{force = false}> : (tensor<1x7x7x512xf32, #ttnn_layout88>) -> () loc(#loc431)
        %609 = "ttnn.to_layout"(%608) <{layout = #ttnn.layout<row_major>}> : (tensor<1x1x49x512xf32, #ttnn_layout87>) -> tensor<1x1x49x512xf32, #ttnn_layout89> loc(#loc539)
        "ttnn.deallocate"(%608) <{force = false}> : (tensor<1x1x49x512xf32, #ttnn_layout87>) -> () loc(#loc539)
        %610 = "ttnn.conv2d"(%609, %arg242, %212) <{batch_size = 1 : i32, compute_config = #ttnn.device_compute_kernel_config<math_fidelity = hifi4, fp32_dest_acc_en = true>, conv2d_config = #ttnn.conv2d_config<enable_kernel_stride_folding = false, config_tensors_in_dram = true>, dilation = array<i32: 1, 1>, groups = 1 : i32, in_channels = 512 : i32, input_height = 7 : i32, input_width = 7 : i32, kernel_size = array<i32: 1, 1>, out_channels = 2048 : i32, padding = array<i32: 0, 0, 0, 0>, stride = array<i32: 1, 1>}> : (tensor<1x1x49x512xf32, #ttnn_layout89>, tensor<2048x512x1x1xf32, #ttnn_layout42>, !ttnn.device) -> tensor<1x1x49x2048xf32, #ttnn_layout90> loc(#loc432)
        "ttnn.deallocate"(%609) <{force = false}> : (tensor<1x1x49x512xf32, #ttnn_layout89>) -> () loc(#loc432)
        "ttnn.deallocate"(%arg242) <{force = false}> : (tensor<2048x512x1x1xf32, #ttnn_layout42>) -> () loc(#loc432)
        %611 = "ttnn.reshape"(%610) <{shape = [1 : i32, 7 : i32, 7 : i32, 2048 : i32]}> : (tensor<1x1x49x2048xf32, #ttnn_layout90>) -> tensor<1x7x7x2048xf32, #ttnn_layout91> loc(#loc540)
        "ttnn.deallocate"(%610) <{force = false}> : (tensor<1x1x49x2048xf32, #ttnn_layout90>) -> () loc(#loc540)
        %612 = "ttnn.permute"(%611) <{permutation = array<i64: 0, 3, 1, 2>}> : (tensor<1x7x7x2048xf32, #ttnn_layout91>) -> tensor<1x2048x7x7xf32, #ttnn_layout21> loc(#loc432)
        "ttnn.deallocate"(%611) <{force = false}> : (tensor<1x7x7x2048xf32, #ttnn_layout91>) -> () loc(#loc432)
        %613 = "ttnn.batch_norm_inference"(%612, %70, %71, %196, %153) <{compute_config = #ttnn.device_compute_kernel_config<math_fidelity = hifi4, fp32_dest_acc_en = true>, epsilon = 9.99999974E-6 : f32, operandSegmentSizes = array<i32: 1, 1, 1, 1, 1>}> : (tensor<1x2048x7x7xf32, #ttnn_layout21>, tensor<1x2048x1x1xf32, #ttnn_layout21>, tensor<1x2048x1x1xf32, #ttnn_layout21>, tensor<1x2048x1x1xf32, #ttnn_layout21>, tensor<1x2048x1x1xf32, #ttnn_layout21>) -> tensor<1x2048x7x7xf32, #ttnn_layout21> loc(#loc47)
        "ttnn.deallocate"(%612) <{force = false}> : (tensor<1x2048x7x7xf32, #ttnn_layout21>) -> () loc(#loc47)
        "ttnn.deallocate"(%196) <{force = false}> : (tensor<1x2048x1x1xf32, #ttnn_layout21>) -> () loc(#loc47)
        "ttnn.deallocate"(%153) <{force = false}> : (tensor<1x2048x1x1xf32, #ttnn_layout21>) -> () loc(#loc47)
        "ttnn.deallocate"(%71) <{force = false}> : (tensor<1x2048x1x1xf32, #ttnn_layout21>) -> () loc(#loc47)
        "ttnn.deallocate"(%70) <{force = false}> : (tensor<1x2048x1x1xf32, #ttnn_layout21>) -> () loc(#loc47)
        %614 = "ttnn.add"(%613, %590) : (tensor<1x2048x7x7xf32, #ttnn_layout21>, tensor<1x2048x7x7xf32, #ttnn_layout21>) -> tensor<1x2048x7x7xf32, #ttnn_layout21> loc(#loc433)
        "ttnn.deallocate"(%613) <{force = false}> : (tensor<1x2048x7x7xf32, #ttnn_layout21>) -> () loc(#loc433)
        "ttnn.deallocate"(%590) <{force = false}> : (tensor<1x2048x7x7xf32, #ttnn_layout21>) -> () loc(#loc433)
        %615 = "ttnn.relu"(%614) : (tensor<1x2048x7x7xf32, #ttnn_layout21>) -> tensor<1x2048x7x7xf32, #ttnn_layout21> loc(#loc434)
        "ttnn.deallocate"(%614) <{force = false}> : (tensor<1x2048x7x7xf32, #ttnn_layout21>) -> () loc(#loc434)
        %616 = "ttnn.permute"(%615) <{permutation = array<i64: 0, 2, 3, 1>}> : (tensor<1x2048x7x7xf32, #ttnn_layout21>) -> tensor<1x7x7x2048xf32, #ttnn_layout91> loc(#loc435)
        %617 = "ttnn.reshape"(%616) <{shape = [1 : i32, 1 : i32, 49 : i32, 2048 : i32]}> : (tensor<1x7x7x2048xf32, #ttnn_layout91>) -> tensor<1x1x49x2048xf32, #ttnn_layout90> loc(#loc541)
        "ttnn.deallocate"(%616) <{force = false}> : (tensor<1x7x7x2048xf32, #ttnn_layout91>) -> () loc(#loc541)
        %618 = "ttnn.to_layout"(%617) <{layout = #ttnn.layout<row_major>}> : (tensor<1x1x49x2048xf32, #ttnn_layout90>) -> tensor<1x1x49x2048xf32, #ttnn_layout92> loc(#loc542)
        "ttnn.deallocate"(%617) <{force = false}> : (tensor<1x1x49x2048xf32, #ttnn_layout90>) -> () loc(#loc542)
        %619 = "ttnn.conv2d"(%618, %arg267, %212) <{batch_size = 1 : i32, compute_config = #ttnn.device_compute_kernel_config<math_fidelity = hifi4, fp32_dest_acc_en = true>, conv2d_config = #ttnn.conv2d_config<enable_kernel_stride_folding = false, config_tensors_in_dram = true>, dilation = array<i32: 1, 1>, groups = 1 : i32, in_channels = 2048 : i32, input_height = 7 : i32, input_width = 7 : i32, kernel_size = array<i32: 1, 1>, out_channels = 512 : i32, padding = array<i32: 0, 0, 0, 0>, stride = array<i32: 1, 1>}> : (tensor<1x1x49x2048xf32, #ttnn_layout92>, tensor<512x2048x1x1xf32, #ttnn_layout45>, !ttnn.device) -> tensor<1x1x49x512xf32, #ttnn_layout87> loc(#loc435)
        "ttnn.deallocate"(%618) <{force = false}> : (tensor<1x1x49x2048xf32, #ttnn_layout92>) -> () loc(#loc435)
        "ttnn.deallocate"(%arg267) <{force = false}> : (tensor<512x2048x1x1xf32, #ttnn_layout45>) -> () loc(#loc435)
        %620 = "ttnn.reshape"(%619) <{shape = [1 : i32, 7 : i32, 7 : i32, 512 : i32]}> : (tensor<1x1x49x512xf32, #ttnn_layout87>) -> tensor<1x7x7x512xf32, #ttnn_layout88> loc(#loc541)
        "ttnn.deallocate"(%619) <{force = false}> : (tensor<1x1x49x512xf32, #ttnn_layout87>) -> () loc(#loc541)
        %621 = "ttnn.permute"(%620) <{permutation = array<i64: 0, 3, 1, 2>}> : (tensor<1x7x7x512xf32, #ttnn_layout88>) -> tensor<1x512x7x7xf32, #ttnn_layout13> loc(#loc435)
        "ttnn.deallocate"(%620) <{force = false}> : (tensor<1x7x7x512xf32, #ttnn_layout88>) -> () loc(#loc435)
        %622 = "ttnn.batch_norm_inference"(%621, %187, %76, %103, %114) <{compute_config = #ttnn.device_compute_kernel_config<math_fidelity = hifi4, fp32_dest_acc_en = true>, epsilon = 9.99999974E-6 : f32, operandSegmentSizes = array<i32: 1, 1, 1, 1, 1>}> : (tensor<1x512x7x7xf32, #ttnn_layout13>, tensor<1x512x1x1xf32, #ttnn_layout13>, tensor<1x512x1x1xf32, #ttnn_layout13>, tensor<1x512x1x1xf32, #ttnn_layout13>, tensor<1x512x1x1xf32, #ttnn_layout13>) -> tensor<1x512x7x7xf32, #ttnn_layout13> loc(#loc49)
        "ttnn.deallocate"(%621) <{force = false}> : (tensor<1x512x7x7xf32, #ttnn_layout13>) -> () loc(#loc49)
        "ttnn.deallocate"(%187) <{force = false}> : (tensor<1x512x1x1xf32, #ttnn_layout13>) -> () loc(#loc49)
        "ttnn.deallocate"(%114) <{force = false}> : (tensor<1x512x1x1xf32, #ttnn_layout13>) -> () loc(#loc49)
        "ttnn.deallocate"(%103) <{force = false}> : (tensor<1x512x1x1xf32, #ttnn_layout13>) -> () loc(#loc49)
        "ttnn.deallocate"(%76) <{force = false}> : (tensor<1x512x1x1xf32, #ttnn_layout13>) -> () loc(#loc49)
        %623 = "ttnn.relu"(%622) : (tensor<1x512x7x7xf32, #ttnn_layout13>) -> tensor<1x512x7x7xf32, #ttnn_layout13> loc(#loc436)
        "ttnn.deallocate"(%622) <{force = false}> : (tensor<1x512x7x7xf32, #ttnn_layout13>) -> () loc(#loc436)
        %624 = "ttnn.permute"(%623) <{permutation = array<i64: 0, 2, 3, 1>}> : (tensor<1x512x7x7xf32, #ttnn_layout13>) -> tensor<1x7x7x512xf32, #ttnn_layout88> loc(#loc436)
        "ttnn.deallocate"(%623) <{force = false}> : (tensor<1x512x7x7xf32, #ttnn_layout13>) -> () loc(#loc436)
        %625 = "ttnn.reshape"(%624) <{shape = [1 : i32, 1 : i32, 49 : i32, 512 : i32]}> : (tensor<1x7x7x512xf32, #ttnn_layout88>) -> tensor<1x1x49x512xf32, #ttnn_layout87> loc(#loc436)
        "ttnn.deallocate"(%624) <{force = false}> : (tensor<1x7x7x512xf32, #ttnn_layout88>) -> () loc(#loc436)
        %626 = "ttnn.to_layout"(%625) <{layout = #ttnn.layout<row_major>}> : (tensor<1x1x49x512xf32, #ttnn_layout87>) -> tensor<1x1x49x512xf32, #ttnn_layout89> loc(#loc543)
        "ttnn.deallocate"(%625) <{force = false}> : (tensor<1x1x49x512xf32, #ttnn_layout87>) -> () loc(#loc543)
        %627 = "ttnn.conv2d"(%626, %arg262, %212) <{batch_size = 1 : i32, compute_config = #ttnn.device_compute_kernel_config<math_fidelity = hifi4, fp32_dest_acc_en = true>, conv2d_config = #ttnn.conv2d_config<enable_kernel_stride_folding = false, config_tensors_in_dram = true>, dilation = array<i32: 1, 1>, groups = 1 : i32, in_channels = 512 : i32, input_height = 7 : i32, input_width = 7 : i32, kernel_size = array<i32: 3, 3>, out_channels = 512 : i32, padding = array<i32: 1, 1, 1, 1>, stride = array<i32: 1, 1>}> : (tensor<1x1x49x512xf32, #ttnn_layout89>, tensor<512x512x3x3xf32, #ttnn_layout43>, !ttnn.device) -> tensor<1x1x49x512xf32, #ttnn_layout87> loc(#loc437)
        "ttnn.deallocate"(%626) <{force = false}> : (tensor<1x1x49x512xf32, #ttnn_layout89>) -> () loc(#loc437)
        "ttnn.deallocate"(%arg262) <{force = false}> : (tensor<512x512x3x3xf32, #ttnn_layout43>) -> () loc(#loc437)
        %628 = "ttnn.reshape"(%627) <{shape = [1 : i32, 7 : i32, 7 : i32, 512 : i32]}> : (tensor<1x1x49x512xf32, #ttnn_layout87>) -> tensor<1x7x7x512xf32, #ttnn_layout88> loc(#loc544)
        "ttnn.deallocate"(%627) <{force = false}> : (tensor<1x1x49x512xf32, #ttnn_layout87>) -> () loc(#loc544)
        %629 = "ttnn.permute"(%628) <{permutation = array<i64: 0, 3, 1, 2>}> : (tensor<1x7x7x512xf32, #ttnn_layout88>) -> tensor<1x512x7x7xf32, #ttnn_layout13> loc(#loc437)
        "ttnn.deallocate"(%628) <{force = false}> : (tensor<1x7x7x512xf32, #ttnn_layout88>) -> () loc(#loc437)
        %630 = "ttnn.batch_norm_inference"(%629, %56, %201, %133, %95) <{compute_config = #ttnn.device_compute_kernel_config<math_fidelity = hifi4, fp32_dest_acc_en = true>, epsilon = 9.99999974E-6 : f32, operandSegmentSizes = array<i32: 1, 1, 1, 1, 1>}> : (tensor<1x512x7x7xf32, #ttnn_layout13>, tensor<1x512x1x1xf32, #ttnn_layout13>, tensor<1x512x1x1xf32, #ttnn_layout13>, tensor<1x512x1x1xf32, #ttnn_layout13>, tensor<1x512x1x1xf32, #ttnn_layout13>) -> tensor<1x512x7x7xf32, #ttnn_layout13> loc(#loc40)
        "ttnn.deallocate"(%629) <{force = false}> : (tensor<1x512x7x7xf32, #ttnn_layout13>) -> () loc(#loc40)
        "ttnn.deallocate"(%201) <{force = false}> : (tensor<1x512x1x1xf32, #ttnn_layout13>) -> () loc(#loc40)
        "ttnn.deallocate"(%133) <{force = false}> : (tensor<1x512x1x1xf32, #ttnn_layout13>) -> () loc(#loc40)
        "ttnn.deallocate"(%95) <{force = false}> : (tensor<1x512x1x1xf32, #ttnn_layout13>) -> () loc(#loc40)
        "ttnn.deallocate"(%56) <{force = false}> : (tensor<1x512x1x1xf32, #ttnn_layout13>) -> () loc(#loc40)
        %631 = "ttnn.relu"(%630) : (tensor<1x512x7x7xf32, #ttnn_layout13>) -> tensor<1x512x7x7xf32, #ttnn_layout13> loc(#loc438)
        "ttnn.deallocate"(%630) <{force = false}> : (tensor<1x512x7x7xf32, #ttnn_layout13>) -> () loc(#loc438)
        %632 = "ttnn.permute"(%631) <{permutation = array<i64: 0, 2, 3, 1>}> : (tensor<1x512x7x7xf32, #ttnn_layout13>) -> tensor<1x7x7x512xf32, #ttnn_layout88> loc(#loc438)
        "ttnn.deallocate"(%631) <{force = false}> : (tensor<1x512x7x7xf32, #ttnn_layout13>) -> () loc(#loc438)
        %633 = "ttnn.reshape"(%632) <{shape = [1 : i32, 1 : i32, 49 : i32, 512 : i32]}> : (tensor<1x7x7x512xf32, #ttnn_layout88>) -> tensor<1x1x49x512xf32, #ttnn_layout87> loc(#loc438)
        "ttnn.deallocate"(%632) <{force = false}> : (tensor<1x7x7x512xf32, #ttnn_layout88>) -> () loc(#loc438)
        %634 = "ttnn.to_layout"(%633) <{layout = #ttnn.layout<row_major>}> : (tensor<1x1x49x512xf32, #ttnn_layout87>) -> tensor<1x1x49x512xf32, #ttnn_layout89> loc(#loc545)
        "ttnn.deallocate"(%633) <{force = false}> : (tensor<1x1x49x512xf32, #ttnn_layout87>) -> () loc(#loc545)
        %635 = "ttnn.conv2d"(%634, %arg257, %212) <{batch_size = 1 : i32, compute_config = #ttnn.device_compute_kernel_config<math_fidelity = hifi4, fp32_dest_acc_en = true>, conv2d_config = #ttnn.conv2d_config<enable_kernel_stride_folding = false, config_tensors_in_dram = true>, dilation = array<i32: 1, 1>, groups = 1 : i32, in_channels = 512 : i32, input_height = 7 : i32, input_width = 7 : i32, kernel_size = array<i32: 1, 1>, out_channels = 2048 : i32, padding = array<i32: 0, 0, 0, 0>, stride = array<i32: 1, 1>}> : (tensor<1x1x49x512xf32, #ttnn_layout89>, tensor<2048x512x1x1xf32, #ttnn_layout42>, !ttnn.device) -> tensor<1x1x49x2048xf32, #ttnn_layout90> loc(#loc439)
        "ttnn.deallocate"(%634) <{force = false}> : (tensor<1x1x49x512xf32, #ttnn_layout89>) -> () loc(#loc439)
        "ttnn.deallocate"(%arg257) <{force = false}> : (tensor<2048x512x1x1xf32, #ttnn_layout42>) -> () loc(#loc439)
        %636 = "ttnn.reshape"(%635) <{shape = [1 : i32, 7 : i32, 7 : i32, 2048 : i32]}> : (tensor<1x1x49x2048xf32, #ttnn_layout90>) -> tensor<1x7x7x2048xf32, #ttnn_layout91> loc(#loc546)
        "ttnn.deallocate"(%635) <{force = false}> : (tensor<1x1x49x2048xf32, #ttnn_layout90>) -> () loc(#loc546)
        %637 = "ttnn.permute"(%636) <{permutation = array<i64: 0, 3, 1, 2>}> : (tensor<1x7x7x2048xf32, #ttnn_layout91>) -> tensor<1x2048x7x7xf32, #ttnn_layout21> loc(#loc439)
        "ttnn.deallocate"(%636) <{force = false}> : (tensor<1x7x7x2048xf32, #ttnn_layout91>) -> () loc(#loc439)
        %638 = "ttnn.batch_norm_inference"(%637, %14, %69, %81, %118) <{compute_config = #ttnn.device_compute_kernel_config<math_fidelity = hifi4, fp32_dest_acc_en = true>, epsilon = 9.99999974E-6 : f32, operandSegmentSizes = array<i32: 1, 1, 1, 1, 1>}> : (tensor<1x2048x7x7xf32, #ttnn_layout21>, tensor<1x2048x1x1xf32, #ttnn_layout21>, tensor<1x2048x1x1xf32, #ttnn_layout21>, tensor<1x2048x1x1xf32, #ttnn_layout21>, tensor<1x2048x1x1xf32, #ttnn_layout21>) -> tensor<1x2048x7x7xf32, #ttnn_layout21> loc(#loc15)
        "ttnn.deallocate"(%637) <{force = false}> : (tensor<1x2048x7x7xf32, #ttnn_layout21>) -> () loc(#loc15)
        "ttnn.deallocate"(%118) <{force = false}> : (tensor<1x2048x1x1xf32, #ttnn_layout21>) -> () loc(#loc15)
        "ttnn.deallocate"(%81) <{force = false}> : (tensor<1x2048x1x1xf32, #ttnn_layout21>) -> () loc(#loc15)
        "ttnn.deallocate"(%69) <{force = false}> : (tensor<1x2048x1x1xf32, #ttnn_layout21>) -> () loc(#loc15)
        "ttnn.deallocate"(%14) <{force = false}> : (tensor<1x2048x1x1xf32, #ttnn_layout21>) -> () loc(#loc15)
        %639 = "ttnn.add"(%638, %615) : (tensor<1x2048x7x7xf32, #ttnn_layout21>, tensor<1x2048x7x7xf32, #ttnn_layout21>) -> tensor<1x2048x7x7xf32, #ttnn_layout21> loc(#loc440)
        "ttnn.deallocate"(%638) <{force = false}> : (tensor<1x2048x7x7xf32, #ttnn_layout21>) -> () loc(#loc440)
        "ttnn.deallocate"(%615) <{force = false}> : (tensor<1x2048x7x7xf32, #ttnn_layout21>) -> () loc(#loc440)
        %640 = "ttnn.relu"(%639) : (tensor<1x2048x7x7xf32, #ttnn_layout21>) -> tensor<1x2048x7x7xf32, #ttnn_layout21> loc(#loc441)
        "ttnn.deallocate"(%639) <{force = false}> : (tensor<1x2048x7x7xf32, #ttnn_layout21>) -> () loc(#loc441)
        %641 = "ttnn.mean"(%640) <{compute_config = #ttnn.device_compute_kernel_config<math_fidelity = hifi4, fp32_dest_acc_en = true>, dim_arg = [2 : i32, 3 : i32], keep_dim = false}> : (tensor<1x2048x7x7xf32, #ttnn_layout21>) -> tensor<1x2048xf32, #ttnn_layout93> loc(#loc547)
        "ttnn.deallocate"(%640) <{force = false}> : (tensor<1x2048x7x7xf32, #ttnn_layout21>) -> () loc(#loc547)
        %642 = "ttnn.linear"(%641, %arg1, %arg0) <{compute_config = #ttnn.device_compute_kernel_config<math_fidelity = hifi4, fp32_dest_acc_en = true>, transpose_a = false, transpose_b = true}> : (tensor<1x2048xf32, #ttnn_layout93>, tensor<1000x2048xf32, #ttnn_layout24>, tensor<1000xf32, #ttnn_layout19>) -> tensor<1x1000xf32, #ttnn_layout46> loc(#loc443)
        "ttnn.deallocate"(%641) <{force = false}> : (tensor<1x2048xf32, #ttnn_layout93>) -> () loc(#loc443)
        "ttnn.deallocate"(%arg1) <{force = false}> : (tensor<1000x2048xf32, #ttnn_layout24>) -> () loc(#loc443)
        "ttnn.deallocate"(%arg0) <{force = false}> : (tensor<1000xf32, #ttnn_layout19>) -> () loc(#loc443)
        return %642 : tensor<1x1000xf32, #ttnn_layout46> loc(#loc)
      } loc(#loc)
    } loc(#loc)
  } loc(#loc)
} loc(#loc)
#loc1 = loc("batch-norm-inference.124")
#loc2 = loc("batch-norm-inference.1142")
#loc3 = loc("batch-norm-inference.449")
#loc4 = loc("batch-norm-inference.623")
#loc5 = loc("batch-norm-inference.1484")
#loc6 = loc("batch-norm-inference.725")
#loc7 = loc("batch-norm-inference.1310")
#loc8 = loc("batch-norm-inference.893")
#loc9 = loc("batch-norm-inference.542")
#loc10 = loc("batch-norm-inference.707")
#loc11 = loc("batch-norm-inference.875")
#loc12 = loc("batch-norm-inference.1217")
#loc13 = loc("batch-norm-inference.905")
#loc14 = loc("batch-norm-inference.1049")
#loc15 = loc("batch-norm-inference.1661")
#loc16 = loc("batch-norm-inference.1415")
#loc17 = loc("batch-norm-inference.800")
#loc18 = loc("batch-norm-inference.374")
#loc19 = loc("batch-norm-inference.1133")
#loc20 = loc("batch-norm-inference.1403")
#loc21 = loc("batch-norm-inference.1058")
#loc22 = loc("batch-norm-inference.305")
#loc23 = loc("batch-norm-inference.1385")
#loc24 = loc("batch-norm-inference.809")
#loc25 = loc("batch-norm-inference.467")
#loc26 = loc("batch-norm-inference.1319")
#loc27 = loc("batch-norm-inference.551")
#loc28 = loc("batch-norm-inference.1235")
#loc29 = loc("batch-norm-inference.632")
#loc30 = loc("batch-norm-inference.641")
#loc31 = loc("batch-norm-inference.458")
#loc32 = loc("batch-norm-inference.1475")
#loc33 = loc("batch-norm-inference.533")
#loc34 = loc("batch-norm-inference.791")
#loc35 = loc("batch-norm-inference.716")
#loc36 = loc("batch-norm-inference.1394")
#loc37 = loc("batch-norm-inference.1226")
#loc38 = loc("batch-norm-inference.1151")
#loc39 = loc("batch-norm-inference.1559")
#loc40 = loc("batch-norm-inference.1652")
#loc41 = loc("batch-norm-inference.884")
#loc42 = loc("batch-norm-inference.383")
#loc43 = loc("batch-norm-inference.563")
#loc44 = loc("batch-norm-inference.974")
#loc45 = loc("batch-norm-inference.1493")
#loc46 = loc("batch-norm-inference.1301")
#loc47 = loc("batch-norm-inference.1577")
#loc48 = loc("batch-norm-inference.965")
#loc49 = loc("batch-norm-inference.1643")
#loc50 = loc("batch-norm-inference.983")
#loc51 = loc("batch-norm-inference.365")
#loc52 = loc("batch-norm-inference.1067")
#loc53 = loc("batch-norm-inference.1568")
#loc322 = loc("convolution.123_in_0_layout")
#loc323 = loc("convolution.123")
#loc324 = loc("maximum.131")
#loc325 = loc("reduce-window.143")
#loc326 = loc("convolution.364")
#loc327 = loc("maximum.372")
#loc328 = loc("convolution.373")
#loc329 = loc("maximum.381")
#loc330 = loc("convolution.382")
#loc331 = loc("convolution.304")
#loc332 = loc("add.390")
#loc333 = loc("maximum.393")
#loc334 = loc("convolution.448")
#loc335 = loc("maximum.456")
#loc336 = loc("convolution.457")
#loc337 = loc("maximum.465")
#loc338 = loc("convolution.466")
#loc339 = loc("add.474")
#loc340 = loc("maximum.477")
#loc341 = loc("convolution.532")
#loc342 = loc("maximum.540")
#loc343 = loc("convolution.541")
#loc344 = loc("maximum.549")
#loc345 = loc("convolution.550")
#loc346 = loc("add.558")
#loc347 = loc("maximum.561")
#loc348 = loc("convolution.622")
#loc349 = loc("maximum.630")
#loc350 = loc("convolution.631")
#loc351 = loc("maximum.639")
#loc352 = loc("convolution.640")
#loc353 = loc("convolution.562")
#loc354 = loc("add.648")
#loc355 = loc("maximum.651")
#loc356 = loc("convolution.706")
#loc357 = loc("maximum.714")
#loc358 = loc("convolution.715")
#loc359 = loc("maximum.723")
#loc360 = loc("convolution.724")
#loc361 = loc("add.732")
#loc362 = loc("maximum.735")
#loc363 = loc("convolution.790")
#loc364 = loc("maximum.798")
#loc365 = loc("convolution.799")
#loc366 = loc("maximum.807")
#loc367 = loc("convolution.808")
#loc368 = loc("add.816")
#loc369 = loc("maximum.819")
#loc370 = loc("convolution.874")
#loc371 = loc("maximum.882")
#loc372 = loc("convolution.883")
#loc373 = loc("maximum.891")
#loc374 = loc("convolution.892")
#loc375 = loc("add.900")
#loc376 = loc("maximum.903")
#loc377 = loc("convolution.964")
#loc378 = loc("maximum.972")
#loc379 = loc("convolution.973")
#loc380 = loc("maximum.981")
#loc381 = loc("convolution.982")
#loc382 = loc("convolution.904")
#loc383 = loc("add.990")
#loc384 = loc("maximum.993")
#loc385 = loc("convolution.1048")
#loc386 = loc("maximum.1056")
#loc387 = loc("convolution.1057")
#loc388 = loc("maximum.1065")
#loc389 = loc("convolution.1066")
#loc390 = loc("add.1074")
#loc391 = loc("maximum.1077")
#loc392 = loc("convolution.1132")
#loc393 = loc("maximum.1140")
#loc394 = loc("convolution.1141")
#loc395 = loc("maximum.1149")
#loc396 = loc("convolution.1150")
#loc397 = loc("add.1158")
#loc398 = loc("maximum.1161")
#loc399 = loc("convolution.1216")
#loc400 = loc("maximum.1224")
#loc401 = loc("convolution.1225")
#loc402 = loc("maximum.1233")
#loc403 = loc("convolution.1234")
#loc404 = loc("add.1242")
#loc405 = loc("maximum.1245")
#loc406 = loc("convolution.1300")
#loc407 = loc("maximum.1308")
#loc408 = loc("convolution.1309")
#loc409 = loc("maximum.1317")
#loc410 = loc("convolution.1318")
#loc411 = loc("add.1326")
#loc412 = loc("maximum.1329")
#loc413 = loc("convolution.1384")
#loc414 = loc("maximum.1392")
#loc415 = loc("convolution.1393")
#loc416 = loc("maximum.1401")
#loc417 = loc("convolution.1402")
#loc418 = loc("add.1410")
#loc419 = loc("maximum.1413")
#loc420 = loc("convolution.1474")
#loc421 = loc("maximum.1482")
#loc422 = loc("convolution.1483")
#loc423 = loc("maximum.1491")
#loc424 = loc("convolution.1492")
#loc425 = loc("convolution.1414")
#loc426 = loc("add.1500")
#loc427 = loc("maximum.1503")
#loc428 = loc("convolution.1558")
#loc429 = loc("maximum.1566")
#loc430 = loc("convolution.1567")
#loc431 = loc("maximum.1575")
#loc432 = loc("convolution.1576")
#loc433 = loc("add.1584")
#loc434 = loc("maximum.1587")
#loc435 = loc("convolution.1642")
#loc436 = loc("maximum.1650")
#loc437 = loc("convolution.1651")
#loc438 = loc("maximum.1659")
#loc439 = loc("convolution.1660")
#loc440 = loc("add.1668")
#loc441 = loc("maximum.1671")
#loc442 = loc("reduce.1678")
#loc443 = loc("add.1696")
#loc444 = loc("convolution.123_reshape"(#loc323))
#loc445 = loc("convolution.123_workaround"(#loc323))
#loc446 = loc("reduce-window.143_workaround"(#loc325))
#loc447 = loc("convolution.364_workaround"(#loc326))
#loc448 = loc("convolution.364_reshape"(#loc326))
#loc449 = loc("convolution.373_workaround"(#loc328))
#loc450 = loc("convolution.373_reshape"(#loc328))
#loc451 = loc("convolution.382_workaround"(#loc330))
#loc452 = loc("convolution.382_reshape"(#loc330))
#loc453 = loc("convolution.304_reshape"(#loc331))
#loc454 = loc("convolution.448_workaround"(#loc334))
#loc455 = loc("convolution.448_reshape"(#loc334))
#loc456 = loc("convolution.457_workaround"(#loc336))
#loc457 = loc("convolution.457_reshape"(#loc336))
#loc458 = loc("convolution.466_workaround"(#loc338))
#loc459 = loc("convolution.466_reshape"(#loc338))
#loc460 = loc("convolution.532_workaround"(#loc341))
#loc461 = loc("convolution.532_reshape"(#loc341))
#loc462 = loc("convolution.541_workaround"(#loc343))
#loc463 = loc("convolution.541_reshape"(#loc343))
#loc464 = loc("convolution.550_workaround"(#loc345))
#loc465 = loc("convolution.550_reshape"(#loc345))
#loc466 = loc("convolution.622_workaround"(#loc348))
#loc467 = loc("convolution.622_reshape"(#loc348))
#loc468 = loc("convolution.631_workaround"(#loc350))
#loc469 = loc("convolution.631_reshape"(#loc350))
#loc470 = loc("convolution.640_workaround"(#loc352))
#loc471 = loc("convolution.640_reshape"(#loc352))
#loc472 = loc("convolution.562_reshape"(#loc353))
#loc473 = loc("convolution.706_workaround"(#loc356))
#loc474 = loc("convolution.706_reshape"(#loc356))
#loc475 = loc("convolution.715_workaround"(#loc358))
#loc476 = loc("convolution.715_reshape"(#loc358))
#loc477 = loc("convolution.724_workaround"(#loc360))
#loc478 = loc("convolution.724_reshape"(#loc360))
#loc479 = loc("convolution.790_workaround"(#loc363))
#loc480 = loc("convolution.790_reshape"(#loc363))
#loc481 = loc("convolution.799_workaround"(#loc365))
#loc482 = loc("convolution.799_reshape"(#loc365))
#loc483 = loc("convolution.808_workaround"(#loc367))
#loc484 = loc("convolution.808_reshape"(#loc367))
#loc485 = loc("convolution.874_workaround"(#loc370))
#loc486 = loc("convolution.874_reshape"(#loc370))
#loc487 = loc("convolution.883_workaround"(#loc372))
#loc488 = loc("convolution.883_reshape"(#loc372))
#loc489 = loc("convolution.892_workaround"(#loc374))
#loc490 = loc("convolution.892_reshape"(#loc374))
#loc491 = loc("convolution.964_workaround"(#loc377))
#loc492 = loc("convolution.964_reshape"(#loc377))
#loc493 = loc("convolution.973_workaround"(#loc379))
#loc494 = loc("convolution.973_reshape"(#loc379))
#loc495 = loc("convolution.982_workaround"(#loc381))
#loc496 = loc("convolution.982_reshape"(#loc381))
#loc497 = loc("convolution.904_reshape"(#loc382))
#loc498 = loc("convolution.1048_workaround"(#loc385))
#loc499 = loc("convolution.1048_reshape"(#loc385))
#loc500 = loc("convolution.1057_workaround"(#loc387))
#loc501 = loc("convolution.1057_reshape"(#loc387))
#loc502 = loc("convolution.1066_workaround"(#loc389))
#loc503 = loc("convolution.1066_reshape"(#loc389))
#loc504 = loc("convolution.1132_workaround"(#loc392))
#loc505 = loc("convolution.1132_reshape"(#loc392))
#loc506 = loc("convolution.1141_workaround"(#loc394))
#loc507 = loc("convolution.1141_reshape"(#loc394))
#loc508 = loc("convolution.1150_workaround"(#loc396))
#loc509 = loc("convolution.1150_reshape"(#loc396))
#loc510 = loc("convolution.1216_workaround"(#loc399))
#loc511 = loc("convolution.1216_reshape"(#loc399))
#loc512 = loc("convolution.1225_workaround"(#loc401))
#loc513 = loc("convolution.1225_reshape"(#loc401))
#loc514 = loc("convolution.1234_workaround"(#loc403))
#loc515 = loc("convolution.1234_reshape"(#loc403))
#loc516 = loc("convolution.1300_workaround"(#loc406))
#loc517 = loc("convolution.1300_reshape"(#loc406))
#loc518 = loc("convolution.1309_workaround"(#loc408))
#loc519 = loc("convolution.1309_reshape"(#loc408))
#loc520 = loc("convolution.1318_workaround"(#loc410))
#loc521 = loc("convolution.1318_reshape"(#loc410))
#loc522 = loc("convolution.1384_workaround"(#loc413))
#loc523 = loc("convolution.1384_reshape"(#loc413))
#loc524 = loc("convolution.1393_workaround"(#loc415))
#loc525 = loc("convolution.1393_reshape"(#loc415))
#loc526 = loc("convolution.1402_workaround"(#loc417))
#loc527 = loc("convolution.1402_reshape"(#loc417))
#loc528 = loc("convolution.1474_workaround"(#loc420))
#loc529 = loc("convolution.1474_reshape"(#loc420))
#loc530 = loc("convolution.1483_workaround"(#loc422))
#loc531 = loc("convolution.1483_reshape"(#loc422))
#loc532 = loc("convolution.1492_workaround"(#loc424))
#loc533 = loc("convolution.1492_reshape"(#loc424))
#loc534 = loc("convolution.1414_reshape"(#loc425))
#loc535 = loc("convolution.1558_reshape"(#loc428))
#loc536 = loc("convolution.1558_workaround"(#loc428))
#loc537 = loc("convolution.1567_workaround"(#loc430))
#loc538 = loc("convolution.1567_reshape"(#loc430))
#loc539 = loc("convolution.1576_workaround"(#loc432))
#loc540 = loc("convolution.1576_reshape"(#loc432))
#loc541 = loc("convolution.1642_reshape"(#loc435))
#loc542 = loc("convolution.1642_workaround"(#loc435))
#loc543 = loc("convolution.1651_workaround"(#loc437))
#loc544 = loc("convolution.1651_reshape"(#loc437))
#loc545 = loc("convolution.1660_workaround"(#loc439))
#loc546 = loc("convolution.1660_reshape"(#loc439))
#loc547 = loc("reduce.1678_mean"(#loc442))
