#loc1 = loc("p0.3")
#loc2 = loc("p1.10")
#loc3 = loc("p2.18")
#loc4 = loc("p3.22")
#loc5 = loc("p4.26")
#loc6 = loc("p5.30")
#loc7 = loc("p6.34")
#loc8 = loc("p7.42")
#loc9 = loc("p8.46")
#loc10 = loc("p9.50")
#loc11 = loc("p10.54")
#loc12 = loc("p11.58")
#loc13 = loc("p12.64")
#loc14 = loc("p13.68")
#loc15 = loc("p14.72")
#loc16 = loc("p15.76")
#loc17 = loc("p16.80")
#loc18 = loc("p17.85")
#loc19 = loc("p18.89")
#loc20 = loc("p19.93")
#loc21 = loc("p20.97")
#loc22 = loc("p21.101")
#loc23 = loc("p22.103")
#loc24 = loc("p23.107")
#loc25 = loc("p24.111")
#loc26 = loc("p25.115")
#loc27 = loc("p26.119")
#loc28 = loc("p27.121")
#loc29 = loc("p28.310")
#loc30 = loc("p29.314")
#loc31 = loc("p30.318")
#loc32 = loc("p31.322")
#loc33 = loc("p32.326")
#loc34 = loc("p33.328")
#loc35 = loc("p34.332")
#loc36 = loc("p35.336")
#loc37 = loc("p36.340")
#loc38 = loc("p37.344")
#loc39 = loc("p38.346")
#loc40 = loc("p39.350")
#loc41 = loc("p40.354")
#loc42 = loc("p41.358")
#loc43 = loc("p42.362")
#loc44 = loc("p43.394")
#loc45 = loc("p44.398")
#loc46 = loc("p45.402")
#loc47 = loc("p46.406")
#loc48 = loc("p47.410")
#loc49 = loc("p48.412")
#loc50 = loc("p49.416")
#loc51 = loc("p50.420")
#loc52 = loc("p51.424")
#loc53 = loc("p52.428")
#loc54 = loc("p53.430")
#loc55 = loc("p54.434")
#loc56 = loc("p55.438")
#loc57 = loc("p56.442")
#loc58 = loc("p57.446")
#loc59 = loc("p58.478")
#loc60 = loc("p59.482")
#loc61 = loc("p60.486")
#loc62 = loc("p61.490")
#loc63 = loc("p62.494")
#loc64 = loc("p63.496")
#loc65 = loc("p64.500")
#loc66 = loc("p65.504")
#loc67 = loc("p66.508")
#loc68 = loc("p67.512")
#loc69 = loc("p68.514")
#loc70 = loc("p69.518")
#loc71 = loc("p70.522")
#loc72 = loc("p71.526")
#loc73 = loc("p72.530")
#loc74 = loc("p73.568")
#loc75 = loc("p74.572")
#loc76 = loc("p75.576")
#loc77 = loc("p76.580")
#loc78 = loc("p77.584")
#loc79 = loc("p78.586")
#loc80 = loc("p79.590")
#loc81 = loc("p80.594")
#loc82 = loc("p81.598")
#loc83 = loc("p82.602")
#loc84 = loc("p83.604")
#loc85 = loc("p84.608")
#loc86 = loc("p85.612")
#loc87 = loc("p86.616")
#loc88 = loc("p87.620")
#loc89 = loc("p88.652")
#loc90 = loc("p89.656")
#loc91 = loc("p90.660")
#loc92 = loc("p91.664")
#loc93 = loc("p92.668")
#loc94 = loc("p93.670")
#loc95 = loc("p94.674")
#loc96 = loc("p95.678")
#loc97 = loc("p96.682")
#loc98 = loc("p97.686")
#loc99 = loc("p98.688")
#loc100 = loc("p99.692")
#loc101 = loc("p100.696")
#loc102 = loc("p101.700")
#loc103 = loc("p102.704")
#loc104 = loc("p103.736")
#loc105 = loc("p104.740")
#loc106 = loc("p105.744")
#loc107 = loc("p106.748")
#loc108 = loc("p107.752")
#loc109 = loc("p108.754")
#loc110 = loc("p109.758")
#loc111 = loc("p110.762")
#loc112 = loc("p111.766")
#loc113 = loc("p112.770")
#loc114 = loc("p113.772")
#loc115 = loc("p114.776")
#loc116 = loc("p115.780")
#loc117 = loc("p116.784")
#loc118 = loc("p117.788")
#loc119 = loc("p118.820")
#loc120 = loc("p119.824")
#loc121 = loc("p120.828")
#loc122 = loc("p121.832")
#loc123 = loc("p122.836")
#loc124 = loc("p123.838")
#loc125 = loc("p124.842")
#loc126 = loc("p125.846")
#loc127 = loc("p126.850")
#loc128 = loc("p127.854")
#loc129 = loc("p128.856")
#loc130 = loc("p129.860")
#loc131 = loc("p130.864")
#loc132 = loc("p131.868")
#loc133 = loc("p132.872")
#loc134 = loc("p133.910")
#loc135 = loc("p134.914")
#loc136 = loc("p135.918")
#loc137 = loc("p136.922")
#loc138 = loc("p137.926")
#loc139 = loc("p138.928")
#loc140 = loc("p139.932")
#loc141 = loc("p140.936")
#loc142 = loc("p141.940")
#loc143 = loc("p142.944")
#loc144 = loc("p143.946")
#loc145 = loc("p144.950")
#loc146 = loc("p145.954")
#loc147 = loc("p146.958")
#loc148 = loc("p147.962")
#loc149 = loc("p148.994")
#loc150 = loc("p149.998")
#loc151 = loc("p150.1002")
#loc152 = loc("p151.1006")
#loc153 = loc("p152.1010")
#loc154 = loc("p153.1012")
#loc155 = loc("p154.1016")
#loc156 = loc("p155.1020")
#loc157 = loc("p156.1024")
#loc158 = loc("p157.1028")
#loc159 = loc("p158.1030")
#loc160 = loc("p159.1034")
#loc161 = loc("p160.1038")
#loc162 = loc("p161.1042")
#loc163 = loc("p162.1046")
#loc164 = loc("p163.1078")
#loc165 = loc("p164.1082")
#loc166 = loc("p165.1086")
#loc167 = loc("p166.1090")
#loc168 = loc("p167.1094")
#loc169 = loc("p168.1096")
#loc170 = loc("p169.1100")
#loc171 = loc("p170.1104")
#loc172 = loc("p171.1108")
#loc173 = loc("p172.1112")
#loc174 = loc("p173.1114")
#loc175 = loc("p174.1118")
#loc176 = loc("p175.1122")
#loc177 = loc("p176.1126")
#loc178 = loc("p177.1130")
#loc179 = loc("p178.1162")
#loc180 = loc("p179.1166")
#loc181 = loc("p180.1170")
#loc182 = loc("p181.1174")
#loc183 = loc("p182.1178")
#loc184 = loc("p183.1180")
#loc185 = loc("p184.1184")
#loc186 = loc("p185.1188")
#loc187 = loc("p186.1192")
#loc188 = loc("p187.1196")
#loc189 = loc("p188.1198")
#loc190 = loc("p189.1202")
#loc191 = loc("p190.1206")
#loc192 = loc("p191.1210")
#loc193 = loc("p192.1214")
#loc194 = loc("p193.1246")
#loc195 = loc("p194.1250")
#loc196 = loc("p195.1254")
#loc197 = loc("p196.1258")
#loc198 = loc("p197.1262")
#loc199 = loc("p198.1264")
#loc200 = loc("p199.1268")
#loc201 = loc("p200.1272")
#loc202 = loc("p201.1276")
#loc203 = loc("p202.1280")
#loc204 = loc("p203.1282")
#loc205 = loc("p204.1286")
#loc206 = loc("p205.1290")
#loc207 = loc("p206.1294")
#loc208 = loc("p207.1298")
#loc209 = loc("p208.1330")
#loc210 = loc("p209.1334")
#loc211 = loc("p210.1338")
#loc212 = loc("p211.1342")
#loc213 = loc("p212.1346")
#loc214 = loc("p213.1348")
#loc215 = loc("p214.1352")
#loc216 = loc("p215.1356")
#loc217 = loc("p216.1360")
#loc218 = loc("p217.1364")
#loc219 = loc("p218.1366")
#loc220 = loc("p219.1370")
#loc221 = loc("p220.1374")
#loc222 = loc("p221.1378")
#loc223 = loc("p222.1382")
#loc224 = loc("p223.1420")
#loc225 = loc("p224.1424")
#loc226 = loc("p225.1428")
#loc227 = loc("p226.1432")
#loc228 = loc("p227.1436")
#loc229 = loc("p228.1438")
#loc230 = loc("p229.1442")
#loc231 = loc("p230.1446")
#loc232 = loc("p231.1450")
#loc233 = loc("p232.1454")
#loc234 = loc("p233.1456")
#loc235 = loc("p234.1460")
#loc236 = loc("p235.1464")
#loc237 = loc("p236.1468")
#loc238 = loc("p237.1472")
#loc239 = loc("p238.1504")
#loc240 = loc("p239.1508")
#loc241 = loc("p240.1512")
#loc242 = loc("p241.1516")
#loc243 = loc("p242.1520")
#loc244 = loc("p243.1522")
#loc245 = loc("p244.1526")
#loc246 = loc("p245.1530")
#loc247 = loc("p246.1534")
#loc248 = loc("p247.1538")
#loc249 = loc("p248.1540")
#loc250 = loc("p249.1544")
#loc251 = loc("p250.1548")
#loc252 = loc("p251.1552")
#loc253 = loc("p252.1556")
#loc254 = loc("p253.1588")
#loc255 = loc("p254.1592")
#loc256 = loc("p255.1596")
#loc257 = loc("p256.1600")
#loc258 = loc("p257.1604")
#loc259 = loc("p258.1606")
#loc260 = loc("p259.1610")
#loc261 = loc("p260.1614")
#loc262 = loc("p261.1618")
#loc263 = loc("p262.1622")
#loc264 = loc("p263.1624")
#loc265 = loc("p264.1628")
#loc266 = loc("p265.1632")
#loc267 = loc("p266.1636")
#loc268 = loc("p267.1640")
module @SyncTensorsGraph.1698 attributes {mhlo.cross_program_prefetches = [], mhlo.input_output_alias = [], mhlo.is_dynamic = false, mhlo.use_auto_spmd_partitioning = false, ttcore.meshes = #ttcore.meshes<[<"mesh" = 1x1>]>} {
  ttcore.device_module {
    builtin.module @SyncTensorsGraph.1698 attributes {mhlo.cross_program_prefetches = [], mhlo.input_output_alias = [], mhlo.is_dynamic = false, mhlo.use_auto_spmd_partitioning = false, ttcore.meshes = #ttcore.meshes<[<"mesh" = 1x1>]>} {
      func.func @main(%arg0: tensor<1000xf32> {ttcore.argument_type = #ttcore.argument_type<parameter>, ttcore.local_shape = #ttcore<local_shape local_shape = tensor<1000xf32>>, ttcore.shard_status = #ttcore.shard_status<unsharded>, ttir.name = "classifier.1.bias"} loc("p0.3"), %arg1: tensor<1000x2048xf32> {ttcore.argument_type = #ttcore.argument_type<parameter>, ttcore.local_shape = #ttcore<local_shape local_shape = tensor<1000x2048xf32>>, ttcore.shard_status = #ttcore.shard_status<unsharded>, ttir.name = "classifier.1.weight"} loc("p1.10"), %arg2: tensor<2048xf32> {ttcore.argument_type = #ttcore.argument_type<constant>, ttcore.local_shape = #ttcore<local_shape local_shape = tensor<2048xf32>>, ttcore.shard_status = #ttcore.shard_status<unsharded>, ttir.name = "resnet.encoder.stages.3.layers.0.shortcut.normalization.running_var"} loc("p2.18"), %arg3: tensor<2048xf32> {ttcore.argument_type = #ttcore.argument_type<constant>, ttcore.local_shape = #ttcore<local_shape local_shape = tensor<2048xf32>>, ttcore.shard_status = #ttcore.shard_status<unsharded>, ttir.name = "resnet.encoder.stages.3.layers.0.shortcut.normalization.running_mean"} loc("p3.22"), %arg4: tensor<2048xf32> {ttcore.argument_type = #ttcore.argument_type<parameter>, ttcore.local_shape = #ttcore<local_shape local_shape = tensor<2048xf32>>, ttcore.shard_status = #ttcore.shard_status<unsharded>, ttir.name = "resnet.encoder.stages.3.layers.0.shortcut.normalization.bias"} loc("p4.26"), %arg5: tensor<2048xf32> {ttcore.argument_type = #ttcore.argument_type<parameter>, ttcore.local_shape = #ttcore<local_shape local_shape = tensor<2048xf32>>, ttcore.shard_status = #ttcore.shard_status<unsharded>, ttir.name = "resnet.encoder.stages.3.layers.0.shortcut.normalization.weight"} loc("p5.30"), %arg6: tensor<2048x1024x1x1xf32> {ttcore.argument_type = #ttcore.argument_type<parameter>, ttcore.local_shape = #ttcore<local_shape local_shape = tensor<2048x1024x1x1xf32>>, ttcore.shard_status = #ttcore.shard_status<unsharded>, ttir.name = "resnet.encoder.stages.3.layers.0.shortcut.convolution.weight"} loc("p6.34"), %arg7: tensor<1024xf32> {ttcore.argument_type = #ttcore.argument_type<constant>, ttcore.local_shape = #ttcore<local_shape local_shape = tensor<1024xf32>>, ttcore.shard_status = #ttcore.shard_status<unsharded>, ttir.name = "resnet.encoder.stages.2.layers.0.shortcut.normalization.running_var"} loc("p7.42"), %arg8: tensor<1024xf32> {ttcore.argument_type = #ttcore.argument_type<constant>, ttcore.local_shape = #ttcore<local_shape local_shape = tensor<1024xf32>>, ttcore.shard_status = #ttcore.shard_status<unsharded>, ttir.name = "resnet.encoder.stages.2.layers.0.shortcut.normalization.running_mean"} loc("p8.46"), %arg9: tensor<1024xf32> {ttcore.argument_type = #ttcore.argument_type<parameter>, ttcore.local_shape = #ttcore<local_shape local_shape = tensor<1024xf32>>, ttcore.shard_status = #ttcore.shard_status<unsharded>, ttir.name = "resnet.encoder.stages.2.layers.0.shortcut.normalization.bias"} loc("p9.50"), %arg10: tensor<1024xf32> {ttcore.argument_type = #ttcore.argument_type<parameter>, ttcore.local_shape = #ttcore<local_shape local_shape = tensor<1024xf32>>, ttcore.shard_status = #ttcore.shard_status<unsharded>, ttir.name = "resnet.encoder.stages.2.layers.0.shortcut.normalization.weight"} loc("p10.54"), %arg11: tensor<1024x512x1x1xf32> {ttcore.argument_type = #ttcore.argument_type<parameter>, ttcore.local_shape = #ttcore<local_shape local_shape = tensor<1024x512x1x1xf32>>, ttcore.shard_status = #ttcore.shard_status<unsharded>, ttir.name = "resnet.encoder.stages.2.layers.0.shortcut.convolution.weight"} loc("p11.58"), %arg12: tensor<512xf32> {ttcore.argument_type = #ttcore.argument_type<constant>, ttcore.local_shape = #ttcore<local_shape local_shape = tensor<512xf32>>, ttcore.shard_status = #ttcore.shard_status<unsharded>, ttir.name = "resnet.encoder.stages.1.layers.0.shortcut.normalization.running_var"} loc("p12.64"), %arg13: tensor<512xf32> {ttcore.argument_type = #ttcore.argument_type<constant>, ttcore.local_shape = #ttcore<local_shape local_shape = tensor<512xf32>>, ttcore.shard_status = #ttcore.shard_status<unsharded>, ttir.name = "resnet.encoder.stages.1.layers.0.shortcut.normalization.running_mean"} loc("p13.68"), %arg14: tensor<512xf32> {ttcore.argument_type = #ttcore.argument_type<parameter>, ttcore.local_shape = #ttcore<local_shape local_shape = tensor<512xf32>>, ttcore.shard_status = #ttcore.shard_status<unsharded>, ttir.name = "resnet.encoder.stages.1.layers.0.shortcut.normalization.bias"} loc("p14.72"), %arg15: tensor<512xf32> {ttcore.argument_type = #ttcore.argument_type<parameter>, ttcore.local_shape = #ttcore<local_shape local_shape = tensor<512xf32>>, ttcore.shard_status = #ttcore.shard_status<unsharded>, ttir.name = "resnet.encoder.stages.1.layers.0.shortcut.normalization.weight"} loc("p15.76"), %arg16: tensor<512x256x1x1xf32> {ttcore.argument_type = #ttcore.argument_type<parameter>, ttcore.local_shape = #ttcore<local_shape local_shape = tensor<512x256x1x1xf32>>, ttcore.shard_status = #ttcore.shard_status<unsharded>, ttir.name = "resnet.encoder.stages.1.layers.0.shortcut.convolution.weight"} loc("p16.80"), %arg17: tensor<256xf32> {ttcore.argument_type = #ttcore.argument_type<constant>, ttcore.local_shape = #ttcore<local_shape local_shape = tensor<256xf32>>, ttcore.shard_status = #ttcore.shard_status<unsharded>, ttir.name = "resnet.encoder.stages.0.layers.0.shortcut.normalization.running_var"} loc("p17.85"), %arg18: tensor<256xf32> {ttcore.argument_type = #ttcore.argument_type<constant>, ttcore.local_shape = #ttcore<local_shape local_shape = tensor<256xf32>>, ttcore.shard_status = #ttcore.shard_status<unsharded>, ttir.name = "resnet.encoder.stages.0.layers.0.shortcut.normalization.running_mean"} loc("p18.89"), %arg19: tensor<256xf32> {ttcore.argument_type = #ttcore.argument_type<parameter>, ttcore.local_shape = #ttcore<local_shape local_shape = tensor<256xf32>>, ttcore.shard_status = #ttcore.shard_status<unsharded>, ttir.name = "resnet.encoder.stages.0.layers.0.shortcut.normalization.bias"} loc("p19.93"), %arg20: tensor<256xf32> {ttcore.argument_type = #ttcore.argument_type<parameter>, ttcore.local_shape = #ttcore<local_shape local_shape = tensor<256xf32>>, ttcore.shard_status = #ttcore.shard_status<unsharded>, ttir.name = "resnet.encoder.stages.0.layers.0.shortcut.normalization.weight"} loc("p20.97"), %arg21: tensor<256x64x1x1xf32> {ttcore.argument_type = #ttcore.argument_type<parameter>, ttcore.local_shape = #ttcore<local_shape local_shape = tensor<256x64x1x1xf32>>, ttcore.shard_status = #ttcore.shard_status<unsharded>, ttir.name = "resnet.encoder.stages.0.layers.0.shortcut.convolution.weight"} loc("p21.101"), %arg22: tensor<64xf32> {ttcore.argument_type = #ttcore.argument_type<constant>, ttcore.local_shape = #ttcore<local_shape local_shape = tensor<64xf32>>, ttcore.shard_status = #ttcore.shard_status<unsharded>, ttir.name = "resnet.embedder.embedder.normalization.running_var"} loc("p22.103"), %arg23: tensor<64xf32> {ttcore.argument_type = #ttcore.argument_type<constant>, ttcore.local_shape = #ttcore<local_shape local_shape = tensor<64xf32>>, ttcore.shard_status = #ttcore.shard_status<unsharded>, ttir.name = "resnet.embedder.embedder.normalization.running_mean"} loc("p23.107"), %arg24: tensor<64xf32> {ttcore.argument_type = #ttcore.argument_type<parameter>, ttcore.local_shape = #ttcore<local_shape local_shape = tensor<64xf32>>, ttcore.shard_status = #ttcore.shard_status<unsharded>, ttir.name = "resnet.embedder.embedder.normalization.bias"} loc("p24.111"), %arg25: tensor<64xf32> {ttcore.argument_type = #ttcore.argument_type<parameter>, ttcore.local_shape = #ttcore<local_shape local_shape = tensor<64xf32>>, ttcore.shard_status = #ttcore.shard_status<unsharded>, ttir.name = "resnet.embedder.embedder.normalization.weight"} loc("p25.115"), %arg26: tensor<64x3x7x7xf32> {ttcore.argument_type = #ttcore.argument_type<parameter>, ttcore.local_shape = #ttcore<local_shape local_shape = tensor<64x3x7x7xf32>>, ttcore.shard_status = #ttcore.shard_status<unsharded>, ttir.name = "resnet.embedder.embedder.convolution.weight"} loc("p26.119"), %arg27: tensor<1x3x224x224xf32> {ttcore.argument_type = #ttcore.argument_type<input>, ttcore.local_shape = #ttcore<local_shape local_shape = tensor<1x3x224x224xf32>>, ttcore.shard_status = #ttcore.shard_status<unsharded>, ttir.name = "args_0"} loc("p27.121"), %arg28: tensor<256xf32> {ttcore.argument_type = #ttcore.argument_type<constant>, ttcore.local_shape = #ttcore<local_shape local_shape = tensor<256xf32>>, ttcore.shard_status = #ttcore.shard_status<unsharded>, ttir.name = "resnet.encoder.stages.0.layers.0.layer.2.normalization.running_var"} loc("p28.310"), %arg29: tensor<256xf32> {ttcore.argument_type = #ttcore.argument_type<constant>, ttcore.local_shape = #ttcore<local_shape local_shape = tensor<256xf32>>, ttcore.shard_status = #ttcore.shard_status<unsharded>, ttir.name = "resnet.encoder.stages.0.layers.0.layer.2.normalization.running_mean"} loc("p29.314"), %arg30: tensor<256xf32> {ttcore.argument_type = #ttcore.argument_type<parameter>, ttcore.local_shape = #ttcore<local_shape local_shape = tensor<256xf32>>, ttcore.shard_status = #ttcore.shard_status<unsharded>, ttir.name = "resnet.encoder.stages.0.layers.0.layer.2.normalization.bias"} loc("p30.318"), %arg31: tensor<256xf32> {ttcore.argument_type = #ttcore.argument_type<parameter>, ttcore.local_shape = #ttcore<local_shape local_shape = tensor<256xf32>>, ttcore.shard_status = #ttcore.shard_status<unsharded>, ttir.name = "resnet.encoder.stages.0.layers.0.layer.2.normalization.weight"} loc("p31.322"), %arg32: tensor<256x64x1x1xf32> {ttcore.argument_type = #ttcore.argument_type<parameter>, ttcore.local_shape = #ttcore<local_shape local_shape = tensor<256x64x1x1xf32>>, ttcore.shard_status = #ttcore.shard_status<unsharded>, ttir.name = "resnet.encoder.stages.0.layers.0.layer.2.convolution.weight"} loc("p32.326"), %arg33: tensor<64xf32> {ttcore.argument_type = #ttcore.argument_type<constant>, ttcore.local_shape = #ttcore<local_shape local_shape = tensor<64xf32>>, ttcore.shard_status = #ttcore.shard_status<unsharded>, ttir.name = "resnet.encoder.stages.0.layers.0.layer.1.normalization.running_var"} loc("p33.328"), %arg34: tensor<64xf32> {ttcore.argument_type = #ttcore.argument_type<constant>, ttcore.local_shape = #ttcore<local_shape local_shape = tensor<64xf32>>, ttcore.shard_status = #ttcore.shard_status<unsharded>, ttir.name = "resnet.encoder.stages.0.layers.0.layer.1.normalization.running_mean"} loc("p34.332"), %arg35: tensor<64xf32> {ttcore.argument_type = #ttcore.argument_type<parameter>, ttcore.local_shape = #ttcore<local_shape local_shape = tensor<64xf32>>, ttcore.shard_status = #ttcore.shard_status<unsharded>, ttir.name = "resnet.encoder.stages.0.layers.0.layer.1.normalization.bias"} loc("p35.336"), %arg36: tensor<64xf32> {ttcore.argument_type = #ttcore.argument_type<parameter>, ttcore.local_shape = #ttcore<local_shape local_shape = tensor<64xf32>>, ttcore.shard_status = #ttcore.shard_status<unsharded>, ttir.name = "resnet.encoder.stages.0.layers.0.layer.1.normalization.weight"} loc("p36.340"), %arg37: tensor<64x64x3x3xf32> {ttcore.argument_type = #ttcore.argument_type<parameter>, ttcore.local_shape = #ttcore<local_shape local_shape = tensor<64x64x3x3xf32>>, ttcore.shard_status = #ttcore.shard_status<unsharded>, ttir.name = "resnet.encoder.stages.0.layers.0.layer.1.convolution.weight"} loc("p37.344"), %arg38: tensor<64xf32> {ttcore.argument_type = #ttcore.argument_type<constant>, ttcore.local_shape = #ttcore<local_shape local_shape = tensor<64xf32>>, ttcore.shard_status = #ttcore.shard_status<unsharded>, ttir.name = "resnet.encoder.stages.0.layers.0.layer.0.normalization.running_var"} loc("p38.346"), %arg39: tensor<64xf32> {ttcore.argument_type = #ttcore.argument_type<constant>, ttcore.local_shape = #ttcore<local_shape local_shape = tensor<64xf32>>, ttcore.shard_status = #ttcore.shard_status<unsharded>, ttir.name = "resnet.encoder.stages.0.layers.0.layer.0.normalization.running_mean"} loc("p39.350"), %arg40: tensor<64xf32> {ttcore.argument_type = #ttcore.argument_type<parameter>, ttcore.local_shape = #ttcore<local_shape local_shape = tensor<64xf32>>, ttcore.shard_status = #ttcore.shard_status<unsharded>, ttir.name = "resnet.encoder.stages.0.layers.0.layer.0.normalization.bias"} loc("p40.354"), %arg41: tensor<64xf32> {ttcore.argument_type = #ttcore.argument_type<parameter>, ttcore.local_shape = #ttcore<local_shape local_shape = tensor<64xf32>>, ttcore.shard_status = #ttcore.shard_status<unsharded>, ttir.name = "resnet.encoder.stages.0.layers.0.layer.0.normalization.weight"} loc("p41.358"), %arg42: tensor<64x64x1x1xf32> {ttcore.argument_type = #ttcore.argument_type<parameter>, ttcore.local_shape = #ttcore<local_shape local_shape = tensor<64x64x1x1xf32>>, ttcore.shard_status = #ttcore.shard_status<unsharded>, ttir.name = "resnet.encoder.stages.0.layers.0.layer.0.convolution.weight"} loc("p42.362"), %arg43: tensor<256xf32> {ttcore.argument_type = #ttcore.argument_type<constant>, ttcore.local_shape = #ttcore<local_shape local_shape = tensor<256xf32>>, ttcore.shard_status = #ttcore.shard_status<unsharded>, ttir.name = "resnet.encoder.stages.0.layers.1.layer.2.normalization.running_var"} loc("p43.394"), %arg44: tensor<256xf32> {ttcore.argument_type = #ttcore.argument_type<constant>, ttcore.local_shape = #ttcore<local_shape local_shape = tensor<256xf32>>, ttcore.shard_status = #ttcore.shard_status<unsharded>, ttir.name = "resnet.encoder.stages.0.layers.1.layer.2.normalization.running_mean"} loc("p44.398"), %arg45: tensor<256xf32> {ttcore.argument_type = #ttcore.argument_type<parameter>, ttcore.local_shape = #ttcore<local_shape local_shape = tensor<256xf32>>, ttcore.shard_status = #ttcore.shard_status<unsharded>, ttir.name = "resnet.encoder.stages.0.layers.1.layer.2.normalization.bias"} loc("p45.402"), %arg46: tensor<256xf32> {ttcore.argument_type = #ttcore.argument_type<parameter>, ttcore.local_shape = #ttcore<local_shape local_shape = tensor<256xf32>>, ttcore.shard_status = #ttcore.shard_status<unsharded>, ttir.name = "resnet.encoder.stages.0.layers.1.layer.2.normalization.weight"} loc("p46.406"), %arg47: tensor<256x64x1x1xf32> {ttcore.argument_type = #ttcore.argument_type<parameter>, ttcore.local_shape = #ttcore<local_shape local_shape = tensor<256x64x1x1xf32>>, ttcore.shard_status = #ttcore.shard_status<unsharded>, ttir.name = "resnet.encoder.stages.0.layers.1.layer.2.convolution.weight"} loc("p47.410"), %arg48: tensor<64xf32> {ttcore.argument_type = #ttcore.argument_type<constant>, ttcore.local_shape = #ttcore<local_shape local_shape = tensor<64xf32>>, ttcore.shard_status = #ttcore.shard_status<unsharded>, ttir.name = "resnet.encoder.stages.0.layers.1.layer.1.normalization.running_var"} loc("p48.412"), %arg49: tensor<64xf32> {ttcore.argument_type = #ttcore.argument_type<constant>, ttcore.local_shape = #ttcore<local_shape local_shape = tensor<64xf32>>, ttcore.shard_status = #ttcore.shard_status<unsharded>, ttir.name = "resnet.encoder.stages.0.layers.1.layer.1.normalization.running_mean"} loc("p49.416"), %arg50: tensor<64xf32> {ttcore.argument_type = #ttcore.argument_type<parameter>, ttcore.local_shape = #ttcore<local_shape local_shape = tensor<64xf32>>, ttcore.shard_status = #ttcore.shard_status<unsharded>, ttir.name = "resnet.encoder.stages.0.layers.1.layer.1.normalization.bias"} loc("p50.420"), %arg51: tensor<64xf32> {ttcore.argument_type = #ttcore.argument_type<parameter>, ttcore.local_shape = #ttcore<local_shape local_shape = tensor<64xf32>>, ttcore.shard_status = #ttcore.shard_status<unsharded>, ttir.name = "resnet.encoder.stages.0.layers.1.layer.1.normalization.weight"} loc("p51.424"), %arg52: tensor<64x64x3x3xf32> {ttcore.argument_type = #ttcore.argument_type<parameter>, ttcore.local_shape = #ttcore<local_shape local_shape = tensor<64x64x3x3xf32>>, ttcore.shard_status = #ttcore.shard_status<unsharded>, ttir.name = "resnet.encoder.stages.0.layers.1.layer.1.convolution.weight"} loc("p52.428"), %arg53: tensor<64xf32> {ttcore.argument_type = #ttcore.argument_type<constant>, ttcore.local_shape = #ttcore<local_shape local_shape = tensor<64xf32>>, ttcore.shard_status = #ttcore.shard_status<unsharded>, ttir.name = "resnet.encoder.stages.0.layers.1.layer.0.normalization.running_var"} loc("p53.430"), %arg54: tensor<64xf32> {ttcore.argument_type = #ttcore.argument_type<constant>, ttcore.local_shape = #ttcore<local_shape local_shape = tensor<64xf32>>, ttcore.shard_status = #ttcore.shard_status<unsharded>, ttir.name = "resnet.encoder.stages.0.layers.1.layer.0.normalization.running_mean"} loc("p54.434"), %arg55: tensor<64xf32> {ttcore.argument_type = #ttcore.argument_type<parameter>, ttcore.local_shape = #ttcore<local_shape local_shape = tensor<64xf32>>, ttcore.shard_status = #ttcore.shard_status<unsharded>, ttir.name = "resnet.encoder.stages.0.layers.1.layer.0.normalization.bias"} loc("p55.438"), %arg56: tensor<64xf32> {ttcore.argument_type = #ttcore.argument_type<parameter>, ttcore.local_shape = #ttcore<local_shape local_shape = tensor<64xf32>>, ttcore.shard_status = #ttcore.shard_status<unsharded>, ttir.name = "resnet.encoder.stages.0.layers.1.layer.0.normalization.weight"} loc("p56.442"), %arg57: tensor<64x256x1x1xf32> {ttcore.argument_type = #ttcore.argument_type<parameter>, ttcore.local_shape = #ttcore<local_shape local_shape = tensor<64x256x1x1xf32>>, ttcore.shard_status = #ttcore.shard_status<unsharded>, ttir.name = "resnet.encoder.stages.0.layers.1.layer.0.convolution.weight"} loc("p57.446"), %arg58: tensor<256xf32> {ttcore.argument_type = #ttcore.argument_type<constant>, ttcore.local_shape = #ttcore<local_shape local_shape = tensor<256xf32>>, ttcore.shard_status = #ttcore.shard_status<unsharded>, ttir.name = "resnet.encoder.stages.0.layers.2.layer.2.normalization.running_var"} loc("p58.478"), %arg59: tensor<256xf32> {ttcore.argument_type = #ttcore.argument_type<constant>, ttcore.local_shape = #ttcore<local_shape local_shape = tensor<256xf32>>, ttcore.shard_status = #ttcore.shard_status<unsharded>, ttir.name = "resnet.encoder.stages.0.layers.2.layer.2.normalization.running_mean"} loc("p59.482"), %arg60: tensor<256xf32> {ttcore.argument_type = #ttcore.argument_type<parameter>, ttcore.local_shape = #ttcore<local_shape local_shape = tensor<256xf32>>, ttcore.shard_status = #ttcore.shard_status<unsharded>, ttir.name = "resnet.encoder.stages.0.layers.2.layer.2.normalization.bias"} loc("p60.486"), %arg61: tensor<256xf32> {ttcore.argument_type = #ttcore.argument_type<parameter>, ttcore.local_shape = #ttcore<local_shape local_shape = tensor<256xf32>>, ttcore.shard_status = #ttcore.shard_status<unsharded>, ttir.name = "resnet.encoder.stages.0.layers.2.layer.2.normalization.weight"} loc("p61.490"), %arg62: tensor<256x64x1x1xf32> {ttcore.argument_type = #ttcore.argument_type<parameter>, ttcore.local_shape = #ttcore<local_shape local_shape = tensor<256x64x1x1xf32>>, ttcore.shard_status = #ttcore.shard_status<unsharded>, ttir.name = "resnet.encoder.stages.0.layers.2.layer.2.convolution.weight"} loc("p62.494"), %arg63: tensor<64xf32> {ttcore.argument_type = #ttcore.argument_type<constant>, ttcore.local_shape = #ttcore<local_shape local_shape = tensor<64xf32>>, ttcore.shard_status = #ttcore.shard_status<unsharded>, ttir.name = "resnet.encoder.stages.0.layers.2.layer.1.normalization.running_var"} loc("p63.496"), %arg64: tensor<64xf32> {ttcore.argument_type = #ttcore.argument_type<constant>, ttcore.local_shape = #ttcore<local_shape local_shape = tensor<64xf32>>, ttcore.shard_status = #ttcore.shard_status<unsharded>, ttir.name = "resnet.encoder.stages.0.layers.2.layer.1.normalization.running_mean"} loc("p64.500"), %arg65: tensor<64xf32> {ttcore.argument_type = #ttcore.argument_type<parameter>, ttcore.local_shape = #ttcore<local_shape local_shape = tensor<64xf32>>, ttcore.shard_status = #ttcore.shard_status<unsharded>, ttir.name = "resnet.encoder.stages.0.layers.2.layer.1.normalization.bias"} loc("p65.504"), %arg66: tensor<64xf32> {ttcore.argument_type = #ttcore.argument_type<parameter>, ttcore.local_shape = #ttcore<local_shape local_shape = tensor<64xf32>>, ttcore.shard_status = #ttcore.shard_status<unsharded>, ttir.name = "resnet.encoder.stages.0.layers.2.layer.1.normalization.weight"} loc("p66.508"), %arg67: tensor<64x64x3x3xf32> {ttcore.argument_type = #ttcore.argument_type<parameter>, ttcore.local_shape = #ttcore<local_shape local_shape = tensor<64x64x3x3xf32>>, ttcore.shard_status = #ttcore.shard_status<unsharded>, ttir.name = "resnet.encoder.stages.0.layers.2.layer.1.convolution.weight"} loc("p67.512"), %arg68: tensor<64xf32> {ttcore.argument_type = #ttcore.argument_type<constant>, ttcore.local_shape = #ttcore<local_shape local_shape = tensor<64xf32>>, ttcore.shard_status = #ttcore.shard_status<unsharded>, ttir.name = "resnet.encoder.stages.0.layers.2.layer.0.normalization.running_var"} loc("p68.514"), %arg69: tensor<64xf32> {ttcore.argument_type = #ttcore.argument_type<constant>, ttcore.local_shape = #ttcore<local_shape local_shape = tensor<64xf32>>, ttcore.shard_status = #ttcore.shard_status<unsharded>, ttir.name = "resnet.encoder.stages.0.layers.2.layer.0.normalization.running_mean"} loc("p69.518"), %arg70: tensor<64xf32> {ttcore.argument_type = #ttcore.argument_type<parameter>, ttcore.local_shape = #ttcore<local_shape local_shape = tensor<64xf32>>, ttcore.shard_status = #ttcore.shard_status<unsharded>, ttir.name = "resnet.encoder.stages.0.layers.2.layer.0.normalization.bias"} loc("p70.522"), %arg71: tensor<64xf32> {ttcore.argument_type = #ttcore.argument_type<parameter>, ttcore.local_shape = #ttcore<local_shape local_shape = tensor<64xf32>>, ttcore.shard_status = #ttcore.shard_status<unsharded>, ttir.name = "resnet.encoder.stages.0.layers.2.layer.0.normalization.weight"} loc("p71.526"), %arg72: tensor<64x256x1x1xf32> {ttcore.argument_type = #ttcore.argument_type<parameter>, ttcore.local_shape = #ttcore<local_shape local_shape = tensor<64x256x1x1xf32>>, ttcore.shard_status = #ttcore.shard_status<unsharded>, ttir.name = "resnet.encoder.stages.0.layers.2.layer.0.convolution.weight"} loc("p72.530"), %arg73: tensor<512xf32> {ttcore.argument_type = #ttcore.argument_type<constant>, ttcore.local_shape = #ttcore<local_shape local_shape = tensor<512xf32>>, ttcore.shard_status = #ttcore.shard_status<unsharded>, ttir.name = "resnet.encoder.stages.1.layers.0.layer.2.normalization.running_var"} loc("p73.568"), %arg74: tensor<512xf32> {ttcore.argument_type = #ttcore.argument_type<constant>, ttcore.local_shape = #ttcore<local_shape local_shape = tensor<512xf32>>, ttcore.shard_status = #ttcore.shard_status<unsharded>, ttir.name = "resnet.encoder.stages.1.layers.0.layer.2.normalization.running_mean"} loc("p74.572"), %arg75: tensor<512xf32> {ttcore.argument_type = #ttcore.argument_type<parameter>, ttcore.local_shape = #ttcore<local_shape local_shape = tensor<512xf32>>, ttcore.shard_status = #ttcore.shard_status<unsharded>, ttir.name = "resnet.encoder.stages.1.layers.0.layer.2.normalization.bias"} loc("p75.576"), %arg76: tensor<512xf32> {ttcore.argument_type = #ttcore.argument_type<parameter>, ttcore.local_shape = #ttcore<local_shape local_shape = tensor<512xf32>>, ttcore.shard_status = #ttcore.shard_status<unsharded>, ttir.name = "resnet.encoder.stages.1.layers.0.layer.2.normalization.weight"} loc("p76.580"), %arg77: tensor<512x128x1x1xf32> {ttcore.argument_type = #ttcore.argument_type<parameter>, ttcore.local_shape = #ttcore<local_shape local_shape = tensor<512x128x1x1xf32>>, ttcore.shard_status = #ttcore.shard_status<unsharded>, ttir.name = "resnet.encoder.stages.1.layers.0.layer.2.convolution.weight"} loc("p77.584"), %arg78: tensor<128xf32> {ttcore.argument_type = #ttcore.argument_type<constant>, ttcore.local_shape = #ttcore<local_shape local_shape = tensor<128xf32>>, ttcore.shard_status = #ttcore.shard_status<unsharded>, ttir.name = "resnet.encoder.stages.1.layers.0.layer.1.normalization.running_var"} loc("p78.586"), %arg79: tensor<128xf32> {ttcore.argument_type = #ttcore.argument_type<constant>, ttcore.local_shape = #ttcore<local_shape local_shape = tensor<128xf32>>, ttcore.shard_status = #ttcore.shard_status<unsharded>, ttir.name = "resnet.encoder.stages.1.layers.0.layer.1.normalization.running_mean"} loc("p79.590"), %arg80: tensor<128xf32> {ttcore.argument_type = #ttcore.argument_type<parameter>, ttcore.local_shape = #ttcore<local_shape local_shape = tensor<128xf32>>, ttcore.shard_status = #ttcore.shard_status<unsharded>, ttir.name = "resnet.encoder.stages.1.layers.0.layer.1.normalization.bias"} loc("p80.594"), %arg81: tensor<128xf32> {ttcore.argument_type = #ttcore.argument_type<parameter>, ttcore.local_shape = #ttcore<local_shape local_shape = tensor<128xf32>>, ttcore.shard_status = #ttcore.shard_status<unsharded>, ttir.name = "resnet.encoder.stages.1.layers.0.layer.1.normalization.weight"} loc("p81.598"), %arg82: tensor<128x128x3x3xf32> {ttcore.argument_type = #ttcore.argument_type<parameter>, ttcore.local_shape = #ttcore<local_shape local_shape = tensor<128x128x3x3xf32>>, ttcore.shard_status = #ttcore.shard_status<unsharded>, ttir.name = "resnet.encoder.stages.1.layers.0.layer.1.convolution.weight"} loc("p82.602"), %arg83: tensor<128xf32> {ttcore.argument_type = #ttcore.argument_type<constant>, ttcore.local_shape = #ttcore<local_shape local_shape = tensor<128xf32>>, ttcore.shard_status = #ttcore.shard_status<unsharded>, ttir.name = "resnet.encoder.stages.1.layers.0.layer.0.normalization.running_var"} loc("p83.604"), %arg84: tensor<128xf32> {ttcore.argument_type = #ttcore.argument_type<constant>, ttcore.local_shape = #ttcore<local_shape local_shape = tensor<128xf32>>, ttcore.shard_status = #ttcore.shard_status<unsharded>, ttir.name = "resnet.encoder.stages.1.layers.0.layer.0.normalization.running_mean"} loc("p84.608"), %arg85: tensor<128xf32> {ttcore.argument_type = #ttcore.argument_type<parameter>, ttcore.local_shape = #ttcore<local_shape local_shape = tensor<128xf32>>, ttcore.shard_status = #ttcore.shard_status<unsharded>, ttir.name = "resnet.encoder.stages.1.layers.0.layer.0.normalization.bias"} loc("p85.612"), %arg86: tensor<128xf32> {ttcore.argument_type = #ttcore.argument_type<parameter>, ttcore.local_shape = #ttcore<local_shape local_shape = tensor<128xf32>>, ttcore.shard_status = #ttcore.shard_status<unsharded>, ttir.name = "resnet.encoder.stages.1.layers.0.layer.0.normalization.weight"} loc("p86.616"), %arg87: tensor<128x256x1x1xf32> {ttcore.argument_type = #ttcore.argument_type<parameter>, ttcore.local_shape = #ttcore<local_shape local_shape = tensor<128x256x1x1xf32>>, ttcore.shard_status = #ttcore.shard_status<unsharded>, ttir.name = "resnet.encoder.stages.1.layers.0.layer.0.convolution.weight"} loc("p87.620"), %arg88: tensor<512xf32> {ttcore.argument_type = #ttcore.argument_type<constant>, ttcore.local_shape = #ttcore<local_shape local_shape = tensor<512xf32>>, ttcore.shard_status = #ttcore.shard_status<unsharded>, ttir.name = "resnet.encoder.stages.1.layers.1.layer.2.normalization.running_var"} loc("p88.652"), %arg89: tensor<512xf32> {ttcore.argument_type = #ttcore.argument_type<constant>, ttcore.local_shape = #ttcore<local_shape local_shape = tensor<512xf32>>, ttcore.shard_status = #ttcore.shard_status<unsharded>, ttir.name = "resnet.encoder.stages.1.layers.1.layer.2.normalization.running_mean"} loc("p89.656"), %arg90: tensor<512xf32> {ttcore.argument_type = #ttcore.argument_type<parameter>, ttcore.local_shape = #ttcore<local_shape local_shape = tensor<512xf32>>, ttcore.shard_status = #ttcore.shard_status<unsharded>, ttir.name = "resnet.encoder.stages.1.layers.1.layer.2.normalization.bias"} loc("p90.660"), %arg91: tensor<512xf32> {ttcore.argument_type = #ttcore.argument_type<parameter>, ttcore.local_shape = #ttcore<local_shape local_shape = tensor<512xf32>>, ttcore.shard_status = #ttcore.shard_status<unsharded>, ttir.name = "resnet.encoder.stages.1.layers.1.layer.2.normalization.weight"} loc("p91.664"), %arg92: tensor<512x128x1x1xf32> {ttcore.argument_type = #ttcore.argument_type<parameter>, ttcore.local_shape = #ttcore<local_shape local_shape = tensor<512x128x1x1xf32>>, ttcore.shard_status = #ttcore.shard_status<unsharded>, ttir.name = "resnet.encoder.stages.1.layers.1.layer.2.convolution.weight"} loc("p92.668"), %arg93: tensor<128xf32> {ttcore.argument_type = #ttcore.argument_type<constant>, ttcore.local_shape = #ttcore<local_shape local_shape = tensor<128xf32>>, ttcore.shard_status = #ttcore.shard_status<unsharded>, ttir.name = "resnet.encoder.stages.1.layers.1.layer.1.normalization.running_var"} loc("p93.670"), %arg94: tensor<128xf32> {ttcore.argument_type = #ttcore.argument_type<constant>, ttcore.local_shape = #ttcore<local_shape local_shape = tensor<128xf32>>, ttcore.shard_status = #ttcore.shard_status<unsharded>, ttir.name = "resnet.encoder.stages.1.layers.1.layer.1.normalization.running_mean"} loc("p94.674"), %arg95: tensor<128xf32> {ttcore.argument_type = #ttcore.argument_type<parameter>, ttcore.local_shape = #ttcore<local_shape local_shape = tensor<128xf32>>, ttcore.shard_status = #ttcore.shard_status<unsharded>, ttir.name = "resnet.encoder.stages.1.layers.1.layer.1.normalization.bias"} loc("p95.678"), %arg96: tensor<128xf32> {ttcore.argument_type = #ttcore.argument_type<parameter>, ttcore.local_shape = #ttcore<local_shape local_shape = tensor<128xf32>>, ttcore.shard_status = #ttcore.shard_status<unsharded>, ttir.name = "resnet.encoder.stages.1.layers.1.layer.1.normalization.weight"} loc("p96.682"), %arg97: tensor<128x128x3x3xf32> {ttcore.argument_type = #ttcore.argument_type<parameter>, ttcore.local_shape = #ttcore<local_shape local_shape = tensor<128x128x3x3xf32>>, ttcore.shard_status = #ttcore.shard_status<unsharded>, ttir.name = "resnet.encoder.stages.1.layers.1.layer.1.convolution.weight"} loc("p97.686"), %arg98: tensor<128xf32> {ttcore.argument_type = #ttcore.argument_type<constant>, ttcore.local_shape = #ttcore<local_shape local_shape = tensor<128xf32>>, ttcore.shard_status = #ttcore.shard_status<unsharded>, ttir.name = "resnet.encoder.stages.1.layers.1.layer.0.normalization.running_var"} loc("p98.688"), %arg99: tensor<128xf32> {ttcore.argument_type = #ttcore.argument_type<constant>, ttcore.local_shape = #ttcore<local_shape local_shape = tensor<128xf32>>, ttcore.shard_status = #ttcore.shard_status<unsharded>, ttir.name = "resnet.encoder.stages.1.layers.1.layer.0.normalization.running_mean"} loc("p99.692"), %arg100: tensor<128xf32> {ttcore.argument_type = #ttcore.argument_type<parameter>, ttcore.local_shape = #ttcore<local_shape local_shape = tensor<128xf32>>, ttcore.shard_status = #ttcore.shard_status<unsharded>, ttir.name = "resnet.encoder.stages.1.layers.1.layer.0.normalization.bias"} loc("p100.696"), %arg101: tensor<128xf32> {ttcore.argument_type = #ttcore.argument_type<parameter>, ttcore.local_shape = #ttcore<local_shape local_shape = tensor<128xf32>>, ttcore.shard_status = #ttcore.shard_status<unsharded>, ttir.name = "resnet.encoder.stages.1.layers.1.layer.0.normalization.weight"} loc("p101.700"), %arg102: tensor<128x512x1x1xf32> {ttcore.argument_type = #ttcore.argument_type<parameter>, ttcore.local_shape = #ttcore<local_shape local_shape = tensor<128x512x1x1xf32>>, ttcore.shard_status = #ttcore.shard_status<unsharded>, ttir.name = "resnet.encoder.stages.1.layers.1.layer.0.convolution.weight"} loc("p102.704"), %arg103: tensor<512xf32> {ttcore.argument_type = #ttcore.argument_type<constant>, ttcore.local_shape = #ttcore<local_shape local_shape = tensor<512xf32>>, ttcore.shard_status = #ttcore.shard_status<unsharded>, ttir.name = "resnet.encoder.stages.1.layers.2.layer.2.normalization.running_var"} loc("p103.736"), %arg104: tensor<512xf32> {ttcore.argument_type = #ttcore.argument_type<constant>, ttcore.local_shape = #ttcore<local_shape local_shape = tensor<512xf32>>, ttcore.shard_status = #ttcore.shard_status<unsharded>, ttir.name = "resnet.encoder.stages.1.layers.2.layer.2.normalization.running_mean"} loc("p104.740"), %arg105: tensor<512xf32> {ttcore.argument_type = #ttcore.argument_type<parameter>, ttcore.local_shape = #ttcore<local_shape local_shape = tensor<512xf32>>, ttcore.shard_status = #ttcore.shard_status<unsharded>, ttir.name = "resnet.encoder.stages.1.layers.2.layer.2.normalization.bias"} loc("p105.744"), %arg106: tensor<512xf32> {ttcore.argument_type = #ttcore.argument_type<parameter>, ttcore.local_shape = #ttcore<local_shape local_shape = tensor<512xf32>>, ttcore.shard_status = #ttcore.shard_status<unsharded>, ttir.name = "resnet.encoder.stages.1.layers.2.layer.2.normalization.weight"} loc("p106.748"), %arg107: tensor<512x128x1x1xf32> {ttcore.argument_type = #ttcore.argument_type<parameter>, ttcore.local_shape = #ttcore<local_shape local_shape = tensor<512x128x1x1xf32>>, ttcore.shard_status = #ttcore.shard_status<unsharded>, ttir.name = "resnet.encoder.stages.1.layers.2.layer.2.convolution.weight"} loc("p107.752"), %arg108: tensor<128xf32> {ttcore.argument_type = #ttcore.argument_type<constant>, ttcore.local_shape = #ttcore<local_shape local_shape = tensor<128xf32>>, ttcore.shard_status = #ttcore.shard_status<unsharded>, ttir.name = "resnet.encoder.stages.1.layers.2.layer.1.normalization.running_var"} loc("p108.754"), %arg109: tensor<128xf32> {ttcore.argument_type = #ttcore.argument_type<constant>, ttcore.local_shape = #ttcore<local_shape local_shape = tensor<128xf32>>, ttcore.shard_status = #ttcore.shard_status<unsharded>, ttir.name = "resnet.encoder.stages.1.layers.2.layer.1.normalization.running_mean"} loc("p109.758"), %arg110: tensor<128xf32> {ttcore.argument_type = #ttcore.argument_type<parameter>, ttcore.local_shape = #ttcore<local_shape local_shape = tensor<128xf32>>, ttcore.shard_status = #ttcore.shard_status<unsharded>, ttir.name = "resnet.encoder.stages.1.layers.2.layer.1.normalization.bias"} loc("p110.762"), %arg111: tensor<128xf32> {ttcore.argument_type = #ttcore.argument_type<parameter>, ttcore.local_shape = #ttcore<local_shape local_shape = tensor<128xf32>>, ttcore.shard_status = #ttcore.shard_status<unsharded>, ttir.name = "resnet.encoder.stages.1.layers.2.layer.1.normalization.weight"} loc("p111.766"), %arg112: tensor<128x128x3x3xf32> {ttcore.argument_type = #ttcore.argument_type<parameter>, ttcore.local_shape = #ttcore<local_shape local_shape = tensor<128x128x3x3xf32>>, ttcore.shard_status = #ttcore.shard_status<unsharded>, ttir.name = "resnet.encoder.stages.1.layers.2.layer.1.convolution.weight"} loc("p112.770"), %arg113: tensor<128xf32> {ttcore.argument_type = #ttcore.argument_type<constant>, ttcore.local_shape = #ttcore<local_shape local_shape = tensor<128xf32>>, ttcore.shard_status = #ttcore.shard_status<unsharded>, ttir.name = "resnet.encoder.stages.1.layers.2.layer.0.normalization.running_var"} loc("p113.772"), %arg114: tensor<128xf32> {ttcore.argument_type = #ttcore.argument_type<constant>, ttcore.local_shape = #ttcore<local_shape local_shape = tensor<128xf32>>, ttcore.shard_status = #ttcore.shard_status<unsharded>, ttir.name = "resnet.encoder.stages.1.layers.2.layer.0.normalization.running_mean"} loc("p114.776"), %arg115: tensor<128xf32> {ttcore.argument_type = #ttcore.argument_type<parameter>, ttcore.local_shape = #ttcore<local_shape local_shape = tensor<128xf32>>, ttcore.shard_status = #ttcore.shard_status<unsharded>, ttir.name = "resnet.encoder.stages.1.layers.2.layer.0.normalization.bias"} loc("p115.780"), %arg116: tensor<128xf32> {ttcore.argument_type = #ttcore.argument_type<parameter>, ttcore.local_shape = #ttcore<local_shape local_shape = tensor<128xf32>>, ttcore.shard_status = #ttcore.shard_status<unsharded>, ttir.name = "resnet.encoder.stages.1.layers.2.layer.0.normalization.weight"} loc("p116.784"), %arg117: tensor<128x512x1x1xf32> {ttcore.argument_type = #ttcore.argument_type<parameter>, ttcore.local_shape = #ttcore<local_shape local_shape = tensor<128x512x1x1xf32>>, ttcore.shard_status = #ttcore.shard_status<unsharded>, ttir.name = "resnet.encoder.stages.1.layers.2.layer.0.convolution.weight"} loc("p117.788"), %arg118: tensor<512xf32> {ttcore.argument_type = #ttcore.argument_type<constant>, ttcore.local_shape = #ttcore<local_shape local_shape = tensor<512xf32>>, ttcore.shard_status = #ttcore.shard_status<unsharded>, ttir.name = "resnet.encoder.stages.1.layers.3.layer.2.normalization.running_var"} loc("p118.820"), %arg119: tensor<512xf32> {ttcore.argument_type = #ttcore.argument_type<constant>, ttcore.local_shape = #ttcore<local_shape local_shape = tensor<512xf32>>, ttcore.shard_status = #ttcore.shard_status<unsharded>, ttir.name = "resnet.encoder.stages.1.layers.3.layer.2.normalization.running_mean"} loc("p119.824"), %arg120: tensor<512xf32> {ttcore.argument_type = #ttcore.argument_type<parameter>, ttcore.local_shape = #ttcore<local_shape local_shape = tensor<512xf32>>, ttcore.shard_status = #ttcore.shard_status<unsharded>, ttir.name = "resnet.encoder.stages.1.layers.3.layer.2.normalization.bias"} loc("p120.828"), %arg121: tensor<512xf32> {ttcore.argument_type = #ttcore.argument_type<parameter>, ttcore.local_shape = #ttcore<local_shape local_shape = tensor<512xf32>>, ttcore.shard_status = #ttcore.shard_status<unsharded>, ttir.name = "resnet.encoder.stages.1.layers.3.layer.2.normalization.weight"} loc("p121.832"), %arg122: tensor<512x128x1x1xf32> {ttcore.argument_type = #ttcore.argument_type<parameter>, ttcore.local_shape = #ttcore<local_shape local_shape = tensor<512x128x1x1xf32>>, ttcore.shard_status = #ttcore.shard_status<unsharded>, ttir.name = "resnet.encoder.stages.1.layers.3.layer.2.convolution.weight"} loc("p122.836"), %arg123: tensor<128xf32> {ttcore.argument_type = #ttcore.argument_type<constant>, ttcore.local_shape = #ttcore<local_shape local_shape = tensor<128xf32>>, ttcore.shard_status = #ttcore.shard_status<unsharded>, ttir.name = "resnet.encoder.stages.1.layers.3.layer.1.normalization.running_var"} loc("p123.838"), %arg124: tensor<128xf32> {ttcore.argument_type = #ttcore.argument_type<constant>, ttcore.local_shape = #ttcore<local_shape local_shape = tensor<128xf32>>, ttcore.shard_status = #ttcore.shard_status<unsharded>, ttir.name = "resnet.encoder.stages.1.layers.3.layer.1.normalization.running_mean"} loc("p124.842"), %arg125: tensor<128xf32> {ttcore.argument_type = #ttcore.argument_type<parameter>, ttcore.local_shape = #ttcore<local_shape local_shape = tensor<128xf32>>, ttcore.shard_status = #ttcore.shard_status<unsharded>, ttir.name = "resnet.encoder.stages.1.layers.3.layer.1.normalization.bias"} loc("p125.846"), %arg126: tensor<128xf32> {ttcore.argument_type = #ttcore.argument_type<parameter>, ttcore.local_shape = #ttcore<local_shape local_shape = tensor<128xf32>>, ttcore.shard_status = #ttcore.shard_status<unsharded>, ttir.name = "resnet.encoder.stages.1.layers.3.layer.1.normalization.weight"} loc("p126.850"), %arg127: tensor<128x128x3x3xf32> {ttcore.argument_type = #ttcore.argument_type<parameter>, ttcore.local_shape = #ttcore<local_shape local_shape = tensor<128x128x3x3xf32>>, ttcore.shard_status = #ttcore.shard_status<unsharded>, ttir.name = "resnet.encoder.stages.1.layers.3.layer.1.convolution.weight"} loc("p127.854"), %arg128: tensor<128xf32> {ttcore.argument_type = #ttcore.argument_type<constant>, ttcore.local_shape = #ttcore<local_shape local_shape = tensor<128xf32>>, ttcore.shard_status = #ttcore.shard_status<unsharded>, ttir.name = "resnet.encoder.stages.1.layers.3.layer.0.normalization.running_var"} loc("p128.856"), %arg129: tensor<128xf32> {ttcore.argument_type = #ttcore.argument_type<constant>, ttcore.local_shape = #ttcore<local_shape local_shape = tensor<128xf32>>, ttcore.shard_status = #ttcore.shard_status<unsharded>, ttir.name = "resnet.encoder.stages.1.layers.3.layer.0.normalization.running_mean"} loc("p129.860"), %arg130: tensor<128xf32> {ttcore.argument_type = #ttcore.argument_type<parameter>, ttcore.local_shape = #ttcore<local_shape local_shape = tensor<128xf32>>, ttcore.shard_status = #ttcore.shard_status<unsharded>, ttir.name = "resnet.encoder.stages.1.layers.3.layer.0.normalization.bias"} loc("p130.864"), %arg131: tensor<128xf32> {ttcore.argument_type = #ttcore.argument_type<parameter>, ttcore.local_shape = #ttcore<local_shape local_shape = tensor<128xf32>>, ttcore.shard_status = #ttcore.shard_status<unsharded>, ttir.name = "resnet.encoder.stages.1.layers.3.layer.0.normalization.weight"} loc("p131.868"), %arg132: tensor<128x512x1x1xf32> {ttcore.argument_type = #ttcore.argument_type<parameter>, ttcore.local_shape = #ttcore<local_shape local_shape = tensor<128x512x1x1xf32>>, ttcore.shard_status = #ttcore.shard_status<unsharded>, ttir.name = "resnet.encoder.stages.1.layers.3.layer.0.convolution.weight"} loc("p132.872"), %arg133: tensor<1024xf32> {ttcore.argument_type = #ttcore.argument_type<constant>, ttcore.local_shape = #ttcore<local_shape local_shape = tensor<1024xf32>>, ttcore.shard_status = #ttcore.shard_status<unsharded>, ttir.name = "resnet.encoder.stages.2.layers.0.layer.2.normalization.running_var"} loc("p133.910"), %arg134: tensor<1024xf32> {ttcore.argument_type = #ttcore.argument_type<constant>, ttcore.local_shape = #ttcore<local_shape local_shape = tensor<1024xf32>>, ttcore.shard_status = #ttcore.shard_status<unsharded>, ttir.name = "resnet.encoder.stages.2.layers.0.layer.2.normalization.running_mean"} loc("p134.914"), %arg135: tensor<1024xf32> {ttcore.argument_type = #ttcore.argument_type<parameter>, ttcore.local_shape = #ttcore<local_shape local_shape = tensor<1024xf32>>, ttcore.shard_status = #ttcore.shard_status<unsharded>, ttir.name = "resnet.encoder.stages.2.layers.0.layer.2.normalization.bias"} loc("p135.918"), %arg136: tensor<1024xf32> {ttcore.argument_type = #ttcore.argument_type<parameter>, ttcore.local_shape = #ttcore<local_shape local_shape = tensor<1024xf32>>, ttcore.shard_status = #ttcore.shard_status<unsharded>, ttir.name = "resnet.encoder.stages.2.layers.0.layer.2.normalization.weight"} loc("p136.922"), %arg137: tensor<1024x256x1x1xf32> {ttcore.argument_type = #ttcore.argument_type<parameter>, ttcore.local_shape = #ttcore<local_shape local_shape = tensor<1024x256x1x1xf32>>, ttcore.shard_status = #ttcore.shard_status<unsharded>, ttir.name = "resnet.encoder.stages.2.layers.0.layer.2.convolution.weight"} loc("p137.926"), %arg138: tensor<256xf32> {ttcore.argument_type = #ttcore.argument_type<constant>, ttcore.local_shape = #ttcore<local_shape local_shape = tensor<256xf32>>, ttcore.shard_status = #ttcore.shard_status<unsharded>, ttir.name = "resnet.encoder.stages.2.layers.0.layer.1.normalization.running_var"} loc("p138.928"), %arg139: tensor<256xf32> {ttcore.argument_type = #ttcore.argument_type<constant>, ttcore.local_shape = #ttcore<local_shape local_shape = tensor<256xf32>>, ttcore.shard_status = #ttcore.shard_status<unsharded>, ttir.name = "resnet.encoder.stages.2.layers.0.layer.1.normalization.running_mean"} loc("p139.932"), %arg140: tensor<256xf32> {ttcore.argument_type = #ttcore.argument_type<parameter>, ttcore.local_shape = #ttcore<local_shape local_shape = tensor<256xf32>>, ttcore.shard_status = #ttcore.shard_status<unsharded>, ttir.name = "resnet.encoder.stages.2.layers.0.layer.1.normalization.bias"} loc("p140.936"), %arg141: tensor<256xf32> {ttcore.argument_type = #ttcore.argument_type<parameter>, ttcore.local_shape = #ttcore<local_shape local_shape = tensor<256xf32>>, ttcore.shard_status = #ttcore.shard_status<unsharded>, ttir.name = "resnet.encoder.stages.2.layers.0.layer.1.normalization.weight"} loc("p141.940"), %arg142: tensor<256x256x3x3xf32> {ttcore.argument_type = #ttcore.argument_type<parameter>, ttcore.local_shape = #ttcore<local_shape local_shape = tensor<256x256x3x3xf32>>, ttcore.shard_status = #ttcore.shard_status<unsharded>, ttir.name = "resnet.encoder.stages.2.layers.0.layer.1.convolution.weight"} loc("p142.944"), %arg143: tensor<256xf32> {ttcore.argument_type = #ttcore.argument_type<constant>, ttcore.local_shape = #ttcore<local_shape local_shape = tensor<256xf32>>, ttcore.shard_status = #ttcore.shard_status<unsharded>, ttir.name = "resnet.encoder.stages.2.layers.0.layer.0.normalization.running_var"} loc("p143.946"), %arg144: tensor<256xf32> {ttcore.argument_type = #ttcore.argument_type<constant>, ttcore.local_shape = #ttcore<local_shape local_shape = tensor<256xf32>>, ttcore.shard_status = #ttcore.shard_status<unsharded>, ttir.name = "resnet.encoder.stages.2.layers.0.layer.0.normalization.running_mean"} loc("p144.950"), %arg145: tensor<256xf32> {ttcore.argument_type = #ttcore.argument_type<parameter>, ttcore.local_shape = #ttcore<local_shape local_shape = tensor<256xf32>>, ttcore.shard_status = #ttcore.shard_status<unsharded>, ttir.name = "resnet.encoder.stages.2.layers.0.layer.0.normalization.bias"} loc("p145.954"), %arg146: tensor<256xf32> {ttcore.argument_type = #ttcore.argument_type<parameter>, ttcore.local_shape = #ttcore<local_shape local_shape = tensor<256xf32>>, ttcore.shard_status = #ttcore.shard_status<unsharded>, ttir.name = "resnet.encoder.stages.2.layers.0.layer.0.normalization.weight"} loc("p146.958"), %arg147: tensor<256x512x1x1xf32> {ttcore.argument_type = #ttcore.argument_type<parameter>, ttcore.local_shape = #ttcore<local_shape local_shape = tensor<256x512x1x1xf32>>, ttcore.shard_status = #ttcore.shard_status<unsharded>, ttir.name = "resnet.encoder.stages.2.layers.0.layer.0.convolution.weight"} loc("p147.962"), %arg148: tensor<1024xf32> {ttcore.argument_type = #ttcore.argument_type<constant>, ttcore.local_shape = #ttcore<local_shape local_shape = tensor<1024xf32>>, ttcore.shard_status = #ttcore.shard_status<unsharded>, ttir.name = "resnet.encoder.stages.2.layers.1.layer.2.normalization.running_var"} loc("p148.994"), %arg149: tensor<1024xf32> {ttcore.argument_type = #ttcore.argument_type<constant>, ttcore.local_shape = #ttcore<local_shape local_shape = tensor<1024xf32>>, ttcore.shard_status = #ttcore.shard_status<unsharded>, ttir.name = "resnet.encoder.stages.2.layers.1.layer.2.normalization.running_mean"} loc("p149.998"), %arg150: tensor<1024xf32> {ttcore.argument_type = #ttcore.argument_type<parameter>, ttcore.local_shape = #ttcore<local_shape local_shape = tensor<1024xf32>>, ttcore.shard_status = #ttcore.shard_status<unsharded>, ttir.name = "resnet.encoder.stages.2.layers.1.layer.2.normalization.bias"} loc("p150.1002"), %arg151: tensor<1024xf32> {ttcore.argument_type = #ttcore.argument_type<parameter>, ttcore.local_shape = #ttcore<local_shape local_shape = tensor<1024xf32>>, ttcore.shard_status = #ttcore.shard_status<unsharded>, ttir.name = "resnet.encoder.stages.2.layers.1.layer.2.normalization.weight"} loc("p151.1006"), %arg152: tensor<1024x256x1x1xf32> {ttcore.argument_type = #ttcore.argument_type<parameter>, ttcore.local_shape = #ttcore<local_shape local_shape = tensor<1024x256x1x1xf32>>, ttcore.shard_status = #ttcore.shard_status<unsharded>, ttir.name = "resnet.encoder.stages.2.layers.1.layer.2.convolution.weight"} loc("p152.1010"), %arg153: tensor<256xf32> {ttcore.argument_type = #ttcore.argument_type<constant>, ttcore.local_shape = #ttcore<local_shape local_shape = tensor<256xf32>>, ttcore.shard_status = #ttcore.shard_status<unsharded>, ttir.name = "resnet.encoder.stages.2.layers.1.layer.1.normalization.running_var"} loc("p153.1012"), %arg154: tensor<256xf32> {ttcore.argument_type = #ttcore.argument_type<constant>, ttcore.local_shape = #ttcore<local_shape local_shape = tensor<256xf32>>, ttcore.shard_status = #ttcore.shard_status<unsharded>, ttir.name = "resnet.encoder.stages.2.layers.1.layer.1.normalization.running_mean"} loc("p154.1016"), %arg155: tensor<256xf32> {ttcore.argument_type = #ttcore.argument_type<parameter>, ttcore.local_shape = #ttcore<local_shape local_shape = tensor<256xf32>>, ttcore.shard_status = #ttcore.shard_status<unsharded>, ttir.name = "resnet.encoder.stages.2.layers.1.layer.1.normalization.bias"} loc("p155.1020"), %arg156: tensor<256xf32> {ttcore.argument_type = #ttcore.argument_type<parameter>, ttcore.local_shape = #ttcore<local_shape local_shape = tensor<256xf32>>, ttcore.shard_status = #ttcore.shard_status<unsharded>, ttir.name = "resnet.encoder.stages.2.layers.1.layer.1.normalization.weight"} loc("p156.1024"), %arg157: tensor<256x256x3x3xf32> {ttcore.argument_type = #ttcore.argument_type<parameter>, ttcore.local_shape = #ttcore<local_shape local_shape = tensor<256x256x3x3xf32>>, ttcore.shard_status = #ttcore.shard_status<unsharded>, ttir.name = "resnet.encoder.stages.2.layers.1.layer.1.convolution.weight"} loc("p157.1028"), %arg158: tensor<256xf32> {ttcore.argument_type = #ttcore.argument_type<constant>, ttcore.local_shape = #ttcore<local_shape local_shape = tensor<256xf32>>, ttcore.shard_status = #ttcore.shard_status<unsharded>, ttir.name = "resnet.encoder.stages.2.layers.1.layer.0.normalization.running_var"} loc("p158.1030"), %arg159: tensor<256xf32> {ttcore.argument_type = #ttcore.argument_type<constant>, ttcore.local_shape = #ttcore<local_shape local_shape = tensor<256xf32>>, ttcore.shard_status = #ttcore.shard_status<unsharded>, ttir.name = "resnet.encoder.stages.2.layers.1.layer.0.normalization.running_mean"} loc("p159.1034"), %arg160: tensor<256xf32> {ttcore.argument_type = #ttcore.argument_type<parameter>, ttcore.local_shape = #ttcore<local_shape local_shape = tensor<256xf32>>, ttcore.shard_status = #ttcore.shard_status<unsharded>, ttir.name = "resnet.encoder.stages.2.layers.1.layer.0.normalization.bias"} loc("p160.1038"), %arg161: tensor<256xf32> {ttcore.argument_type = #ttcore.argument_type<parameter>, ttcore.local_shape = #ttcore<local_shape local_shape = tensor<256xf32>>, ttcore.shard_status = #ttcore.shard_status<unsharded>, ttir.name = "resnet.encoder.stages.2.layers.1.layer.0.normalization.weight"} loc("p161.1042"), %arg162: tensor<256x1024x1x1xf32> {ttcore.argument_type = #ttcore.argument_type<parameter>, ttcore.local_shape = #ttcore<local_shape local_shape = tensor<256x1024x1x1xf32>>, ttcore.shard_status = #ttcore.shard_status<unsharded>, ttir.name = "resnet.encoder.stages.2.layers.1.layer.0.convolution.weight"} loc("p162.1046"), %arg163: tensor<1024xf32> {ttcore.argument_type = #ttcore.argument_type<constant>, ttcore.local_shape = #ttcore<local_shape local_shape = tensor<1024xf32>>, ttcore.shard_status = #ttcore.shard_status<unsharded>, ttir.name = "resnet.encoder.stages.2.layers.2.layer.2.normalization.running_var"} loc("p163.1078"), %arg164: tensor<1024xf32> {ttcore.argument_type = #ttcore.argument_type<constant>, ttcore.local_shape = #ttcore<local_shape local_shape = tensor<1024xf32>>, ttcore.shard_status = #ttcore.shard_status<unsharded>, ttir.name = "resnet.encoder.stages.2.layers.2.layer.2.normalization.running_mean"} loc("p164.1082"), %arg165: tensor<1024xf32> {ttcore.argument_type = #ttcore.argument_type<parameter>, ttcore.local_shape = #ttcore<local_shape local_shape = tensor<1024xf32>>, ttcore.shard_status = #ttcore.shard_status<unsharded>, ttir.name = "resnet.encoder.stages.2.layers.2.layer.2.normalization.bias"} loc("p165.1086"), %arg166: tensor<1024xf32> {ttcore.argument_type = #ttcore.argument_type<parameter>, ttcore.local_shape = #ttcore<local_shape local_shape = tensor<1024xf32>>, ttcore.shard_status = #ttcore.shard_status<unsharded>, ttir.name = "resnet.encoder.stages.2.layers.2.layer.2.normalization.weight"} loc("p166.1090"), %arg167: tensor<1024x256x1x1xf32> {ttcore.argument_type = #ttcore.argument_type<parameter>, ttcore.local_shape = #ttcore<local_shape local_shape = tensor<1024x256x1x1xf32>>, ttcore.shard_status = #ttcore.shard_status<unsharded>, ttir.name = "resnet.encoder.stages.2.layers.2.layer.2.convolution.weight"} loc("p167.1094"), %arg168: tensor<256xf32> {ttcore.argument_type = #ttcore.argument_type<constant>, ttcore.local_shape = #ttcore<local_shape local_shape = tensor<256xf32>>, ttcore.shard_status = #ttcore.shard_status<unsharded>, ttir.name = "resnet.encoder.stages.2.layers.2.layer.1.normalization.running_var"} loc("p168.1096"), %arg169: tensor<256xf32> {ttcore.argument_type = #ttcore.argument_type<constant>, ttcore.local_shape = #ttcore<local_shape local_shape = tensor<256xf32>>, ttcore.shard_status = #ttcore.shard_status<unsharded>, ttir.name = "resnet.encoder.stages.2.layers.2.layer.1.normalization.running_mean"} loc("p169.1100"), %arg170: tensor<256xf32> {ttcore.argument_type = #ttcore.argument_type<parameter>, ttcore.local_shape = #ttcore<local_shape local_shape = tensor<256xf32>>, ttcore.shard_status = #ttcore.shard_status<unsharded>, ttir.name = "resnet.encoder.stages.2.layers.2.layer.1.normalization.bias"} loc("p170.1104"), %arg171: tensor<256xf32> {ttcore.argument_type = #ttcore.argument_type<parameter>, ttcore.local_shape = #ttcore<local_shape local_shape = tensor<256xf32>>, ttcore.shard_status = #ttcore.shard_status<unsharded>, ttir.name = "resnet.encoder.stages.2.layers.2.layer.1.normalization.weight"} loc("p171.1108"), %arg172: tensor<256x256x3x3xf32> {ttcore.argument_type = #ttcore.argument_type<parameter>, ttcore.local_shape = #ttcore<local_shape local_shape = tensor<256x256x3x3xf32>>, ttcore.shard_status = #ttcore.shard_status<unsharded>, ttir.name = "resnet.encoder.stages.2.layers.2.layer.1.convolution.weight"} loc("p172.1112"), %arg173: tensor<256xf32> {ttcore.argument_type = #ttcore.argument_type<constant>, ttcore.local_shape = #ttcore<local_shape local_shape = tensor<256xf32>>, ttcore.shard_status = #ttcore.shard_status<unsharded>, ttir.name = "resnet.encoder.stages.2.layers.2.layer.0.normalization.running_var"} loc("p173.1114"), %arg174: tensor<256xf32> {ttcore.argument_type = #ttcore.argument_type<constant>, ttcore.local_shape = #ttcore<local_shape local_shape = tensor<256xf32>>, ttcore.shard_status = #ttcore.shard_status<unsharded>, ttir.name = "resnet.encoder.stages.2.layers.2.layer.0.normalization.running_mean"} loc("p174.1118"), %arg175: tensor<256xf32> {ttcore.argument_type = #ttcore.argument_type<parameter>, ttcore.local_shape = #ttcore<local_shape local_shape = tensor<256xf32>>, ttcore.shard_status = #ttcore.shard_status<unsharded>, ttir.name = "resnet.encoder.stages.2.layers.2.layer.0.normalization.bias"} loc("p175.1122"), %arg176: tensor<256xf32> {ttcore.argument_type = #ttcore.argument_type<parameter>, ttcore.local_shape = #ttcore<local_shape local_shape = tensor<256xf32>>, ttcore.shard_status = #ttcore.shard_status<unsharded>, ttir.name = "resnet.encoder.stages.2.layers.2.layer.0.normalization.weight"} loc("p176.1126"), %arg177: tensor<256x1024x1x1xf32> {ttcore.argument_type = #ttcore.argument_type<parameter>, ttcore.local_shape = #ttcore<local_shape local_shape = tensor<256x1024x1x1xf32>>, ttcore.shard_status = #ttcore.shard_status<unsharded>, ttir.name = "resnet.encoder.stages.2.layers.2.layer.0.convolution.weight"} loc("p177.1130"), %arg178: tensor<1024xf32> {ttcore.argument_type = #ttcore.argument_type<constant>, ttcore.local_shape = #ttcore<local_shape local_shape = tensor<1024xf32>>, ttcore.shard_status = #ttcore.shard_status<unsharded>, ttir.name = "resnet.encoder.stages.2.layers.3.layer.2.normalization.running_var"} loc("p178.1162"), %arg179: tensor<1024xf32> {ttcore.argument_type = #ttcore.argument_type<constant>, ttcore.local_shape = #ttcore<local_shape local_shape = tensor<1024xf32>>, ttcore.shard_status = #ttcore.shard_status<unsharded>, ttir.name = "resnet.encoder.stages.2.layers.3.layer.2.normalization.running_mean"} loc("p179.1166"), %arg180: tensor<1024xf32> {ttcore.argument_type = #ttcore.argument_type<parameter>, ttcore.local_shape = #ttcore<local_shape local_shape = tensor<1024xf32>>, ttcore.shard_status = #ttcore.shard_status<unsharded>, ttir.name = "resnet.encoder.stages.2.layers.3.layer.2.normalization.bias"} loc("p180.1170"), %arg181: tensor<1024xf32> {ttcore.argument_type = #ttcore.argument_type<parameter>, ttcore.local_shape = #ttcore<local_shape local_shape = tensor<1024xf32>>, ttcore.shard_status = #ttcore.shard_status<unsharded>, ttir.name = "resnet.encoder.stages.2.layers.3.layer.2.normalization.weight"} loc("p181.1174"), %arg182: tensor<1024x256x1x1xf32> {ttcore.argument_type = #ttcore.argument_type<parameter>, ttcore.local_shape = #ttcore<local_shape local_shape = tensor<1024x256x1x1xf32>>, ttcore.shard_status = #ttcore.shard_status<unsharded>, ttir.name = "resnet.encoder.stages.2.layers.3.layer.2.convolution.weight"} loc("p182.1178"), %arg183: tensor<256xf32> {ttcore.argument_type = #ttcore.argument_type<constant>, ttcore.local_shape = #ttcore<local_shape local_shape = tensor<256xf32>>, ttcore.shard_status = #ttcore.shard_status<unsharded>, ttir.name = "resnet.encoder.stages.2.layers.3.layer.1.normalization.running_var"} loc("p183.1180"), %arg184: tensor<256xf32> {ttcore.argument_type = #ttcore.argument_type<constant>, ttcore.local_shape = #ttcore<local_shape local_shape = tensor<256xf32>>, ttcore.shard_status = #ttcore.shard_status<unsharded>, ttir.name = "resnet.encoder.stages.2.layers.3.layer.1.normalization.running_mean"} loc("p184.1184"), %arg185: tensor<256xf32> {ttcore.argument_type = #ttcore.argument_type<parameter>, ttcore.local_shape = #ttcore<local_shape local_shape = tensor<256xf32>>, ttcore.shard_status = #ttcore.shard_status<unsharded>, ttir.name = "resnet.encoder.stages.2.layers.3.layer.1.normalization.bias"} loc("p185.1188"), %arg186: tensor<256xf32> {ttcore.argument_type = #ttcore.argument_type<parameter>, ttcore.local_shape = #ttcore<local_shape local_shape = tensor<256xf32>>, ttcore.shard_status = #ttcore.shard_status<unsharded>, ttir.name = "resnet.encoder.stages.2.layers.3.layer.1.normalization.weight"} loc("p186.1192"), %arg187: tensor<256x256x3x3xf32> {ttcore.argument_type = #ttcore.argument_type<parameter>, ttcore.local_shape = #ttcore<local_shape local_shape = tensor<256x256x3x3xf32>>, ttcore.shard_status = #ttcore.shard_status<unsharded>, ttir.name = "resnet.encoder.stages.2.layers.3.layer.1.convolution.weight"} loc("p187.1196"), %arg188: tensor<256xf32> {ttcore.argument_type = #ttcore.argument_type<constant>, ttcore.local_shape = #ttcore<local_shape local_shape = tensor<256xf32>>, ttcore.shard_status = #ttcore.shard_status<unsharded>, ttir.name = "resnet.encoder.stages.2.layers.3.layer.0.normalization.running_var"} loc("p188.1198"), %arg189: tensor<256xf32> {ttcore.argument_type = #ttcore.argument_type<constant>, ttcore.local_shape = #ttcore<local_shape local_shape = tensor<256xf32>>, ttcore.shard_status = #ttcore.shard_status<unsharded>, ttir.name = "resnet.encoder.stages.2.layers.3.layer.0.normalization.running_mean"} loc("p189.1202"), %arg190: tensor<256xf32> {ttcore.argument_type = #ttcore.argument_type<parameter>, ttcore.local_shape = #ttcore<local_shape local_shape = tensor<256xf32>>, ttcore.shard_status = #ttcore.shard_status<unsharded>, ttir.name = "resnet.encoder.stages.2.layers.3.layer.0.normalization.bias"} loc("p190.1206"), %arg191: tensor<256xf32> {ttcore.argument_type = #ttcore.argument_type<parameter>, ttcore.local_shape = #ttcore<local_shape local_shape = tensor<256xf32>>, ttcore.shard_status = #ttcore.shard_status<unsharded>, ttir.name = "resnet.encoder.stages.2.layers.3.layer.0.normalization.weight"} loc("p191.1210"), %arg192: tensor<256x1024x1x1xf32> {ttcore.argument_type = #ttcore.argument_type<parameter>, ttcore.local_shape = #ttcore<local_shape local_shape = tensor<256x1024x1x1xf32>>, ttcore.shard_status = #ttcore.shard_status<unsharded>, ttir.name = "resnet.encoder.stages.2.layers.3.layer.0.convolution.weight"} loc("p192.1214"), %arg193: tensor<1024xf32> {ttcore.argument_type = #ttcore.argument_type<constant>, ttcore.local_shape = #ttcore<local_shape local_shape = tensor<1024xf32>>, ttcore.shard_status = #ttcore.shard_status<unsharded>, ttir.name = "resnet.encoder.stages.2.layers.4.layer.2.normalization.running_var"} loc("p193.1246"), %arg194: tensor<1024xf32> {ttcore.argument_type = #ttcore.argument_type<constant>, ttcore.local_shape = #ttcore<local_shape local_shape = tensor<1024xf32>>, ttcore.shard_status = #ttcore.shard_status<unsharded>, ttir.name = "resnet.encoder.stages.2.layers.4.layer.2.normalization.running_mean"} loc("p194.1250"), %arg195: tensor<1024xf32> {ttcore.argument_type = #ttcore.argument_type<parameter>, ttcore.local_shape = #ttcore<local_shape local_shape = tensor<1024xf32>>, ttcore.shard_status = #ttcore.shard_status<unsharded>, ttir.name = "resnet.encoder.stages.2.layers.4.layer.2.normalization.bias"} loc("p195.1254"), %arg196: tensor<1024xf32> {ttcore.argument_type = #ttcore.argument_type<parameter>, ttcore.local_shape = #ttcore<local_shape local_shape = tensor<1024xf32>>, ttcore.shard_status = #ttcore.shard_status<unsharded>, ttir.name = "resnet.encoder.stages.2.layers.4.layer.2.normalization.weight"} loc("p196.1258"), %arg197: tensor<1024x256x1x1xf32> {ttcore.argument_type = #ttcore.argument_type<parameter>, ttcore.local_shape = #ttcore<local_shape local_shape = tensor<1024x256x1x1xf32>>, ttcore.shard_status = #ttcore.shard_status<unsharded>, ttir.name = "resnet.encoder.stages.2.layers.4.layer.2.convolution.weight"} loc("p197.1262"), %arg198: tensor<256xf32> {ttcore.argument_type = #ttcore.argument_type<constant>, ttcore.local_shape = #ttcore<local_shape local_shape = tensor<256xf32>>, ttcore.shard_status = #ttcore.shard_status<unsharded>, ttir.name = "resnet.encoder.stages.2.layers.4.layer.1.normalization.running_var"} loc("p198.1264"), %arg199: tensor<256xf32> {ttcore.argument_type = #ttcore.argument_type<constant>, ttcore.local_shape = #ttcore<local_shape local_shape = tensor<256xf32>>, ttcore.shard_status = #ttcore.shard_status<unsharded>, ttir.name = "resnet.encoder.stages.2.layers.4.layer.1.normalization.running_mean"} loc("p199.1268"), %arg200: tensor<256xf32> {ttcore.argument_type = #ttcore.argument_type<parameter>, ttcore.local_shape = #ttcore<local_shape local_shape = tensor<256xf32>>, ttcore.shard_status = #ttcore.shard_status<unsharded>, ttir.name = "resnet.encoder.stages.2.layers.4.layer.1.normalization.bias"} loc("p200.1272"), %arg201: tensor<256xf32> {ttcore.argument_type = #ttcore.argument_type<parameter>, ttcore.local_shape = #ttcore<local_shape local_shape = tensor<256xf32>>, ttcore.shard_status = #ttcore.shard_status<unsharded>, ttir.name = "resnet.encoder.stages.2.layers.4.layer.1.normalization.weight"} loc("p201.1276"), %arg202: tensor<256x256x3x3xf32> {ttcore.argument_type = #ttcore.argument_type<parameter>, ttcore.local_shape = #ttcore<local_shape local_shape = tensor<256x256x3x3xf32>>, ttcore.shard_status = #ttcore.shard_status<unsharded>, ttir.name = "resnet.encoder.stages.2.layers.4.layer.1.convolution.weight"} loc("p202.1280"), %arg203: tensor<256xf32> {ttcore.argument_type = #ttcore.argument_type<constant>, ttcore.local_shape = #ttcore<local_shape local_shape = tensor<256xf32>>, ttcore.shard_status = #ttcore.shard_status<unsharded>, ttir.name = "resnet.encoder.stages.2.layers.4.layer.0.normalization.running_var"} loc("p203.1282"), %arg204: tensor<256xf32> {ttcore.argument_type = #ttcore.argument_type<constant>, ttcore.local_shape = #ttcore<local_shape local_shape = tensor<256xf32>>, ttcore.shard_status = #ttcore.shard_status<unsharded>, ttir.name = "resnet.encoder.stages.2.layers.4.layer.0.normalization.running_mean"} loc("p204.1286"), %arg205: tensor<256xf32> {ttcore.argument_type = #ttcore.argument_type<parameter>, ttcore.local_shape = #ttcore<local_shape local_shape = tensor<256xf32>>, ttcore.shard_status = #ttcore.shard_status<unsharded>, ttir.name = "resnet.encoder.stages.2.layers.4.layer.0.normalization.bias"} loc("p205.1290"), %arg206: tensor<256xf32> {ttcore.argument_type = #ttcore.argument_type<parameter>, ttcore.local_shape = #ttcore<local_shape local_shape = tensor<256xf32>>, ttcore.shard_status = #ttcore.shard_status<unsharded>, ttir.name = "resnet.encoder.stages.2.layers.4.layer.0.normalization.weight"} loc("p206.1294"), %arg207: tensor<256x1024x1x1xf32> {ttcore.argument_type = #ttcore.argument_type<parameter>, ttcore.local_shape = #ttcore<local_shape local_shape = tensor<256x1024x1x1xf32>>, ttcore.shard_status = #ttcore.shard_status<unsharded>, ttir.name = "resnet.encoder.stages.2.layers.4.layer.0.convolution.weight"} loc("p207.1298"), %arg208: tensor<1024xf32> {ttcore.argument_type = #ttcore.argument_type<constant>, ttcore.local_shape = #ttcore<local_shape local_shape = tensor<1024xf32>>, ttcore.shard_status = #ttcore.shard_status<unsharded>, ttir.name = "resnet.encoder.stages.2.layers.5.layer.2.normalization.running_var"} loc("p208.1330"), %arg209: tensor<1024xf32> {ttcore.argument_type = #ttcore.argument_type<constant>, ttcore.local_shape = #ttcore<local_shape local_shape = tensor<1024xf32>>, ttcore.shard_status = #ttcore.shard_status<unsharded>, ttir.name = "resnet.encoder.stages.2.layers.5.layer.2.normalization.running_mean"} loc("p209.1334"), %arg210: tensor<1024xf32> {ttcore.argument_type = #ttcore.argument_type<parameter>, ttcore.local_shape = #ttcore<local_shape local_shape = tensor<1024xf32>>, ttcore.shard_status = #ttcore.shard_status<unsharded>, ttir.name = "resnet.encoder.stages.2.layers.5.layer.2.normalization.bias"} loc("p210.1338"), %arg211: tensor<1024xf32> {ttcore.argument_type = #ttcore.argument_type<parameter>, ttcore.local_shape = #ttcore<local_shape local_shape = tensor<1024xf32>>, ttcore.shard_status = #ttcore.shard_status<unsharded>, ttir.name = "resnet.encoder.stages.2.layers.5.layer.2.normalization.weight"} loc("p211.1342"), %arg212: tensor<1024x256x1x1xf32> {ttcore.argument_type = #ttcore.argument_type<parameter>, ttcore.local_shape = #ttcore<local_shape local_shape = tensor<1024x256x1x1xf32>>, ttcore.shard_status = #ttcore.shard_status<unsharded>, ttir.name = "resnet.encoder.stages.2.layers.5.layer.2.convolution.weight"} loc("p212.1346"), %arg213: tensor<256xf32> {ttcore.argument_type = #ttcore.argument_type<constant>, ttcore.local_shape = #ttcore<local_shape local_shape = tensor<256xf32>>, ttcore.shard_status = #ttcore.shard_status<unsharded>, ttir.name = "resnet.encoder.stages.2.layers.5.layer.1.normalization.running_var"} loc("p213.1348"), %arg214: tensor<256xf32> {ttcore.argument_type = #ttcore.argument_type<constant>, ttcore.local_shape = #ttcore<local_shape local_shape = tensor<256xf32>>, ttcore.shard_status = #ttcore.shard_status<unsharded>, ttir.name = "resnet.encoder.stages.2.layers.5.layer.1.normalization.running_mean"} loc("p214.1352"), %arg215: tensor<256xf32> {ttcore.argument_type = #ttcore.argument_type<parameter>, ttcore.local_shape = #ttcore<local_shape local_shape = tensor<256xf32>>, ttcore.shard_status = #ttcore.shard_status<unsharded>, ttir.name = "resnet.encoder.stages.2.layers.5.layer.1.normalization.bias"} loc("p215.1356"), %arg216: tensor<256xf32> {ttcore.argument_type = #ttcore.argument_type<parameter>, ttcore.local_shape = #ttcore<local_shape local_shape = tensor<256xf32>>, ttcore.shard_status = #ttcore.shard_status<unsharded>, ttir.name = "resnet.encoder.stages.2.layers.5.layer.1.normalization.weight"} loc("p216.1360"), %arg217: tensor<256x256x3x3xf32> {ttcore.argument_type = #ttcore.argument_type<parameter>, ttcore.local_shape = #ttcore<local_shape local_shape = tensor<256x256x3x3xf32>>, ttcore.shard_status = #ttcore.shard_status<unsharded>, ttir.name = "resnet.encoder.stages.2.layers.5.layer.1.convolution.weight"} loc("p217.1364"), %arg218: tensor<256xf32> {ttcore.argument_type = #ttcore.argument_type<constant>, ttcore.local_shape = #ttcore<local_shape local_shape = tensor<256xf32>>, ttcore.shard_status = #ttcore.shard_status<unsharded>, ttir.name = "resnet.encoder.stages.2.layers.5.layer.0.normalization.running_var"} loc("p218.1366"), %arg219: tensor<256xf32> {ttcore.argument_type = #ttcore.argument_type<constant>, ttcore.local_shape = #ttcore<local_shape local_shape = tensor<256xf32>>, ttcore.shard_status = #ttcore.shard_status<unsharded>, ttir.name = "resnet.encoder.stages.2.layers.5.layer.0.normalization.running_mean"} loc("p219.1370"), %arg220: tensor<256xf32> {ttcore.argument_type = #ttcore.argument_type<parameter>, ttcore.local_shape = #ttcore<local_shape local_shape = tensor<256xf32>>, ttcore.shard_status = #ttcore.shard_status<unsharded>, ttir.name = "resnet.encoder.stages.2.layers.5.layer.0.normalization.bias"} loc("p220.1374"), %arg221: tensor<256xf32> {ttcore.argument_type = #ttcore.argument_type<parameter>, ttcore.local_shape = #ttcore<local_shape local_shape = tensor<256xf32>>, ttcore.shard_status = #ttcore.shard_status<unsharded>, ttir.name = "resnet.encoder.stages.2.layers.5.layer.0.normalization.weight"} loc("p221.1378"), %arg222: tensor<256x1024x1x1xf32> {ttcore.argument_type = #ttcore.argument_type<parameter>, ttcore.local_shape = #ttcore<local_shape local_shape = tensor<256x1024x1x1xf32>>, ttcore.shard_status = #ttcore.shard_status<unsharded>, ttir.name = "resnet.encoder.stages.2.layers.5.layer.0.convolution.weight"} loc("p222.1382"), %arg223: tensor<2048xf32> {ttcore.argument_type = #ttcore.argument_type<constant>, ttcore.local_shape = #ttcore<local_shape local_shape = tensor<2048xf32>>, ttcore.shard_status = #ttcore.shard_status<unsharded>, ttir.name = "resnet.encoder.stages.3.layers.0.layer.2.normalization.running_var"} loc("p223.1420"), %arg224: tensor<2048xf32> {ttcore.argument_type = #ttcore.argument_type<constant>, ttcore.local_shape = #ttcore<local_shape local_shape = tensor<2048xf32>>, ttcore.shard_status = #ttcore.shard_status<unsharded>, ttir.name = "resnet.encoder.stages.3.layers.0.layer.2.normalization.running_mean"} loc("p224.1424"), %arg225: tensor<2048xf32> {ttcore.argument_type = #ttcore.argument_type<parameter>, ttcore.local_shape = #ttcore<local_shape local_shape = tensor<2048xf32>>, ttcore.shard_status = #ttcore.shard_status<unsharded>, ttir.name = "resnet.encoder.stages.3.layers.0.layer.2.normalization.bias"} loc("p225.1428"), %arg226: tensor<2048xf32> {ttcore.argument_type = #ttcore.argument_type<parameter>, ttcore.local_shape = #ttcore<local_shape local_shape = tensor<2048xf32>>, ttcore.shard_status = #ttcore.shard_status<unsharded>, ttir.name = "resnet.encoder.stages.3.layers.0.layer.2.normalization.weight"} loc("p226.1432"), %arg227: tensor<2048x512x1x1xf32> {ttcore.argument_type = #ttcore.argument_type<parameter>, ttcore.local_shape = #ttcore<local_shape local_shape = tensor<2048x512x1x1xf32>>, ttcore.shard_status = #ttcore.shard_status<unsharded>, ttir.name = "resnet.encoder.stages.3.layers.0.layer.2.convolution.weight"} loc("p227.1436"), %arg228: tensor<512xf32> {ttcore.argument_type = #ttcore.argument_type<constant>, ttcore.local_shape = #ttcore<local_shape local_shape = tensor<512xf32>>, ttcore.shard_status = #ttcore.shard_status<unsharded>, ttir.name = "resnet.encoder.stages.3.layers.0.layer.1.normalization.running_var"} loc("p228.1438"), %arg229: tensor<512xf32> {ttcore.argument_type = #ttcore.argument_type<constant>, ttcore.local_shape = #ttcore<local_shape local_shape = tensor<512xf32>>, ttcore.shard_status = #ttcore.shard_status<unsharded>, ttir.name = "resnet.encoder.stages.3.layers.0.layer.1.normalization.running_mean"} loc("p229.1442"), %arg230: tensor<512xf32> {ttcore.argument_type = #ttcore.argument_type<parameter>, ttcore.local_shape = #ttcore<local_shape local_shape = tensor<512xf32>>, ttcore.shard_status = #ttcore.shard_status<unsharded>, ttir.name = "resnet.encoder.stages.3.layers.0.layer.1.normalization.bias"} loc("p230.1446"), %arg231: tensor<512xf32> {ttcore.argument_type = #ttcore.argument_type<parameter>, ttcore.local_shape = #ttcore<local_shape local_shape = tensor<512xf32>>, ttcore.shard_status = #ttcore.shard_status<unsharded>, ttir.name = "resnet.encoder.stages.3.layers.0.layer.1.normalization.weight"} loc("p231.1450"), %arg232: tensor<512x512x3x3xf32> {ttcore.argument_type = #ttcore.argument_type<parameter>, ttcore.local_shape = #ttcore<local_shape local_shape = tensor<512x512x3x3xf32>>, ttcore.shard_status = #ttcore.shard_status<unsharded>, ttir.name = "resnet.encoder.stages.3.layers.0.layer.1.convolution.weight"} loc("p232.1454"), %arg233: tensor<512xf32> {ttcore.argument_type = #ttcore.argument_type<constant>, ttcore.local_shape = #ttcore<local_shape local_shape = tensor<512xf32>>, ttcore.shard_status = #ttcore.shard_status<unsharded>, ttir.name = "resnet.encoder.stages.3.layers.0.layer.0.normalization.running_var"} loc("p233.1456"), %arg234: tensor<512xf32> {ttcore.argument_type = #ttcore.argument_type<constant>, ttcore.local_shape = #ttcore<local_shape local_shape = tensor<512xf32>>, ttcore.shard_status = #ttcore.shard_status<unsharded>, ttir.name = "resnet.encoder.stages.3.layers.0.layer.0.normalization.running_mean"} loc("p234.1460"), %arg235: tensor<512xf32> {ttcore.argument_type = #ttcore.argument_type<parameter>, ttcore.local_shape = #ttcore<local_shape local_shape = tensor<512xf32>>, ttcore.shard_status = #ttcore.shard_status<unsharded>, ttir.name = "resnet.encoder.stages.3.layers.0.layer.0.normalization.bias"} loc("p235.1464"), %arg236: tensor<512xf32> {ttcore.argument_type = #ttcore.argument_type<parameter>, ttcore.local_shape = #ttcore<local_shape local_shape = tensor<512xf32>>, ttcore.shard_status = #ttcore.shard_status<unsharded>, ttir.name = "resnet.encoder.stages.3.layers.0.layer.0.normalization.weight"} loc("p236.1468"), %arg237: tensor<512x1024x1x1xf32> {ttcore.argument_type = #ttcore.argument_type<parameter>, ttcore.local_shape = #ttcore<local_shape local_shape = tensor<512x1024x1x1xf32>>, ttcore.shard_status = #ttcore.shard_status<unsharded>, ttir.name = "resnet.encoder.stages.3.layers.0.layer.0.convolution.weight"} loc("p237.1472"), %arg238: tensor<2048xf32> {ttcore.argument_type = #ttcore.argument_type<constant>, ttcore.local_shape = #ttcore<local_shape local_shape = tensor<2048xf32>>, ttcore.shard_status = #ttcore.shard_status<unsharded>, ttir.name = "resnet.encoder.stages.3.layers.1.layer.2.normalization.running_var"} loc("p238.1504"), %arg239: tensor<2048xf32> {ttcore.argument_type = #ttcore.argument_type<constant>, ttcore.local_shape = #ttcore<local_shape local_shape = tensor<2048xf32>>, ttcore.shard_status = #ttcore.shard_status<unsharded>, ttir.name = "resnet.encoder.stages.3.layers.1.layer.2.normalization.running_mean"} loc("p239.1508"), %arg240: tensor<2048xf32> {ttcore.argument_type = #ttcore.argument_type<parameter>, ttcore.local_shape = #ttcore<local_shape local_shape = tensor<2048xf32>>, ttcore.shard_status = #ttcore.shard_status<unsharded>, ttir.name = "resnet.encoder.stages.3.layers.1.layer.2.normalization.bias"} loc("p240.1512"), %arg241: tensor<2048xf32> {ttcore.argument_type = #ttcore.argument_type<parameter>, ttcore.local_shape = #ttcore<local_shape local_shape = tensor<2048xf32>>, ttcore.shard_status = #ttcore.shard_status<unsharded>, ttir.name = "resnet.encoder.stages.3.layers.1.layer.2.normalization.weight"} loc("p241.1516"), %arg242: tensor<2048x512x1x1xf32> {ttcore.argument_type = #ttcore.argument_type<parameter>, ttcore.local_shape = #ttcore<local_shape local_shape = tensor<2048x512x1x1xf32>>, ttcore.shard_status = #ttcore.shard_status<unsharded>, ttir.name = "resnet.encoder.stages.3.layers.1.layer.2.convolution.weight"} loc("p242.1520"), %arg243: tensor<512xf32> {ttcore.argument_type = #ttcore.argument_type<constant>, ttcore.local_shape = #ttcore<local_shape local_shape = tensor<512xf32>>, ttcore.shard_status = #ttcore.shard_status<unsharded>, ttir.name = "resnet.encoder.stages.3.layers.1.layer.1.normalization.running_var"} loc("p243.1522"), %arg244: tensor<512xf32> {ttcore.argument_type = #ttcore.argument_type<constant>, ttcore.local_shape = #ttcore<local_shape local_shape = tensor<512xf32>>, ttcore.shard_status = #ttcore.shard_status<unsharded>, ttir.name = "resnet.encoder.stages.3.layers.1.layer.1.normalization.running_mean"} loc("p244.1526"), %arg245: tensor<512xf32> {ttcore.argument_type = #ttcore.argument_type<parameter>, ttcore.local_shape = #ttcore<local_shape local_shape = tensor<512xf32>>, ttcore.shard_status = #ttcore.shard_status<unsharded>, ttir.name = "resnet.encoder.stages.3.layers.1.layer.1.normalization.bias"} loc("p245.1530"), %arg246: tensor<512xf32> {ttcore.argument_type = #ttcore.argument_type<parameter>, ttcore.local_shape = #ttcore<local_shape local_shape = tensor<512xf32>>, ttcore.shard_status = #ttcore.shard_status<unsharded>, ttir.name = "resnet.encoder.stages.3.layers.1.layer.1.normalization.weight"} loc("p246.1534"), %arg247: tensor<512x512x3x3xf32> {ttcore.argument_type = #ttcore.argument_type<parameter>, ttcore.local_shape = #ttcore<local_shape local_shape = tensor<512x512x3x3xf32>>, ttcore.shard_status = #ttcore.shard_status<unsharded>, ttir.name = "resnet.encoder.stages.3.layers.1.layer.1.convolution.weight"} loc("p247.1538"), %arg248: tensor<512xf32> {ttcore.argument_type = #ttcore.argument_type<constant>, ttcore.local_shape = #ttcore<local_shape local_shape = tensor<512xf32>>, ttcore.shard_status = #ttcore.shard_status<unsharded>, ttir.name = "resnet.encoder.stages.3.layers.1.layer.0.normalization.running_var"} loc("p248.1540"), %arg249: tensor<512xf32> {ttcore.argument_type = #ttcore.argument_type<constant>, ttcore.local_shape = #ttcore<local_shape local_shape = tensor<512xf32>>, ttcore.shard_status = #ttcore.shard_status<unsharded>, ttir.name = "resnet.encoder.stages.3.layers.1.layer.0.normalization.running_mean"} loc("p249.1544"), %arg250: tensor<512xf32> {ttcore.argument_type = #ttcore.argument_type<parameter>, ttcore.local_shape = #ttcore<local_shape local_shape = tensor<512xf32>>, ttcore.shard_status = #ttcore.shard_status<unsharded>, ttir.name = "resnet.encoder.stages.3.layers.1.layer.0.normalization.bias"} loc("p250.1548"), %arg251: tensor<512xf32> {ttcore.argument_type = #ttcore.argument_type<parameter>, ttcore.local_shape = #ttcore<local_shape local_shape = tensor<512xf32>>, ttcore.shard_status = #ttcore.shard_status<unsharded>, ttir.name = "resnet.encoder.stages.3.layers.1.layer.0.normalization.weight"} loc("p251.1552"), %arg252: tensor<512x2048x1x1xf32> {ttcore.argument_type = #ttcore.argument_type<parameter>, ttcore.local_shape = #ttcore<local_shape local_shape = tensor<512x2048x1x1xf32>>, ttcore.shard_status = #ttcore.shard_status<unsharded>, ttir.name = "resnet.encoder.stages.3.layers.1.layer.0.convolution.weight"} loc("p252.1556"), %arg253: tensor<2048xf32> {ttcore.argument_type = #ttcore.argument_type<constant>, ttcore.local_shape = #ttcore<local_shape local_shape = tensor<2048xf32>>, ttcore.shard_status = #ttcore.shard_status<unsharded>, ttir.name = "resnet.encoder.stages.3.layers.2.layer.2.normalization.running_var"} loc("p253.1588"), %arg254: tensor<2048xf32> {ttcore.argument_type = #ttcore.argument_type<constant>, ttcore.local_shape = #ttcore<local_shape local_shape = tensor<2048xf32>>, ttcore.shard_status = #ttcore.shard_status<unsharded>, ttir.name = "resnet.encoder.stages.3.layers.2.layer.2.normalization.running_mean"} loc("p254.1592"), %arg255: tensor<2048xf32> {ttcore.argument_type = #ttcore.argument_type<parameter>, ttcore.local_shape = #ttcore<local_shape local_shape = tensor<2048xf32>>, ttcore.shard_status = #ttcore.shard_status<unsharded>, ttir.name = "resnet.encoder.stages.3.layers.2.layer.2.normalization.bias"} loc("p255.1596"), %arg256: tensor<2048xf32> {ttcore.argument_type = #ttcore.argument_type<parameter>, ttcore.local_shape = #ttcore<local_shape local_shape = tensor<2048xf32>>, ttcore.shard_status = #ttcore.shard_status<unsharded>, ttir.name = "resnet.encoder.stages.3.layers.2.layer.2.normalization.weight"} loc("p256.1600"), %arg257: tensor<2048x512x1x1xf32> {ttcore.argument_type = #ttcore.argument_type<parameter>, ttcore.local_shape = #ttcore<local_shape local_shape = tensor<2048x512x1x1xf32>>, ttcore.shard_status = #ttcore.shard_status<unsharded>, ttir.name = "resnet.encoder.stages.3.layers.2.layer.2.convolution.weight"} loc("p257.1604"), %arg258: tensor<512xf32> {ttcore.argument_type = #ttcore.argument_type<constant>, ttcore.local_shape = #ttcore<local_shape local_shape = tensor<512xf32>>, ttcore.shard_status = #ttcore.shard_status<unsharded>, ttir.name = "resnet.encoder.stages.3.layers.2.layer.1.normalization.running_var"} loc("p258.1606"), %arg259: tensor<512xf32> {ttcore.argument_type = #ttcore.argument_type<constant>, ttcore.local_shape = #ttcore<local_shape local_shape = tensor<512xf32>>, ttcore.shard_status = #ttcore.shard_status<unsharded>, ttir.name = "resnet.encoder.stages.3.layers.2.layer.1.normalization.running_mean"} loc("p259.1610"), %arg260: tensor<512xf32> {ttcore.argument_type = #ttcore.argument_type<parameter>, ttcore.local_shape = #ttcore<local_shape local_shape = tensor<512xf32>>, ttcore.shard_status = #ttcore.shard_status<unsharded>, ttir.name = "resnet.encoder.stages.3.layers.2.layer.1.normalization.bias"} loc("p260.1614"), %arg261: tensor<512xf32> {ttcore.argument_type = #ttcore.argument_type<parameter>, ttcore.local_shape = #ttcore<local_shape local_shape = tensor<512xf32>>, ttcore.shard_status = #ttcore.shard_status<unsharded>, ttir.name = "resnet.encoder.stages.3.layers.2.layer.1.normalization.weight"} loc("p261.1618"), %arg262: tensor<512x512x3x3xf32> {ttcore.argument_type = #ttcore.argument_type<parameter>, ttcore.local_shape = #ttcore<local_shape local_shape = tensor<512x512x3x3xf32>>, ttcore.shard_status = #ttcore.shard_status<unsharded>, ttir.name = "resnet.encoder.stages.3.layers.2.layer.1.convolution.weight"} loc("p262.1622"), %arg263: tensor<512xf32> {ttcore.argument_type = #ttcore.argument_type<constant>, ttcore.local_shape = #ttcore<local_shape local_shape = tensor<512xf32>>, ttcore.shard_status = #ttcore.shard_status<unsharded>, ttir.name = "resnet.encoder.stages.3.layers.2.layer.0.normalization.running_var"} loc("p263.1624"), %arg264: tensor<512xf32> {ttcore.argument_type = #ttcore.argument_type<constant>, ttcore.local_shape = #ttcore<local_shape local_shape = tensor<512xf32>>, ttcore.shard_status = #ttcore.shard_status<unsharded>, ttir.name = "resnet.encoder.stages.3.layers.2.layer.0.normalization.running_mean"} loc("p264.1628"), %arg265: tensor<512xf32> {ttcore.argument_type = #ttcore.argument_type<parameter>, ttcore.local_shape = #ttcore<local_shape local_shape = tensor<512xf32>>, ttcore.shard_status = #ttcore.shard_status<unsharded>, ttir.name = "resnet.encoder.stages.3.layers.2.layer.0.normalization.bias"} loc("p265.1632"), %arg266: tensor<512xf32> {ttcore.argument_type = #ttcore.argument_type<parameter>, ttcore.local_shape = #ttcore<local_shape local_shape = tensor<512xf32>>, ttcore.shard_status = #ttcore.shard_status<unsharded>, ttir.name = "resnet.encoder.stages.3.layers.2.layer.0.normalization.weight"} loc("p266.1636"), %arg267: tensor<512x2048x1x1xf32> {ttcore.argument_type = #ttcore.argument_type<parameter>, ttcore.local_shape = #ttcore<local_shape local_shape = tensor<512x2048x1x1xf32>>, ttcore.shard_status = #ttcore.shard_status<unsharded>, ttir.name = "resnet.encoder.stages.3.layers.2.layer.0.convolution.weight"} loc("p267.1640")) -> (tensor<1x1000xf32> {ttcore.local_shape = #ttcore<local_shape local_shape = tensor<1x1000xf32>>, ttcore.shard_status = #ttcore.shard_status<presharded>}) {
        %0 = "ttir.constant"() <{value = dense<0.0204081628> : tensor<1x2048xf32>}> : () -> tensor<1x2048xf32> loc(#loc)
        %1 = "ttir.constant"() <{value = dense<0.000000e+00> : tensor<1x2048x7x7xf32>}> : () -> tensor<1x2048x7x7xf32> loc(#loc)
        %2 = "ttir.constant"() <{value = dense<0.000000e+00> : tensor<1x512x7x7xf32>}> : () -> tensor<1x512x7x7xf32> loc(#loc)
        %3 = "ttir.constant"() <{value = dense<0.000000e+00> : tensor<1x512x14x14xf32>}> : () -> tensor<1x512x14x14xf32> loc(#loc)
        %4 = "ttir.constant"() <{value = dense<0.000000e+00> : tensor<1x1024x14x14xf32>}> : () -> tensor<1x1024x14x14xf32> loc(#loc)
        %5 = "ttir.constant"() <{value = dense<0.000000e+00> : tensor<1x256x14x14xf32>}> : () -> tensor<1x256x14x14xf32> loc(#loc)
        %6 = "ttir.constant"() <{value = dense<0.000000e+00> : tensor<1x256x28x28xf32>}> : () -> tensor<1x256x28x28xf32> loc(#loc)
        %7 = "ttir.constant"() <{value = dense<0.000000e+00> : tensor<1x512x28x28xf32>}> : () -> tensor<1x512x28x28xf32> loc(#loc)
        %8 = "ttir.constant"() <{value = dense<0.000000e+00> : tensor<1x128x28x28xf32>}> : () -> tensor<1x128x28x28xf32> loc(#loc)
        %9 = "ttir.constant"() <{value = dense<0.000000e+00> : tensor<1x128x56x56xf32>}> : () -> tensor<1x128x56x56xf32> loc(#loc)
        %10 = "ttir.constant"() <{value = dense<0.000000e+00> : tensor<1x256x56x56xf32>}> : () -> tensor<1x256x56x56xf32> loc(#loc)
        %11 = "ttir.constant"() <{value = dense<0.000000e+00> : tensor<1x64x56x56xf32>}> : () -> tensor<1x64x56x56xf32> loc(#loc)
        %12 = "ttir.constant"() <{value = dense<0.000000e+00> : tensor<1x64x112x112xf32>}> : () -> tensor<1x64x112x112xf32> loc(#loc)
        %13 = "ttir.permute"(%arg26) <{permutation = array<i64: 0, 1, 2, 3>}> : (tensor<64x3x7x7xf32>) -> tensor<64x3x7x7xf32> loc(#loc448)
        %14 = "ttir.conv2d"(%arg27, %13) <{batch_dim = 0 : i64, channel_dim = 1 : i64, dilation = array<i32: 1, 1>, groups = 1 : i32, height_dim = 2 : i64, padding = array<i32: 3, 3, 3, 3>, stride = array<i32: 2, 2>, width_dim = 3 : i64}> : (tensor<1x3x224x224xf32>, tensor<64x3x7x7xf32>) -> tensor<1x64x112x112xf32> loc(#loc269)
        %15 = "ttir.batch_norm_inference"(%14, %arg25, %arg24, %arg23, %arg22) <{dimension = 1 : i32, epsilon = 9.99999974E-6 : f32}> : (tensor<1x64x112x112xf32>, tensor<64xf32>, tensor<64xf32>, tensor<64xf32>, tensor<64xf32>) -> tensor<1x64x112x112xf32> loc(#loc270)
        %16 = "ttir.maximum"(%15, %12) : (tensor<1x64x112x112xf32>, tensor<1x64x112x112xf32>) -> tensor<1x64x112x112xf32> loc(#loc271)
        %17 = "ttir.permute"(%16) <{permutation = array<i64: 0, 2, 3, 1>}> : (tensor<1x64x112x112xf32>) -> tensor<1x112x112x64xf32> loc(#loc272)
        %18 = "ttir.max_pool2d"(%17) <{ceil_mode = false, dilation = array<i32: 1, 1>, kernel = array<i32: 3, 3>, padding = array<i32: 1, 1, 1, 1>, stride = array<i32: 2, 2>}> : (tensor<1x112x112x64xf32>) -> tensor<1x56x56x64xf32> loc(#loc272)
        %19 = "ttir.permute"(%18) <{permutation = array<i64: 0, 3, 1, 2>}> : (tensor<1x56x56x64xf32>) -> tensor<1x64x56x56xf32> loc(#loc272)
        %20 = "ttir.permute"(%arg42) <{permutation = array<i64: 0, 1, 2, 3>}> : (tensor<64x64x1x1xf32>) -> tensor<64x64x1x1xf32> loc(#loc449)
        %21 = "ttir.conv2d"(%19, %20) <{batch_dim = 0 : i64, channel_dim = 1 : i64, dilation = array<i32: 1, 1>, groups = 1 : i32, height_dim = 2 : i64, padding = array<i32: 0, 0, 0, 0>, stride = array<i32: 1, 1>, width_dim = 3 : i64}> : (tensor<1x64x56x56xf32>, tensor<64x64x1x1xf32>) -> tensor<1x64x56x56xf32> loc(#loc273)
        %22 = "ttir.batch_norm_inference"(%21, %arg41, %arg40, %arg39, %arg38) <{dimension = 1 : i32, epsilon = 9.99999974E-6 : f32}> : (tensor<1x64x56x56xf32>, tensor<64xf32>, tensor<64xf32>, tensor<64xf32>, tensor<64xf32>) -> tensor<1x64x56x56xf32> loc(#loc274)
        %23 = "ttir.maximum"(%22, %11) : (tensor<1x64x56x56xf32>, tensor<1x64x56x56xf32>) -> tensor<1x64x56x56xf32> loc(#loc275)
        %24 = "ttir.permute"(%arg37) <{permutation = array<i64: 0, 1, 2, 3>}> : (tensor<64x64x3x3xf32>) -> tensor<64x64x3x3xf32> loc(#loc450)
        %25 = "ttir.conv2d"(%23, %24) <{batch_dim = 0 : i64, channel_dim = 1 : i64, dilation = array<i32: 1, 1>, groups = 1 : i32, height_dim = 2 : i64, padding = array<i32: 1, 1, 1, 1>, stride = array<i32: 1, 1>, width_dim = 3 : i64}> : (tensor<1x64x56x56xf32>, tensor<64x64x3x3xf32>) -> tensor<1x64x56x56xf32> loc(#loc276)
        %26 = "ttir.batch_norm_inference"(%25, %arg36, %arg35, %arg34, %arg33) <{dimension = 1 : i32, epsilon = 9.99999974E-6 : f32}> : (tensor<1x64x56x56xf32>, tensor<64xf32>, tensor<64xf32>, tensor<64xf32>, tensor<64xf32>) -> tensor<1x64x56x56xf32> loc(#loc277)
        %27 = "ttir.maximum"(%26, %11) : (tensor<1x64x56x56xf32>, tensor<1x64x56x56xf32>) -> tensor<1x64x56x56xf32> loc(#loc278)
        %28 = "ttir.permute"(%arg32) <{permutation = array<i64: 0, 1, 2, 3>}> : (tensor<256x64x1x1xf32>) -> tensor<256x64x1x1xf32> loc(#loc451)
        %29 = "ttir.conv2d"(%27, %28) <{batch_dim = 0 : i64, channel_dim = 1 : i64, dilation = array<i32: 1, 1>, groups = 1 : i32, height_dim = 2 : i64, padding = array<i32: 0, 0, 0, 0>, stride = array<i32: 1, 1>, width_dim = 3 : i64}> : (tensor<1x64x56x56xf32>, tensor<256x64x1x1xf32>) -> tensor<1x256x56x56xf32> loc(#loc279)
        %30 = "ttir.batch_norm_inference"(%29, %arg31, %arg30, %arg29, %arg28) <{dimension = 1 : i32, epsilon = 9.99999974E-6 : f32}> : (tensor<1x256x56x56xf32>, tensor<256xf32>, tensor<256xf32>, tensor<256xf32>, tensor<256xf32>) -> tensor<1x256x56x56xf32> loc(#loc280)
        %31 = "ttir.permute"(%arg21) <{permutation = array<i64: 0, 1, 2, 3>}> : (tensor<256x64x1x1xf32>) -> tensor<256x64x1x1xf32> loc(#loc452)
        %32 = "ttir.conv2d"(%19, %31) <{batch_dim = 0 : i64, channel_dim = 1 : i64, dilation = array<i32: 1, 1>, groups = 1 : i32, height_dim = 2 : i64, padding = array<i32: 0, 0, 0, 0>, stride = array<i32: 1, 1>, width_dim = 3 : i64}> : (tensor<1x64x56x56xf32>, tensor<256x64x1x1xf32>) -> tensor<1x256x56x56xf32> loc(#loc281)
        %33 = "ttir.batch_norm_inference"(%32, %arg20, %arg19, %arg18, %arg17) <{dimension = 1 : i32, epsilon = 9.99999974E-6 : f32}> : (tensor<1x256x56x56xf32>, tensor<256xf32>, tensor<256xf32>, tensor<256xf32>, tensor<256xf32>) -> tensor<1x256x56x56xf32> loc(#loc282)
        %34 = "ttir.add"(%30, %33) : (tensor<1x256x56x56xf32>, tensor<1x256x56x56xf32>) -> tensor<1x256x56x56xf32> loc(#loc283)
        %35 = "ttir.maximum"(%34, %10) : (tensor<1x256x56x56xf32>, tensor<1x256x56x56xf32>) -> tensor<1x256x56x56xf32> loc(#loc284)
        %36 = "ttir.permute"(%arg57) <{permutation = array<i64: 0, 1, 2, 3>}> : (tensor<64x256x1x1xf32>) -> tensor<64x256x1x1xf32> loc(#loc453)
        %37 = "ttir.conv2d"(%35, %36) <{batch_dim = 0 : i64, channel_dim = 1 : i64, dilation = array<i32: 1, 1>, groups = 1 : i32, height_dim = 2 : i64, padding = array<i32: 0, 0, 0, 0>, stride = array<i32: 1, 1>, width_dim = 3 : i64}> : (tensor<1x256x56x56xf32>, tensor<64x256x1x1xf32>) -> tensor<1x64x56x56xf32> loc(#loc285)
        %38 = "ttir.batch_norm_inference"(%37, %arg56, %arg55, %arg54, %arg53) <{dimension = 1 : i32, epsilon = 9.99999974E-6 : f32}> : (tensor<1x64x56x56xf32>, tensor<64xf32>, tensor<64xf32>, tensor<64xf32>, tensor<64xf32>) -> tensor<1x64x56x56xf32> loc(#loc286)
        %39 = "ttir.maximum"(%38, %11) : (tensor<1x64x56x56xf32>, tensor<1x64x56x56xf32>) -> tensor<1x64x56x56xf32> loc(#loc287)
        %40 = "ttir.permute"(%arg52) <{permutation = array<i64: 0, 1, 2, 3>}> : (tensor<64x64x3x3xf32>) -> tensor<64x64x3x3xf32> loc(#loc454)
        %41 = "ttir.conv2d"(%39, %40) <{batch_dim = 0 : i64, channel_dim = 1 : i64, dilation = array<i32: 1, 1>, groups = 1 : i32, height_dim = 2 : i64, padding = array<i32: 1, 1, 1, 1>, stride = array<i32: 1, 1>, width_dim = 3 : i64}> : (tensor<1x64x56x56xf32>, tensor<64x64x3x3xf32>) -> tensor<1x64x56x56xf32> loc(#loc288)
        %42 = "ttir.batch_norm_inference"(%41, %arg51, %arg50, %arg49, %arg48) <{dimension = 1 : i32, epsilon = 9.99999974E-6 : f32}> : (tensor<1x64x56x56xf32>, tensor<64xf32>, tensor<64xf32>, tensor<64xf32>, tensor<64xf32>) -> tensor<1x64x56x56xf32> loc(#loc289)
        %43 = "ttir.maximum"(%42, %11) : (tensor<1x64x56x56xf32>, tensor<1x64x56x56xf32>) -> tensor<1x64x56x56xf32> loc(#loc290)
        %44 = "ttir.permute"(%arg47) <{permutation = array<i64: 0, 1, 2, 3>}> : (tensor<256x64x1x1xf32>) -> tensor<256x64x1x1xf32> loc(#loc455)
        %45 = "ttir.conv2d"(%43, %44) <{batch_dim = 0 : i64, channel_dim = 1 : i64, dilation = array<i32: 1, 1>, groups = 1 : i32, height_dim = 2 : i64, padding = array<i32: 0, 0, 0, 0>, stride = array<i32: 1, 1>, width_dim = 3 : i64}> : (tensor<1x64x56x56xf32>, tensor<256x64x1x1xf32>) -> tensor<1x256x56x56xf32> loc(#loc291)
        %46 = "ttir.batch_norm_inference"(%45, %arg46, %arg45, %arg44, %arg43) <{dimension = 1 : i32, epsilon = 9.99999974E-6 : f32}> : (tensor<1x256x56x56xf32>, tensor<256xf32>, tensor<256xf32>, tensor<256xf32>, tensor<256xf32>) -> tensor<1x256x56x56xf32> loc(#loc292)
        %47 = "ttir.add"(%46, %35) : (tensor<1x256x56x56xf32>, tensor<1x256x56x56xf32>) -> tensor<1x256x56x56xf32> loc(#loc293)
        %48 = "ttir.maximum"(%47, %10) : (tensor<1x256x56x56xf32>, tensor<1x256x56x56xf32>) -> tensor<1x256x56x56xf32> loc(#loc294)
        %49 = "ttir.permute"(%arg72) <{permutation = array<i64: 0, 1, 2, 3>}> : (tensor<64x256x1x1xf32>) -> tensor<64x256x1x1xf32> loc(#loc456)
        %50 = "ttir.conv2d"(%48, %49) <{batch_dim = 0 : i64, channel_dim = 1 : i64, dilation = array<i32: 1, 1>, groups = 1 : i32, height_dim = 2 : i64, padding = array<i32: 0, 0, 0, 0>, stride = array<i32: 1, 1>, width_dim = 3 : i64}> : (tensor<1x256x56x56xf32>, tensor<64x256x1x1xf32>) -> tensor<1x64x56x56xf32> loc(#loc295)
        %51 = "ttir.batch_norm_inference"(%50, %arg71, %arg70, %arg69, %arg68) <{dimension = 1 : i32, epsilon = 9.99999974E-6 : f32}> : (tensor<1x64x56x56xf32>, tensor<64xf32>, tensor<64xf32>, tensor<64xf32>, tensor<64xf32>) -> tensor<1x64x56x56xf32> loc(#loc296)
        %52 = "ttir.maximum"(%51, %11) : (tensor<1x64x56x56xf32>, tensor<1x64x56x56xf32>) -> tensor<1x64x56x56xf32> loc(#loc297)
        %53 = "ttir.permute"(%arg67) <{permutation = array<i64: 0, 1, 2, 3>}> : (tensor<64x64x3x3xf32>) -> tensor<64x64x3x3xf32> loc(#loc457)
        %54 = "ttir.conv2d"(%52, %53) <{batch_dim = 0 : i64, channel_dim = 1 : i64, dilation = array<i32: 1, 1>, groups = 1 : i32, height_dim = 2 : i64, padding = array<i32: 1, 1, 1, 1>, stride = array<i32: 1, 1>, width_dim = 3 : i64}> : (tensor<1x64x56x56xf32>, tensor<64x64x3x3xf32>) -> tensor<1x64x56x56xf32> loc(#loc298)
        %55 = "ttir.batch_norm_inference"(%54, %arg66, %arg65, %arg64, %arg63) <{dimension = 1 : i32, epsilon = 9.99999974E-6 : f32}> : (tensor<1x64x56x56xf32>, tensor<64xf32>, tensor<64xf32>, tensor<64xf32>, tensor<64xf32>) -> tensor<1x64x56x56xf32> loc(#loc299)
        %56 = "ttir.maximum"(%55, %11) : (tensor<1x64x56x56xf32>, tensor<1x64x56x56xf32>) -> tensor<1x64x56x56xf32> loc(#loc300)
        %57 = "ttir.permute"(%arg62) <{permutation = array<i64: 0, 1, 2, 3>}> : (tensor<256x64x1x1xf32>) -> tensor<256x64x1x1xf32> loc(#loc458)
        %58 = "ttir.conv2d"(%56, %57) <{batch_dim = 0 : i64, channel_dim = 1 : i64, dilation = array<i32: 1, 1>, groups = 1 : i32, height_dim = 2 : i64, padding = array<i32: 0, 0, 0, 0>, stride = array<i32: 1, 1>, width_dim = 3 : i64}> : (tensor<1x64x56x56xf32>, tensor<256x64x1x1xf32>) -> tensor<1x256x56x56xf32> loc(#loc301)
        %59 = "ttir.batch_norm_inference"(%58, %arg61, %arg60, %arg59, %arg58) <{dimension = 1 : i32, epsilon = 9.99999974E-6 : f32}> : (tensor<1x256x56x56xf32>, tensor<256xf32>, tensor<256xf32>, tensor<256xf32>, tensor<256xf32>) -> tensor<1x256x56x56xf32> loc(#loc302)
        %60 = "ttir.add"(%59, %48) : (tensor<1x256x56x56xf32>, tensor<1x256x56x56xf32>) -> tensor<1x256x56x56xf32> loc(#loc303)
        %61 = "ttir.maximum"(%60, %10) : (tensor<1x256x56x56xf32>, tensor<1x256x56x56xf32>) -> tensor<1x256x56x56xf32> loc(#loc304)
        %62 = "ttir.permute"(%arg87) <{permutation = array<i64: 0, 1, 2, 3>}> : (tensor<128x256x1x1xf32>) -> tensor<128x256x1x1xf32> loc(#loc459)
        %63 = "ttir.conv2d"(%61, %62) <{batch_dim = 0 : i64, channel_dim = 1 : i64, dilation = array<i32: 1, 1>, groups = 1 : i32, height_dim = 2 : i64, padding = array<i32: 0, 0, 0, 0>, stride = array<i32: 1, 1>, width_dim = 3 : i64}> : (tensor<1x256x56x56xf32>, tensor<128x256x1x1xf32>) -> tensor<1x128x56x56xf32> loc(#loc305)
        %64 = "ttir.batch_norm_inference"(%63, %arg86, %arg85, %arg84, %arg83) <{dimension = 1 : i32, epsilon = 9.99999974E-6 : f32}> : (tensor<1x128x56x56xf32>, tensor<128xf32>, tensor<128xf32>, tensor<128xf32>, tensor<128xf32>) -> tensor<1x128x56x56xf32> loc(#loc306)
        %65 = "ttir.maximum"(%64, %9) : (tensor<1x128x56x56xf32>, tensor<1x128x56x56xf32>) -> tensor<1x128x56x56xf32> loc(#loc307)
        %66 = "ttir.permute"(%arg82) <{permutation = array<i64: 0, 1, 2, 3>}> : (tensor<128x128x3x3xf32>) -> tensor<128x128x3x3xf32> loc(#loc460)
        %67 = "ttir.conv2d"(%65, %66) <{batch_dim = 0 : i64, channel_dim = 1 : i64, dilation = array<i32: 1, 1>, groups = 1 : i32, height_dim = 2 : i64, padding = array<i32: 1, 1, 1, 1>, stride = array<i32: 2, 2>, width_dim = 3 : i64}> : (tensor<1x128x56x56xf32>, tensor<128x128x3x3xf32>) -> tensor<1x128x28x28xf32> loc(#loc308)
        %68 = "ttir.batch_norm_inference"(%67, %arg81, %arg80, %arg79, %arg78) <{dimension = 1 : i32, epsilon = 9.99999974E-6 : f32}> : (tensor<1x128x28x28xf32>, tensor<128xf32>, tensor<128xf32>, tensor<128xf32>, tensor<128xf32>) -> tensor<1x128x28x28xf32> loc(#loc309)
        %69 = "ttir.maximum"(%68, %8) : (tensor<1x128x28x28xf32>, tensor<1x128x28x28xf32>) -> tensor<1x128x28x28xf32> loc(#loc310)
        %70 = "ttir.permute"(%arg77) <{permutation = array<i64: 0, 1, 2, 3>}> : (tensor<512x128x1x1xf32>) -> tensor<512x128x1x1xf32> loc(#loc461)
        %71 = "ttir.conv2d"(%69, %70) <{batch_dim = 0 : i64, channel_dim = 1 : i64, dilation = array<i32: 1, 1>, groups = 1 : i32, height_dim = 2 : i64, padding = array<i32: 0, 0, 0, 0>, stride = array<i32: 1, 1>, width_dim = 3 : i64}> : (tensor<1x128x28x28xf32>, tensor<512x128x1x1xf32>) -> tensor<1x512x28x28xf32> loc(#loc311)
        %72 = "ttir.batch_norm_inference"(%71, %arg76, %arg75, %arg74, %arg73) <{dimension = 1 : i32, epsilon = 9.99999974E-6 : f32}> : (tensor<1x512x28x28xf32>, tensor<512xf32>, tensor<512xf32>, tensor<512xf32>, tensor<512xf32>) -> tensor<1x512x28x28xf32> loc(#loc312)
        %73 = "ttir.permute"(%arg16) <{permutation = array<i64: 0, 1, 2, 3>}> : (tensor<512x256x1x1xf32>) -> tensor<512x256x1x1xf32> loc(#loc462)
        %74 = "ttir.conv2d"(%61, %73) <{batch_dim = 0 : i64, channel_dim = 1 : i64, dilation = array<i32: 1, 1>, groups = 1 : i32, height_dim = 2 : i64, padding = array<i32: 0, 0, 0, 0>, stride = array<i32: 2, 2>, width_dim = 3 : i64}> : (tensor<1x256x56x56xf32>, tensor<512x256x1x1xf32>) -> tensor<1x512x28x28xf32> loc(#loc313)
        %75 = "ttir.batch_norm_inference"(%74, %arg15, %arg14, %arg13, %arg12) <{dimension = 1 : i32, epsilon = 9.99999974E-6 : f32}> : (tensor<1x512x28x28xf32>, tensor<512xf32>, tensor<512xf32>, tensor<512xf32>, tensor<512xf32>) -> tensor<1x512x28x28xf32> loc(#loc314)
        %76 = "ttir.add"(%72, %75) : (tensor<1x512x28x28xf32>, tensor<1x512x28x28xf32>) -> tensor<1x512x28x28xf32> loc(#loc315)
        %77 = "ttir.maximum"(%76, %7) : (tensor<1x512x28x28xf32>, tensor<1x512x28x28xf32>) -> tensor<1x512x28x28xf32> loc(#loc316)
        %78 = "ttir.permute"(%arg102) <{permutation = array<i64: 0, 1, 2, 3>}> : (tensor<128x512x1x1xf32>) -> tensor<128x512x1x1xf32> loc(#loc463)
        %79 = "ttir.conv2d"(%77, %78) <{batch_dim = 0 : i64, channel_dim = 1 : i64, dilation = array<i32: 1, 1>, groups = 1 : i32, height_dim = 2 : i64, padding = array<i32: 0, 0, 0, 0>, stride = array<i32: 1, 1>, width_dim = 3 : i64}> : (tensor<1x512x28x28xf32>, tensor<128x512x1x1xf32>) -> tensor<1x128x28x28xf32> loc(#loc317)
        %80 = "ttir.batch_norm_inference"(%79, %arg101, %arg100, %arg99, %arg98) <{dimension = 1 : i32, epsilon = 9.99999974E-6 : f32}> : (tensor<1x128x28x28xf32>, tensor<128xf32>, tensor<128xf32>, tensor<128xf32>, tensor<128xf32>) -> tensor<1x128x28x28xf32> loc(#loc318)
        %81 = "ttir.maximum"(%80, %8) : (tensor<1x128x28x28xf32>, tensor<1x128x28x28xf32>) -> tensor<1x128x28x28xf32> loc(#loc319)
        %82 = "ttir.permute"(%arg97) <{permutation = array<i64: 0, 1, 2, 3>}> : (tensor<128x128x3x3xf32>) -> tensor<128x128x3x3xf32> loc(#loc464)
        %83 = "ttir.conv2d"(%81, %82) <{batch_dim = 0 : i64, channel_dim = 1 : i64, dilation = array<i32: 1, 1>, groups = 1 : i32, height_dim = 2 : i64, padding = array<i32: 1, 1, 1, 1>, stride = array<i32: 1, 1>, width_dim = 3 : i64}> : (tensor<1x128x28x28xf32>, tensor<128x128x3x3xf32>) -> tensor<1x128x28x28xf32> loc(#loc320)
        %84 = "ttir.batch_norm_inference"(%83, %arg96, %arg95, %arg94, %arg93) <{dimension = 1 : i32, epsilon = 9.99999974E-6 : f32}> : (tensor<1x128x28x28xf32>, tensor<128xf32>, tensor<128xf32>, tensor<128xf32>, tensor<128xf32>) -> tensor<1x128x28x28xf32> loc(#loc321)
        %85 = "ttir.maximum"(%84, %8) : (tensor<1x128x28x28xf32>, tensor<1x128x28x28xf32>) -> tensor<1x128x28x28xf32> loc(#loc322)
        %86 = "ttir.permute"(%arg92) <{permutation = array<i64: 0, 1, 2, 3>}> : (tensor<512x128x1x1xf32>) -> tensor<512x128x1x1xf32> loc(#loc465)
        %87 = "ttir.conv2d"(%85, %86) <{batch_dim = 0 : i64, channel_dim = 1 : i64, dilation = array<i32: 1, 1>, groups = 1 : i32, height_dim = 2 : i64, padding = array<i32: 0, 0, 0, 0>, stride = array<i32: 1, 1>, width_dim = 3 : i64}> : (tensor<1x128x28x28xf32>, tensor<512x128x1x1xf32>) -> tensor<1x512x28x28xf32> loc(#loc323)
        %88 = "ttir.batch_norm_inference"(%87, %arg91, %arg90, %arg89, %arg88) <{dimension = 1 : i32, epsilon = 9.99999974E-6 : f32}> : (tensor<1x512x28x28xf32>, tensor<512xf32>, tensor<512xf32>, tensor<512xf32>, tensor<512xf32>) -> tensor<1x512x28x28xf32> loc(#loc324)
        %89 = "ttir.add"(%88, %77) : (tensor<1x512x28x28xf32>, tensor<1x512x28x28xf32>) -> tensor<1x512x28x28xf32> loc(#loc325)
        %90 = "ttir.maximum"(%89, %7) : (tensor<1x512x28x28xf32>, tensor<1x512x28x28xf32>) -> tensor<1x512x28x28xf32> loc(#loc326)
        %91 = "ttir.permute"(%arg117) <{permutation = array<i64: 0, 1, 2, 3>}> : (tensor<128x512x1x1xf32>) -> tensor<128x512x1x1xf32> loc(#loc466)
        %92 = "ttir.conv2d"(%90, %91) <{batch_dim = 0 : i64, channel_dim = 1 : i64, dilation = array<i32: 1, 1>, groups = 1 : i32, height_dim = 2 : i64, padding = array<i32: 0, 0, 0, 0>, stride = array<i32: 1, 1>, width_dim = 3 : i64}> : (tensor<1x512x28x28xf32>, tensor<128x512x1x1xf32>) -> tensor<1x128x28x28xf32> loc(#loc327)
        %93 = "ttir.batch_norm_inference"(%92, %arg116, %arg115, %arg114, %arg113) <{dimension = 1 : i32, epsilon = 9.99999974E-6 : f32}> : (tensor<1x128x28x28xf32>, tensor<128xf32>, tensor<128xf32>, tensor<128xf32>, tensor<128xf32>) -> tensor<1x128x28x28xf32> loc(#loc328)
        %94 = "ttir.maximum"(%93, %8) : (tensor<1x128x28x28xf32>, tensor<1x128x28x28xf32>) -> tensor<1x128x28x28xf32> loc(#loc329)
        %95 = "ttir.permute"(%arg112) <{permutation = array<i64: 0, 1, 2, 3>}> : (tensor<128x128x3x3xf32>) -> tensor<128x128x3x3xf32> loc(#loc467)
        %96 = "ttir.conv2d"(%94, %95) <{batch_dim = 0 : i64, channel_dim = 1 : i64, dilation = array<i32: 1, 1>, groups = 1 : i32, height_dim = 2 : i64, padding = array<i32: 1, 1, 1, 1>, stride = array<i32: 1, 1>, width_dim = 3 : i64}> : (tensor<1x128x28x28xf32>, tensor<128x128x3x3xf32>) -> tensor<1x128x28x28xf32> loc(#loc330)
        %97 = "ttir.batch_norm_inference"(%96, %arg111, %arg110, %arg109, %arg108) <{dimension = 1 : i32, epsilon = 9.99999974E-6 : f32}> : (tensor<1x128x28x28xf32>, tensor<128xf32>, tensor<128xf32>, tensor<128xf32>, tensor<128xf32>) -> tensor<1x128x28x28xf32> loc(#loc331)
        %98 = "ttir.maximum"(%97, %8) : (tensor<1x128x28x28xf32>, tensor<1x128x28x28xf32>) -> tensor<1x128x28x28xf32> loc(#loc332)
        %99 = "ttir.permute"(%arg107) <{permutation = array<i64: 0, 1, 2, 3>}> : (tensor<512x128x1x1xf32>) -> tensor<512x128x1x1xf32> loc(#loc468)
        %100 = "ttir.conv2d"(%98, %99) <{batch_dim = 0 : i64, channel_dim = 1 : i64, dilation = array<i32: 1, 1>, groups = 1 : i32, height_dim = 2 : i64, padding = array<i32: 0, 0, 0, 0>, stride = array<i32: 1, 1>, width_dim = 3 : i64}> : (tensor<1x128x28x28xf32>, tensor<512x128x1x1xf32>) -> tensor<1x512x28x28xf32> loc(#loc333)
        %101 = "ttir.batch_norm_inference"(%100, %arg106, %arg105, %arg104, %arg103) <{dimension = 1 : i32, epsilon = 9.99999974E-6 : f32}> : (tensor<1x512x28x28xf32>, tensor<512xf32>, tensor<512xf32>, tensor<512xf32>, tensor<512xf32>) -> tensor<1x512x28x28xf32> loc(#loc334)
        %102 = "ttir.add"(%101, %90) : (tensor<1x512x28x28xf32>, tensor<1x512x28x28xf32>) -> tensor<1x512x28x28xf32> loc(#loc335)
        %103 = "ttir.maximum"(%102, %7) : (tensor<1x512x28x28xf32>, tensor<1x512x28x28xf32>) -> tensor<1x512x28x28xf32> loc(#loc336)
        %104 = "ttir.permute"(%arg132) <{permutation = array<i64: 0, 1, 2, 3>}> : (tensor<128x512x1x1xf32>) -> tensor<128x512x1x1xf32> loc(#loc469)
        %105 = "ttir.conv2d"(%103, %104) <{batch_dim = 0 : i64, channel_dim = 1 : i64, dilation = array<i32: 1, 1>, groups = 1 : i32, height_dim = 2 : i64, padding = array<i32: 0, 0, 0, 0>, stride = array<i32: 1, 1>, width_dim = 3 : i64}> : (tensor<1x512x28x28xf32>, tensor<128x512x1x1xf32>) -> tensor<1x128x28x28xf32> loc(#loc337)
        %106 = "ttir.batch_norm_inference"(%105, %arg131, %arg130, %arg129, %arg128) <{dimension = 1 : i32, epsilon = 9.99999974E-6 : f32}> : (tensor<1x128x28x28xf32>, tensor<128xf32>, tensor<128xf32>, tensor<128xf32>, tensor<128xf32>) -> tensor<1x128x28x28xf32> loc(#loc338)
        %107 = "ttir.maximum"(%106, %8) : (tensor<1x128x28x28xf32>, tensor<1x128x28x28xf32>) -> tensor<1x128x28x28xf32> loc(#loc339)
        %108 = "ttir.permute"(%arg127) <{permutation = array<i64: 0, 1, 2, 3>}> : (tensor<128x128x3x3xf32>) -> tensor<128x128x3x3xf32> loc(#loc470)
        %109 = "ttir.conv2d"(%107, %108) <{batch_dim = 0 : i64, channel_dim = 1 : i64, dilation = array<i32: 1, 1>, groups = 1 : i32, height_dim = 2 : i64, padding = array<i32: 1, 1, 1, 1>, stride = array<i32: 1, 1>, width_dim = 3 : i64}> : (tensor<1x128x28x28xf32>, tensor<128x128x3x3xf32>) -> tensor<1x128x28x28xf32> loc(#loc340)
        %110 = "ttir.batch_norm_inference"(%109, %arg126, %arg125, %arg124, %arg123) <{dimension = 1 : i32, epsilon = 9.99999974E-6 : f32}> : (tensor<1x128x28x28xf32>, tensor<128xf32>, tensor<128xf32>, tensor<128xf32>, tensor<128xf32>) -> tensor<1x128x28x28xf32> loc(#loc341)
        %111 = "ttir.maximum"(%110, %8) : (tensor<1x128x28x28xf32>, tensor<1x128x28x28xf32>) -> tensor<1x128x28x28xf32> loc(#loc342)
        %112 = "ttir.permute"(%arg122) <{permutation = array<i64: 0, 1, 2, 3>}> : (tensor<512x128x1x1xf32>) -> tensor<512x128x1x1xf32> loc(#loc471)
        %113 = "ttir.conv2d"(%111, %112) <{batch_dim = 0 : i64, channel_dim = 1 : i64, dilation = array<i32: 1, 1>, groups = 1 : i32, height_dim = 2 : i64, padding = array<i32: 0, 0, 0, 0>, stride = array<i32: 1, 1>, width_dim = 3 : i64}> : (tensor<1x128x28x28xf32>, tensor<512x128x1x1xf32>) -> tensor<1x512x28x28xf32> loc(#loc343)
        %114 = "ttir.batch_norm_inference"(%113, %arg121, %arg120, %arg119, %arg118) <{dimension = 1 : i32, epsilon = 9.99999974E-6 : f32}> : (tensor<1x512x28x28xf32>, tensor<512xf32>, tensor<512xf32>, tensor<512xf32>, tensor<512xf32>) -> tensor<1x512x28x28xf32> loc(#loc344)
        %115 = "ttir.add"(%114, %103) : (tensor<1x512x28x28xf32>, tensor<1x512x28x28xf32>) -> tensor<1x512x28x28xf32> loc(#loc345)
        %116 = "ttir.maximum"(%115, %7) : (tensor<1x512x28x28xf32>, tensor<1x512x28x28xf32>) -> tensor<1x512x28x28xf32> loc(#loc346)
        %117 = "ttir.permute"(%arg147) <{permutation = array<i64: 0, 1, 2, 3>}> : (tensor<256x512x1x1xf32>) -> tensor<256x512x1x1xf32> loc(#loc472)
        %118 = "ttir.conv2d"(%116, %117) <{batch_dim = 0 : i64, channel_dim = 1 : i64, dilation = array<i32: 1, 1>, groups = 1 : i32, height_dim = 2 : i64, padding = array<i32: 0, 0, 0, 0>, stride = array<i32: 1, 1>, width_dim = 3 : i64}> : (tensor<1x512x28x28xf32>, tensor<256x512x1x1xf32>) -> tensor<1x256x28x28xf32> loc(#loc347)
        %119 = "ttir.batch_norm_inference"(%118, %arg146, %arg145, %arg144, %arg143) <{dimension = 1 : i32, epsilon = 9.99999974E-6 : f32}> : (tensor<1x256x28x28xf32>, tensor<256xf32>, tensor<256xf32>, tensor<256xf32>, tensor<256xf32>) -> tensor<1x256x28x28xf32> loc(#loc348)
        %120 = "ttir.maximum"(%119, %6) : (tensor<1x256x28x28xf32>, tensor<1x256x28x28xf32>) -> tensor<1x256x28x28xf32> loc(#loc349)
        %121 = "ttir.permute"(%arg142) <{permutation = array<i64: 0, 1, 2, 3>}> : (tensor<256x256x3x3xf32>) -> tensor<256x256x3x3xf32> loc(#loc473)
        %122 = "ttir.conv2d"(%120, %121) <{batch_dim = 0 : i64, channel_dim = 1 : i64, dilation = array<i32: 1, 1>, groups = 1 : i32, height_dim = 2 : i64, padding = array<i32: 1, 1, 1, 1>, stride = array<i32: 2, 2>, width_dim = 3 : i64}> : (tensor<1x256x28x28xf32>, tensor<256x256x3x3xf32>) -> tensor<1x256x14x14xf32> loc(#loc350)
        %123 = "ttir.batch_norm_inference"(%122, %arg141, %arg140, %arg139, %arg138) <{dimension = 1 : i32, epsilon = 9.99999974E-6 : f32}> : (tensor<1x256x14x14xf32>, tensor<256xf32>, tensor<256xf32>, tensor<256xf32>, tensor<256xf32>) -> tensor<1x256x14x14xf32> loc(#loc351)
        %124 = "ttir.maximum"(%123, %5) : (tensor<1x256x14x14xf32>, tensor<1x256x14x14xf32>) -> tensor<1x256x14x14xf32> loc(#loc352)
        %125 = "ttir.permute"(%arg137) <{permutation = array<i64: 0, 1, 2, 3>}> : (tensor<1024x256x1x1xf32>) -> tensor<1024x256x1x1xf32> loc(#loc474)
        %126 = "ttir.conv2d"(%124, %125) <{batch_dim = 0 : i64, channel_dim = 1 : i64, dilation = array<i32: 1, 1>, groups = 1 : i32, height_dim = 2 : i64, padding = array<i32: 0, 0, 0, 0>, stride = array<i32: 1, 1>, width_dim = 3 : i64}> : (tensor<1x256x14x14xf32>, tensor<1024x256x1x1xf32>) -> tensor<1x1024x14x14xf32> loc(#loc353)
        %127 = "ttir.batch_norm_inference"(%126, %arg136, %arg135, %arg134, %arg133) <{dimension = 1 : i32, epsilon = 9.99999974E-6 : f32}> : (tensor<1x1024x14x14xf32>, tensor<1024xf32>, tensor<1024xf32>, tensor<1024xf32>, tensor<1024xf32>) -> tensor<1x1024x14x14xf32> loc(#loc354)
        %128 = "ttir.permute"(%arg11) <{permutation = array<i64: 0, 1, 2, 3>}> : (tensor<1024x512x1x1xf32>) -> tensor<1024x512x1x1xf32> loc(#loc475)
        %129 = "ttir.conv2d"(%116, %128) <{batch_dim = 0 : i64, channel_dim = 1 : i64, dilation = array<i32: 1, 1>, groups = 1 : i32, height_dim = 2 : i64, padding = array<i32: 0, 0, 0, 0>, stride = array<i32: 2, 2>, width_dim = 3 : i64}> : (tensor<1x512x28x28xf32>, tensor<1024x512x1x1xf32>) -> tensor<1x1024x14x14xf32> loc(#loc355)
        %130 = "ttir.batch_norm_inference"(%129, %arg10, %arg9, %arg8, %arg7) <{dimension = 1 : i32, epsilon = 9.99999974E-6 : f32}> : (tensor<1x1024x14x14xf32>, tensor<1024xf32>, tensor<1024xf32>, tensor<1024xf32>, tensor<1024xf32>) -> tensor<1x1024x14x14xf32> loc(#loc356)
        %131 = "ttir.add"(%127, %130) : (tensor<1x1024x14x14xf32>, tensor<1x1024x14x14xf32>) -> tensor<1x1024x14x14xf32> loc(#loc357)
        %132 = "ttir.maximum"(%131, %4) : (tensor<1x1024x14x14xf32>, tensor<1x1024x14x14xf32>) -> tensor<1x1024x14x14xf32> loc(#loc358)
        %133 = "ttir.permute"(%arg162) <{permutation = array<i64: 0, 1, 2, 3>}> : (tensor<256x1024x1x1xf32>) -> tensor<256x1024x1x1xf32> loc(#loc476)
        %134 = "ttir.conv2d"(%132, %133) <{batch_dim = 0 : i64, channel_dim = 1 : i64, dilation = array<i32: 1, 1>, groups = 1 : i32, height_dim = 2 : i64, padding = array<i32: 0, 0, 0, 0>, stride = array<i32: 1, 1>, width_dim = 3 : i64}> : (tensor<1x1024x14x14xf32>, tensor<256x1024x1x1xf32>) -> tensor<1x256x14x14xf32> loc(#loc359)
        %135 = "ttir.batch_norm_inference"(%134, %arg161, %arg160, %arg159, %arg158) <{dimension = 1 : i32, epsilon = 9.99999974E-6 : f32}> : (tensor<1x256x14x14xf32>, tensor<256xf32>, tensor<256xf32>, tensor<256xf32>, tensor<256xf32>) -> tensor<1x256x14x14xf32> loc(#loc360)
        %136 = "ttir.maximum"(%135, %5) : (tensor<1x256x14x14xf32>, tensor<1x256x14x14xf32>) -> tensor<1x256x14x14xf32> loc(#loc361)
        %137 = "ttir.permute"(%arg157) <{permutation = array<i64: 0, 1, 2, 3>}> : (tensor<256x256x3x3xf32>) -> tensor<256x256x3x3xf32> loc(#loc477)
        %138 = "ttir.conv2d"(%136, %137) <{batch_dim = 0 : i64, channel_dim = 1 : i64, dilation = array<i32: 1, 1>, groups = 1 : i32, height_dim = 2 : i64, padding = array<i32: 1, 1, 1, 1>, stride = array<i32: 1, 1>, width_dim = 3 : i64}> : (tensor<1x256x14x14xf32>, tensor<256x256x3x3xf32>) -> tensor<1x256x14x14xf32> loc(#loc362)
        %139 = "ttir.batch_norm_inference"(%138, %arg156, %arg155, %arg154, %arg153) <{dimension = 1 : i32, epsilon = 9.99999974E-6 : f32}> : (tensor<1x256x14x14xf32>, tensor<256xf32>, tensor<256xf32>, tensor<256xf32>, tensor<256xf32>) -> tensor<1x256x14x14xf32> loc(#loc363)
        %140 = "ttir.maximum"(%139, %5) : (tensor<1x256x14x14xf32>, tensor<1x256x14x14xf32>) -> tensor<1x256x14x14xf32> loc(#loc364)
        %141 = "ttir.permute"(%arg152) <{permutation = array<i64: 0, 1, 2, 3>}> : (tensor<1024x256x1x1xf32>) -> tensor<1024x256x1x1xf32> loc(#loc478)
        %142 = "ttir.conv2d"(%140, %141) <{batch_dim = 0 : i64, channel_dim = 1 : i64, dilation = array<i32: 1, 1>, groups = 1 : i32, height_dim = 2 : i64, padding = array<i32: 0, 0, 0, 0>, stride = array<i32: 1, 1>, width_dim = 3 : i64}> : (tensor<1x256x14x14xf32>, tensor<1024x256x1x1xf32>) -> tensor<1x1024x14x14xf32> loc(#loc365)
        %143 = "ttir.batch_norm_inference"(%142, %arg151, %arg150, %arg149, %arg148) <{dimension = 1 : i32, epsilon = 9.99999974E-6 : f32}> : (tensor<1x1024x14x14xf32>, tensor<1024xf32>, tensor<1024xf32>, tensor<1024xf32>, tensor<1024xf32>) -> tensor<1x1024x14x14xf32> loc(#loc366)
        %144 = "ttir.add"(%143, %132) : (tensor<1x1024x14x14xf32>, tensor<1x1024x14x14xf32>) -> tensor<1x1024x14x14xf32> loc(#loc367)
        %145 = "ttir.maximum"(%144, %4) : (tensor<1x1024x14x14xf32>, tensor<1x1024x14x14xf32>) -> tensor<1x1024x14x14xf32> loc(#loc368)
        %146 = "ttir.permute"(%arg177) <{permutation = array<i64: 0, 1, 2, 3>}> : (tensor<256x1024x1x1xf32>) -> tensor<256x1024x1x1xf32> loc(#loc479)
        %147 = "ttir.conv2d"(%145, %146) <{batch_dim = 0 : i64, channel_dim = 1 : i64, dilation = array<i32: 1, 1>, groups = 1 : i32, height_dim = 2 : i64, padding = array<i32: 0, 0, 0, 0>, stride = array<i32: 1, 1>, width_dim = 3 : i64}> : (tensor<1x1024x14x14xf32>, tensor<256x1024x1x1xf32>) -> tensor<1x256x14x14xf32> loc(#loc369)
        %148 = "ttir.batch_norm_inference"(%147, %arg176, %arg175, %arg174, %arg173) <{dimension = 1 : i32, epsilon = 9.99999974E-6 : f32}> : (tensor<1x256x14x14xf32>, tensor<256xf32>, tensor<256xf32>, tensor<256xf32>, tensor<256xf32>) -> tensor<1x256x14x14xf32> loc(#loc370)
        %149 = "ttir.maximum"(%148, %5) : (tensor<1x256x14x14xf32>, tensor<1x256x14x14xf32>) -> tensor<1x256x14x14xf32> loc(#loc371)
        %150 = "ttir.permute"(%arg172) <{permutation = array<i64: 0, 1, 2, 3>}> : (tensor<256x256x3x3xf32>) -> tensor<256x256x3x3xf32> loc(#loc480)
        %151 = "ttir.conv2d"(%149, %150) <{batch_dim = 0 : i64, channel_dim = 1 : i64, dilation = array<i32: 1, 1>, groups = 1 : i32, height_dim = 2 : i64, padding = array<i32: 1, 1, 1, 1>, stride = array<i32: 1, 1>, width_dim = 3 : i64}> : (tensor<1x256x14x14xf32>, tensor<256x256x3x3xf32>) -> tensor<1x256x14x14xf32> loc(#loc372)
        %152 = "ttir.batch_norm_inference"(%151, %arg171, %arg170, %arg169, %arg168) <{dimension = 1 : i32, epsilon = 9.99999974E-6 : f32}> : (tensor<1x256x14x14xf32>, tensor<256xf32>, tensor<256xf32>, tensor<256xf32>, tensor<256xf32>) -> tensor<1x256x14x14xf32> loc(#loc373)
        %153 = "ttir.maximum"(%152, %5) : (tensor<1x256x14x14xf32>, tensor<1x256x14x14xf32>) -> tensor<1x256x14x14xf32> loc(#loc374)
        %154 = "ttir.permute"(%arg167) <{permutation = array<i64: 0, 1, 2, 3>}> : (tensor<1024x256x1x1xf32>) -> tensor<1024x256x1x1xf32> loc(#loc481)
        %155 = "ttir.conv2d"(%153, %154) <{batch_dim = 0 : i64, channel_dim = 1 : i64, dilation = array<i32: 1, 1>, groups = 1 : i32, height_dim = 2 : i64, padding = array<i32: 0, 0, 0, 0>, stride = array<i32: 1, 1>, width_dim = 3 : i64}> : (tensor<1x256x14x14xf32>, tensor<1024x256x1x1xf32>) -> tensor<1x1024x14x14xf32> loc(#loc375)
        %156 = "ttir.batch_norm_inference"(%155, %arg166, %arg165, %arg164, %arg163) <{dimension = 1 : i32, epsilon = 9.99999974E-6 : f32}> : (tensor<1x1024x14x14xf32>, tensor<1024xf32>, tensor<1024xf32>, tensor<1024xf32>, tensor<1024xf32>) -> tensor<1x1024x14x14xf32> loc(#loc376)
        %157 = "ttir.add"(%156, %145) : (tensor<1x1024x14x14xf32>, tensor<1x1024x14x14xf32>) -> tensor<1x1024x14x14xf32> loc(#loc377)
        %158 = "ttir.maximum"(%157, %4) : (tensor<1x1024x14x14xf32>, tensor<1x1024x14x14xf32>) -> tensor<1x1024x14x14xf32> loc(#loc378)
        %159 = "ttir.permute"(%arg192) <{permutation = array<i64: 0, 1, 2, 3>}> : (tensor<256x1024x1x1xf32>) -> tensor<256x1024x1x1xf32> loc(#loc482)
        %160 = "ttir.conv2d"(%158, %159) <{batch_dim = 0 : i64, channel_dim = 1 : i64, dilation = array<i32: 1, 1>, groups = 1 : i32, height_dim = 2 : i64, padding = array<i32: 0, 0, 0, 0>, stride = array<i32: 1, 1>, width_dim = 3 : i64}> : (tensor<1x1024x14x14xf32>, tensor<256x1024x1x1xf32>) -> tensor<1x256x14x14xf32> loc(#loc379)
        %161 = "ttir.batch_norm_inference"(%160, %arg191, %arg190, %arg189, %arg188) <{dimension = 1 : i32, epsilon = 9.99999974E-6 : f32}> : (tensor<1x256x14x14xf32>, tensor<256xf32>, tensor<256xf32>, tensor<256xf32>, tensor<256xf32>) -> tensor<1x256x14x14xf32> loc(#loc380)
        %162 = "ttir.maximum"(%161, %5) : (tensor<1x256x14x14xf32>, tensor<1x256x14x14xf32>) -> tensor<1x256x14x14xf32> loc(#loc381)
        %163 = "ttir.permute"(%arg187) <{permutation = array<i64: 0, 1, 2, 3>}> : (tensor<256x256x3x3xf32>) -> tensor<256x256x3x3xf32> loc(#loc483)
        %164 = "ttir.conv2d"(%162, %163) <{batch_dim = 0 : i64, channel_dim = 1 : i64, dilation = array<i32: 1, 1>, groups = 1 : i32, height_dim = 2 : i64, padding = array<i32: 1, 1, 1, 1>, stride = array<i32: 1, 1>, width_dim = 3 : i64}> : (tensor<1x256x14x14xf32>, tensor<256x256x3x3xf32>) -> tensor<1x256x14x14xf32> loc(#loc382)
        %165 = "ttir.batch_norm_inference"(%164, %arg186, %arg185, %arg184, %arg183) <{dimension = 1 : i32, epsilon = 9.99999974E-6 : f32}> : (tensor<1x256x14x14xf32>, tensor<256xf32>, tensor<256xf32>, tensor<256xf32>, tensor<256xf32>) -> tensor<1x256x14x14xf32> loc(#loc383)
        %166 = "ttir.maximum"(%165, %5) : (tensor<1x256x14x14xf32>, tensor<1x256x14x14xf32>) -> tensor<1x256x14x14xf32> loc(#loc384)
        %167 = "ttir.permute"(%arg182) <{permutation = array<i64: 0, 1, 2, 3>}> : (tensor<1024x256x1x1xf32>) -> tensor<1024x256x1x1xf32> loc(#loc484)
        %168 = "ttir.conv2d"(%166, %167) <{batch_dim = 0 : i64, channel_dim = 1 : i64, dilation = array<i32: 1, 1>, groups = 1 : i32, height_dim = 2 : i64, padding = array<i32: 0, 0, 0, 0>, stride = array<i32: 1, 1>, width_dim = 3 : i64}> : (tensor<1x256x14x14xf32>, tensor<1024x256x1x1xf32>) -> tensor<1x1024x14x14xf32> loc(#loc385)
        %169 = "ttir.batch_norm_inference"(%168, %arg181, %arg180, %arg179, %arg178) <{dimension = 1 : i32, epsilon = 9.99999974E-6 : f32}> : (tensor<1x1024x14x14xf32>, tensor<1024xf32>, tensor<1024xf32>, tensor<1024xf32>, tensor<1024xf32>) -> tensor<1x1024x14x14xf32> loc(#loc386)
        %170 = "ttir.add"(%169, %158) : (tensor<1x1024x14x14xf32>, tensor<1x1024x14x14xf32>) -> tensor<1x1024x14x14xf32> loc(#loc387)
        %171 = "ttir.maximum"(%170, %4) : (tensor<1x1024x14x14xf32>, tensor<1x1024x14x14xf32>) -> tensor<1x1024x14x14xf32> loc(#loc388)
        %172 = "ttir.permute"(%arg207) <{permutation = array<i64: 0, 1, 2, 3>}> : (tensor<256x1024x1x1xf32>) -> tensor<256x1024x1x1xf32> loc(#loc485)
        %173 = "ttir.conv2d"(%171, %172) <{batch_dim = 0 : i64, channel_dim = 1 : i64, dilation = array<i32: 1, 1>, groups = 1 : i32, height_dim = 2 : i64, padding = array<i32: 0, 0, 0, 0>, stride = array<i32: 1, 1>, width_dim = 3 : i64}> : (tensor<1x1024x14x14xf32>, tensor<256x1024x1x1xf32>) -> tensor<1x256x14x14xf32> loc(#loc389)
        %174 = "ttir.batch_norm_inference"(%173, %arg206, %arg205, %arg204, %arg203) <{dimension = 1 : i32, epsilon = 9.99999974E-6 : f32}> : (tensor<1x256x14x14xf32>, tensor<256xf32>, tensor<256xf32>, tensor<256xf32>, tensor<256xf32>) -> tensor<1x256x14x14xf32> loc(#loc390)
        %175 = "ttir.maximum"(%174, %5) : (tensor<1x256x14x14xf32>, tensor<1x256x14x14xf32>) -> tensor<1x256x14x14xf32> loc(#loc391)
        %176 = "ttir.permute"(%arg202) <{permutation = array<i64: 0, 1, 2, 3>}> : (tensor<256x256x3x3xf32>) -> tensor<256x256x3x3xf32> loc(#loc486)
        %177 = "ttir.conv2d"(%175, %176) <{batch_dim = 0 : i64, channel_dim = 1 : i64, dilation = array<i32: 1, 1>, groups = 1 : i32, height_dim = 2 : i64, padding = array<i32: 1, 1, 1, 1>, stride = array<i32: 1, 1>, width_dim = 3 : i64}> : (tensor<1x256x14x14xf32>, tensor<256x256x3x3xf32>) -> tensor<1x256x14x14xf32> loc(#loc392)
        %178 = "ttir.batch_norm_inference"(%177, %arg201, %arg200, %arg199, %arg198) <{dimension = 1 : i32, epsilon = 9.99999974E-6 : f32}> : (tensor<1x256x14x14xf32>, tensor<256xf32>, tensor<256xf32>, tensor<256xf32>, tensor<256xf32>) -> tensor<1x256x14x14xf32> loc(#loc393)
        %179 = "ttir.maximum"(%178, %5) : (tensor<1x256x14x14xf32>, tensor<1x256x14x14xf32>) -> tensor<1x256x14x14xf32> loc(#loc394)
        %180 = "ttir.permute"(%arg197) <{permutation = array<i64: 0, 1, 2, 3>}> : (tensor<1024x256x1x1xf32>) -> tensor<1024x256x1x1xf32> loc(#loc487)
        %181 = "ttir.conv2d"(%179, %180) <{batch_dim = 0 : i64, channel_dim = 1 : i64, dilation = array<i32: 1, 1>, groups = 1 : i32, height_dim = 2 : i64, padding = array<i32: 0, 0, 0, 0>, stride = array<i32: 1, 1>, width_dim = 3 : i64}> : (tensor<1x256x14x14xf32>, tensor<1024x256x1x1xf32>) -> tensor<1x1024x14x14xf32> loc(#loc395)
        %182 = "ttir.batch_norm_inference"(%181, %arg196, %arg195, %arg194, %arg193) <{dimension = 1 : i32, epsilon = 9.99999974E-6 : f32}> : (tensor<1x1024x14x14xf32>, tensor<1024xf32>, tensor<1024xf32>, tensor<1024xf32>, tensor<1024xf32>) -> tensor<1x1024x14x14xf32> loc(#loc396)
        %183 = "ttir.add"(%182, %171) : (tensor<1x1024x14x14xf32>, tensor<1x1024x14x14xf32>) -> tensor<1x1024x14x14xf32> loc(#loc397)
        %184 = "ttir.maximum"(%183, %4) : (tensor<1x1024x14x14xf32>, tensor<1x1024x14x14xf32>) -> tensor<1x1024x14x14xf32> loc(#loc398)
        %185 = "ttir.permute"(%arg222) <{permutation = array<i64: 0, 1, 2, 3>}> : (tensor<256x1024x1x1xf32>) -> tensor<256x1024x1x1xf32> loc(#loc488)
        %186 = "ttir.conv2d"(%184, %185) <{batch_dim = 0 : i64, channel_dim = 1 : i64, dilation = array<i32: 1, 1>, groups = 1 : i32, height_dim = 2 : i64, padding = array<i32: 0, 0, 0, 0>, stride = array<i32: 1, 1>, width_dim = 3 : i64}> : (tensor<1x1024x14x14xf32>, tensor<256x1024x1x1xf32>) -> tensor<1x256x14x14xf32> loc(#loc399)
        %187 = "ttir.batch_norm_inference"(%186, %arg221, %arg220, %arg219, %arg218) <{dimension = 1 : i32, epsilon = 9.99999974E-6 : f32}> : (tensor<1x256x14x14xf32>, tensor<256xf32>, tensor<256xf32>, tensor<256xf32>, tensor<256xf32>) -> tensor<1x256x14x14xf32> loc(#loc400)
        %188 = "ttir.maximum"(%187, %5) : (tensor<1x256x14x14xf32>, tensor<1x256x14x14xf32>) -> tensor<1x256x14x14xf32> loc(#loc401)
        %189 = "ttir.permute"(%arg217) <{permutation = array<i64: 0, 1, 2, 3>}> : (tensor<256x256x3x3xf32>) -> tensor<256x256x3x3xf32> loc(#loc489)
        %190 = "ttir.conv2d"(%188, %189) <{batch_dim = 0 : i64, channel_dim = 1 : i64, dilation = array<i32: 1, 1>, groups = 1 : i32, height_dim = 2 : i64, padding = array<i32: 1, 1, 1, 1>, stride = array<i32: 1, 1>, width_dim = 3 : i64}> : (tensor<1x256x14x14xf32>, tensor<256x256x3x3xf32>) -> tensor<1x256x14x14xf32> loc(#loc402)
        %191 = "ttir.batch_norm_inference"(%190, %arg216, %arg215, %arg214, %arg213) <{dimension = 1 : i32, epsilon = 9.99999974E-6 : f32}> : (tensor<1x256x14x14xf32>, tensor<256xf32>, tensor<256xf32>, tensor<256xf32>, tensor<256xf32>) -> tensor<1x256x14x14xf32> loc(#loc403)
        %192 = "ttir.maximum"(%191, %5) : (tensor<1x256x14x14xf32>, tensor<1x256x14x14xf32>) -> tensor<1x256x14x14xf32> loc(#loc404)
        %193 = "ttir.permute"(%arg212) <{permutation = array<i64: 0, 1, 2, 3>}> : (tensor<1024x256x1x1xf32>) -> tensor<1024x256x1x1xf32> loc(#loc490)
        %194 = "ttir.conv2d"(%192, %193) <{batch_dim = 0 : i64, channel_dim = 1 : i64, dilation = array<i32: 1, 1>, groups = 1 : i32, height_dim = 2 : i64, padding = array<i32: 0, 0, 0, 0>, stride = array<i32: 1, 1>, width_dim = 3 : i64}> : (tensor<1x256x14x14xf32>, tensor<1024x256x1x1xf32>) -> tensor<1x1024x14x14xf32> loc(#loc405)
        %195 = "ttir.batch_norm_inference"(%194, %arg211, %arg210, %arg209, %arg208) <{dimension = 1 : i32, epsilon = 9.99999974E-6 : f32}> : (tensor<1x1024x14x14xf32>, tensor<1024xf32>, tensor<1024xf32>, tensor<1024xf32>, tensor<1024xf32>) -> tensor<1x1024x14x14xf32> loc(#loc406)
        %196 = "ttir.add"(%195, %184) : (tensor<1x1024x14x14xf32>, tensor<1x1024x14x14xf32>) -> tensor<1x1024x14x14xf32> loc(#loc407)
        %197 = "ttir.maximum"(%196, %4) : (tensor<1x1024x14x14xf32>, tensor<1x1024x14x14xf32>) -> tensor<1x1024x14x14xf32> loc(#loc408)
        %198 = "ttir.permute"(%arg237) <{permutation = array<i64: 0, 1, 2, 3>}> : (tensor<512x1024x1x1xf32>) -> tensor<512x1024x1x1xf32> loc(#loc491)
        %199 = "ttir.conv2d"(%197, %198) <{batch_dim = 0 : i64, channel_dim = 1 : i64, dilation = array<i32: 1, 1>, groups = 1 : i32, height_dim = 2 : i64, padding = array<i32: 0, 0, 0, 0>, stride = array<i32: 1, 1>, width_dim = 3 : i64}> : (tensor<1x1024x14x14xf32>, tensor<512x1024x1x1xf32>) -> tensor<1x512x14x14xf32> loc(#loc409)
        %200 = "ttir.batch_norm_inference"(%199, %arg236, %arg235, %arg234, %arg233) <{dimension = 1 : i32, epsilon = 9.99999974E-6 : f32}> : (tensor<1x512x14x14xf32>, tensor<512xf32>, tensor<512xf32>, tensor<512xf32>, tensor<512xf32>) -> tensor<1x512x14x14xf32> loc(#loc410)
        %201 = "ttir.maximum"(%200, %3) : (tensor<1x512x14x14xf32>, tensor<1x512x14x14xf32>) -> tensor<1x512x14x14xf32> loc(#loc411)
        %202 = "ttir.permute"(%arg232) <{permutation = array<i64: 0, 1, 2, 3>}> : (tensor<512x512x3x3xf32>) -> tensor<512x512x3x3xf32> loc(#loc492)
        %203 = "ttir.conv2d"(%201, %202) <{batch_dim = 0 : i64, channel_dim = 1 : i64, dilation = array<i32: 1, 1>, groups = 1 : i32, height_dim = 2 : i64, padding = array<i32: 1, 1, 1, 1>, stride = array<i32: 2, 2>, width_dim = 3 : i64}> : (tensor<1x512x14x14xf32>, tensor<512x512x3x3xf32>) -> tensor<1x512x7x7xf32> loc(#loc412)
        %204 = "ttir.batch_norm_inference"(%203, %arg231, %arg230, %arg229, %arg228) <{dimension = 1 : i32, epsilon = 9.99999974E-6 : f32}> : (tensor<1x512x7x7xf32>, tensor<512xf32>, tensor<512xf32>, tensor<512xf32>, tensor<512xf32>) -> tensor<1x512x7x7xf32> loc(#loc413)
        %205 = "ttir.maximum"(%204, %2) : (tensor<1x512x7x7xf32>, tensor<1x512x7x7xf32>) -> tensor<1x512x7x7xf32> loc(#loc414)
        %206 = "ttir.permute"(%arg227) <{permutation = array<i64: 0, 1, 2, 3>}> : (tensor<2048x512x1x1xf32>) -> tensor<2048x512x1x1xf32> loc(#loc493)
        %207 = "ttir.conv2d"(%205, %206) <{batch_dim = 0 : i64, channel_dim = 1 : i64, dilation = array<i32: 1, 1>, groups = 1 : i32, height_dim = 2 : i64, padding = array<i32: 0, 0, 0, 0>, stride = array<i32: 1, 1>, width_dim = 3 : i64}> : (tensor<1x512x7x7xf32>, tensor<2048x512x1x1xf32>) -> tensor<1x2048x7x7xf32> loc(#loc415)
        %208 = "ttir.batch_norm_inference"(%207, %arg226, %arg225, %arg224, %arg223) <{dimension = 1 : i32, epsilon = 9.99999974E-6 : f32}> : (tensor<1x2048x7x7xf32>, tensor<2048xf32>, tensor<2048xf32>, tensor<2048xf32>, tensor<2048xf32>) -> tensor<1x2048x7x7xf32> loc(#loc416)
        %209 = "ttir.permute"(%arg6) <{permutation = array<i64: 0, 1, 2, 3>}> : (tensor<2048x1024x1x1xf32>) -> tensor<2048x1024x1x1xf32> loc(#loc494)
        %210 = "ttir.conv2d"(%197, %209) <{batch_dim = 0 : i64, channel_dim = 1 : i64, dilation = array<i32: 1, 1>, groups = 1 : i32, height_dim = 2 : i64, padding = array<i32: 0, 0, 0, 0>, stride = array<i32: 2, 2>, width_dim = 3 : i64}> : (tensor<1x1024x14x14xf32>, tensor<2048x1024x1x1xf32>) -> tensor<1x2048x7x7xf32> loc(#loc417)
        %211 = "ttir.batch_norm_inference"(%210, %arg5, %arg4, %arg3, %arg2) <{dimension = 1 : i32, epsilon = 9.99999974E-6 : f32}> : (tensor<1x2048x7x7xf32>, tensor<2048xf32>, tensor<2048xf32>, tensor<2048xf32>, tensor<2048xf32>) -> tensor<1x2048x7x7xf32> loc(#loc418)
        %212 = "ttir.add"(%208, %211) : (tensor<1x2048x7x7xf32>, tensor<1x2048x7x7xf32>) -> tensor<1x2048x7x7xf32> loc(#loc419)
        %213 = "ttir.maximum"(%212, %1) : (tensor<1x2048x7x7xf32>, tensor<1x2048x7x7xf32>) -> tensor<1x2048x7x7xf32> loc(#loc420)
        %214 = "ttir.permute"(%arg252) <{permutation = array<i64: 0, 1, 2, 3>}> : (tensor<512x2048x1x1xf32>) -> tensor<512x2048x1x1xf32> loc(#loc495)
        %215 = "ttir.conv2d"(%213, %214) <{batch_dim = 0 : i64, channel_dim = 1 : i64, dilation = array<i32: 1, 1>, groups = 1 : i32, height_dim = 2 : i64, padding = array<i32: 0, 0, 0, 0>, stride = array<i32: 1, 1>, width_dim = 3 : i64}> : (tensor<1x2048x7x7xf32>, tensor<512x2048x1x1xf32>) -> tensor<1x512x7x7xf32> loc(#loc421)
        %216 = "ttir.batch_norm_inference"(%215, %arg251, %arg250, %arg249, %arg248) <{dimension = 1 : i32, epsilon = 9.99999974E-6 : f32}> : (tensor<1x512x7x7xf32>, tensor<512xf32>, tensor<512xf32>, tensor<512xf32>, tensor<512xf32>) -> tensor<1x512x7x7xf32> loc(#loc422)
        %217 = "ttir.maximum"(%216, %2) : (tensor<1x512x7x7xf32>, tensor<1x512x7x7xf32>) -> tensor<1x512x7x7xf32> loc(#loc423)
        %218 = "ttir.permute"(%arg247) <{permutation = array<i64: 0, 1, 2, 3>}> : (tensor<512x512x3x3xf32>) -> tensor<512x512x3x3xf32> loc(#loc496)
        %219 = "ttir.conv2d"(%217, %218) <{batch_dim = 0 : i64, channel_dim = 1 : i64, dilation = array<i32: 1, 1>, groups = 1 : i32, height_dim = 2 : i64, padding = array<i32: 1, 1, 1, 1>, stride = array<i32: 1, 1>, width_dim = 3 : i64}> : (tensor<1x512x7x7xf32>, tensor<512x512x3x3xf32>) -> tensor<1x512x7x7xf32> loc(#loc424)
        %220 = "ttir.batch_norm_inference"(%219, %arg246, %arg245, %arg244, %arg243) <{dimension = 1 : i32, epsilon = 9.99999974E-6 : f32}> : (tensor<1x512x7x7xf32>, tensor<512xf32>, tensor<512xf32>, tensor<512xf32>, tensor<512xf32>) -> tensor<1x512x7x7xf32> loc(#loc425)
        %221 = "ttir.maximum"(%220, %2) : (tensor<1x512x7x7xf32>, tensor<1x512x7x7xf32>) -> tensor<1x512x7x7xf32> loc(#loc426)
        %222 = "ttir.permute"(%arg242) <{permutation = array<i64: 0, 1, 2, 3>}> : (tensor<2048x512x1x1xf32>) -> tensor<2048x512x1x1xf32> loc(#loc497)
        %223 = "ttir.conv2d"(%221, %222) <{batch_dim = 0 : i64, channel_dim = 1 : i64, dilation = array<i32: 1, 1>, groups = 1 : i32, height_dim = 2 : i64, padding = array<i32: 0, 0, 0, 0>, stride = array<i32: 1, 1>, width_dim = 3 : i64}> : (tensor<1x512x7x7xf32>, tensor<2048x512x1x1xf32>) -> tensor<1x2048x7x7xf32> loc(#loc427)
        %224 = "ttir.batch_norm_inference"(%223, %arg241, %arg240, %arg239, %arg238) <{dimension = 1 : i32, epsilon = 9.99999974E-6 : f32}> : (tensor<1x2048x7x7xf32>, tensor<2048xf32>, tensor<2048xf32>, tensor<2048xf32>, tensor<2048xf32>) -> tensor<1x2048x7x7xf32> loc(#loc428)
        %225 = "ttir.add"(%224, %213) : (tensor<1x2048x7x7xf32>, tensor<1x2048x7x7xf32>) -> tensor<1x2048x7x7xf32> loc(#loc429)
        %226 = "ttir.maximum"(%225, %1) : (tensor<1x2048x7x7xf32>, tensor<1x2048x7x7xf32>) -> tensor<1x2048x7x7xf32> loc(#loc430)
        %227 = "ttir.permute"(%arg267) <{permutation = array<i64: 0, 1, 2, 3>}> : (tensor<512x2048x1x1xf32>) -> tensor<512x2048x1x1xf32> loc(#loc498)
        %228 = "ttir.conv2d"(%226, %227) <{batch_dim = 0 : i64, channel_dim = 1 : i64, dilation = array<i32: 1, 1>, groups = 1 : i32, height_dim = 2 : i64, padding = array<i32: 0, 0, 0, 0>, stride = array<i32: 1, 1>, width_dim = 3 : i64}> : (tensor<1x2048x7x7xf32>, tensor<512x2048x1x1xf32>) -> tensor<1x512x7x7xf32> loc(#loc431)
        %229 = "ttir.batch_norm_inference"(%228, %arg266, %arg265, %arg264, %arg263) <{dimension = 1 : i32, epsilon = 9.99999974E-6 : f32}> : (tensor<1x512x7x7xf32>, tensor<512xf32>, tensor<512xf32>, tensor<512xf32>, tensor<512xf32>) -> tensor<1x512x7x7xf32> loc(#loc432)
        %230 = "ttir.maximum"(%229, %2) : (tensor<1x512x7x7xf32>, tensor<1x512x7x7xf32>) -> tensor<1x512x7x7xf32> loc(#loc433)
        %231 = "ttir.permute"(%arg262) <{permutation = array<i64: 0, 1, 2, 3>}> : (tensor<512x512x3x3xf32>) -> tensor<512x512x3x3xf32> loc(#loc499)
        %232 = "ttir.conv2d"(%230, %231) <{batch_dim = 0 : i64, channel_dim = 1 : i64, dilation = array<i32: 1, 1>, groups = 1 : i32, height_dim = 2 : i64, padding = array<i32: 1, 1, 1, 1>, stride = array<i32: 1, 1>, width_dim = 3 : i64}> : (tensor<1x512x7x7xf32>, tensor<512x512x3x3xf32>) -> tensor<1x512x7x7xf32> loc(#loc434)
        %233 = "ttir.batch_norm_inference"(%232, %arg261, %arg260, %arg259, %arg258) <{dimension = 1 : i32, epsilon = 9.99999974E-6 : f32}> : (tensor<1x512x7x7xf32>, tensor<512xf32>, tensor<512xf32>, tensor<512xf32>, tensor<512xf32>) -> tensor<1x512x7x7xf32> loc(#loc435)
        %234 = "ttir.maximum"(%233, %2) : (tensor<1x512x7x7xf32>, tensor<1x512x7x7xf32>) -> tensor<1x512x7x7xf32> loc(#loc436)
        %235 = "ttir.permute"(%arg257) <{permutation = array<i64: 0, 1, 2, 3>}> : (tensor<2048x512x1x1xf32>) -> tensor<2048x512x1x1xf32> loc(#loc500)
        %236 = "ttir.conv2d"(%234, %235) <{batch_dim = 0 : i64, channel_dim = 1 : i64, dilation = array<i32: 1, 1>, groups = 1 : i32, height_dim = 2 : i64, padding = array<i32: 0, 0, 0, 0>, stride = array<i32: 1, 1>, width_dim = 3 : i64}> : (tensor<1x512x7x7xf32>, tensor<2048x512x1x1xf32>) -> tensor<1x2048x7x7xf32> loc(#loc437)
        %237 = "ttir.batch_norm_inference"(%236, %arg256, %arg255, %arg254, %arg253) <{dimension = 1 : i32, epsilon = 9.99999974E-6 : f32}> : (tensor<1x2048x7x7xf32>, tensor<2048xf32>, tensor<2048xf32>, tensor<2048xf32>, tensor<2048xf32>) -> tensor<1x2048x7x7xf32> loc(#loc438)
        %238 = "ttir.add"(%237, %226) : (tensor<1x2048x7x7xf32>, tensor<1x2048x7x7xf32>) -> tensor<1x2048x7x7xf32> loc(#loc439)
        %239 = "ttir.maximum"(%238, %1) : (tensor<1x2048x7x7xf32>, tensor<1x2048x7x7xf32>) -> tensor<1x2048x7x7xf32> loc(#loc440)
        %240 = "ttir.sum"(%239) <{dim_arg = [2 : i32, 3 : i32], keep_dim = false}> : (tensor<1x2048x7x7xf32>) -> tensor<1x2048xf32> loc(#loc441)
        %241 = "ttir.multiply"(%240, %0) : (tensor<1x2048xf32>, tensor<1x2048xf32>) -> tensor<1x2048xf32> loc(#loc442)
        %242 = "ttir.permute"(%arg1) <{permutation = array<i64: 1, 0>}> : (tensor<1000x2048xf32>) -> tensor<2048x1000xf32> loc(#loc443)
        %243 = "ttir.dot_general"(%241, %242) <{batch_dims_lhs = array<i64>, batch_dims_rhs = array<i64>, contract_dims_lhs = array<i64: 1>, contract_dims_rhs = array<i64: 0>}> : (tensor<1x2048xf32>, tensor<2048x1000xf32>) -> tensor<1x1000xf32> loc(#loc444)
        %244 = "ttir.reshape"(%arg0) <{shape = [1 : i32, 1000 : i32]}> : (tensor<1000xf32>) -> tensor<1x1000xf32> loc(#loc501)
        %245 = "ttir.add"(%243, %244) : (tensor<1x1000xf32>, tensor<1x1000xf32>) -> tensor<1x1000xf32> loc(#loc447)
        return %245 : tensor<1x1000xf32> loc(#loc)
      } loc(#loc)
    } loc(#loc)
  } loc(#loc)
} loc(#loc)
#loc = loc(unknown)
#loc269 = loc("convolution.123")
#loc270 = loc("batch-norm-inference.124")
#loc271 = loc("maximum.131")
#loc272 = loc("reduce-window.143")
#loc273 = loc("convolution.364")
#loc274 = loc("batch-norm-inference.365")
#loc275 = loc("maximum.372")
#loc276 = loc("convolution.373")
#loc277 = loc("batch-norm-inference.374")
#loc278 = loc("maximum.381")
#loc279 = loc("convolution.382")
#loc280 = loc("batch-norm-inference.383")
#loc281 = loc("convolution.304")
#loc282 = loc("batch-norm-inference.305")
#loc283 = loc("add.390")
#loc284 = loc("maximum.393")
#loc285 = loc("convolution.448")
#loc286 = loc("batch-norm-inference.449")
#loc287 = loc("maximum.456")
#loc288 = loc("convolution.457")
#loc289 = loc("batch-norm-inference.458")
#loc290 = loc("maximum.465")
#loc291 = loc("convolution.466")
#loc292 = loc("batch-norm-inference.467")
#loc293 = loc("add.474")
#loc294 = loc("maximum.477")
#loc295 = loc("convolution.532")
#loc296 = loc("batch-norm-inference.533")
#loc297 = loc("maximum.540")
#loc298 = loc("convolution.541")
#loc299 = loc("batch-norm-inference.542")
#loc300 = loc("maximum.549")
#loc301 = loc("convolution.550")
#loc302 = loc("batch-norm-inference.551")
#loc303 = loc("add.558")
#loc304 = loc("maximum.561")
#loc305 = loc("convolution.622")
#loc306 = loc("batch-norm-inference.623")
#loc307 = loc("maximum.630")
#loc308 = loc("convolution.631")
#loc309 = loc("batch-norm-inference.632")
#loc310 = loc("maximum.639")
#loc311 = loc("convolution.640")
#loc312 = loc("batch-norm-inference.641")
#loc313 = loc("convolution.562")
#loc314 = loc("batch-norm-inference.563")
#loc315 = loc("add.648")
#loc316 = loc("maximum.651")
#loc317 = loc("convolution.706")
#loc318 = loc("batch-norm-inference.707")
#loc319 = loc("maximum.714")
#loc320 = loc("convolution.715")
#loc321 = loc("batch-norm-inference.716")
#loc322 = loc("maximum.723")
#loc323 = loc("convolution.724")
#loc324 = loc("batch-norm-inference.725")
#loc325 = loc("add.732")
#loc326 = loc("maximum.735")
#loc327 = loc("convolution.790")
#loc328 = loc("batch-norm-inference.791")
#loc329 = loc("maximum.798")
#loc330 = loc("convolution.799")
#loc331 = loc("batch-norm-inference.800")
#loc332 = loc("maximum.807")
#loc333 = loc("convolution.808")
#loc334 = loc("batch-norm-inference.809")
#loc335 = loc("add.816")
#loc336 = loc("maximum.819")
#loc337 = loc("convolution.874")
#loc338 = loc("batch-norm-inference.875")
#loc339 = loc("maximum.882")
#loc340 = loc("convolution.883")
#loc341 = loc("batch-norm-inference.884")
#loc342 = loc("maximum.891")
#loc343 = loc("convolution.892")
#loc344 = loc("batch-norm-inference.893")
#loc345 = loc("add.900")
#loc346 = loc("maximum.903")
#loc347 = loc("convolution.964")
#loc348 = loc("batch-norm-inference.965")
#loc349 = loc("maximum.972")
#loc350 = loc("convolution.973")
#loc351 = loc("batch-norm-inference.974")
#loc352 = loc("maximum.981")
#loc353 = loc("convolution.982")
#loc354 = loc("batch-norm-inference.983")
#loc355 = loc("convolution.904")
#loc356 = loc("batch-norm-inference.905")
#loc357 = loc("add.990")
#loc358 = loc("maximum.993")
#loc359 = loc("convolution.1048")
#loc360 = loc("batch-norm-inference.1049")
#loc361 = loc("maximum.1056")
#loc362 = loc("convolution.1057")
#loc363 = loc("batch-norm-inference.1058")
#loc364 = loc("maximum.1065")
#loc365 = loc("convolution.1066")
#loc366 = loc("batch-norm-inference.1067")
#loc367 = loc("add.1074")
#loc368 = loc("maximum.1077")
#loc369 = loc("convolution.1132")
#loc370 = loc("batch-norm-inference.1133")
#loc371 = loc("maximum.1140")
#loc372 = loc("convolution.1141")
#loc373 = loc("batch-norm-inference.1142")
#loc374 = loc("maximum.1149")
#loc375 = loc("convolution.1150")
#loc376 = loc("batch-norm-inference.1151")
#loc377 = loc("add.1158")
#loc378 = loc("maximum.1161")
#loc379 = loc("convolution.1216")
#loc380 = loc("batch-norm-inference.1217")
#loc381 = loc("maximum.1224")
#loc382 = loc("convolution.1225")
#loc383 = loc("batch-norm-inference.1226")
#loc384 = loc("maximum.1233")
#loc385 = loc("convolution.1234")
#loc386 = loc("batch-norm-inference.1235")
#loc387 = loc("add.1242")
#loc388 = loc("maximum.1245")
#loc389 = loc("convolution.1300")
#loc390 = loc("batch-norm-inference.1301")
#loc391 = loc("maximum.1308")
#loc392 = loc("convolution.1309")
#loc393 = loc("batch-norm-inference.1310")
#loc394 = loc("maximum.1317")
#loc395 = loc("convolution.1318")
#loc396 = loc("batch-norm-inference.1319")
#loc397 = loc("add.1326")
#loc398 = loc("maximum.1329")
#loc399 = loc("convolution.1384")
#loc400 = loc("batch-norm-inference.1385")
#loc401 = loc("maximum.1392")
#loc402 = loc("convolution.1393")
#loc403 = loc("batch-norm-inference.1394")
#loc404 = loc("maximum.1401")
#loc405 = loc("convolution.1402")
#loc406 = loc("batch-norm-inference.1403")
#loc407 = loc("add.1410")
#loc408 = loc("maximum.1413")
#loc409 = loc("convolution.1474")
#loc410 = loc("batch-norm-inference.1475")
#loc411 = loc("maximum.1482")
#loc412 = loc("convolution.1483")
#loc413 = loc("batch-norm-inference.1484")
#loc414 = loc("maximum.1491")
#loc415 = loc("convolution.1492")
#loc416 = loc("batch-norm-inference.1493")
#loc417 = loc("convolution.1414")
#loc418 = loc("batch-norm-inference.1415")
#loc419 = loc("add.1500")
#loc420 = loc("maximum.1503")
#loc421 = loc("convolution.1558")
#loc422 = loc("batch-norm-inference.1559")
#loc423 = loc("maximum.1566")
#loc424 = loc("convolution.1567")
#loc425 = loc("batch-norm-inference.1568")
#loc426 = loc("maximum.1575")
#loc427 = loc("convolution.1576")
#loc428 = loc("batch-norm-inference.1577")
#loc429 = loc("add.1584")
#loc430 = loc("maximum.1587")
#loc431 = loc("convolution.1642")
#loc432 = loc("batch-norm-inference.1643")
#loc433 = loc("maximum.1650")
#loc434 = loc("convolution.1651")
#loc435 = loc("batch-norm-inference.1652")
#loc436 = loc("maximum.1659")
#loc437 = loc("convolution.1660")
#loc438 = loc("batch-norm-inference.1661")
#loc439 = loc("add.1668")
#loc440 = loc("maximum.1671")
#loc441 = loc("reduce.1678")
#loc442 = loc("multiply.1687")
#loc443 = loc("transpose.14")
#loc444 = loc("dot.1690")
#loc445 = loc("broadcast.1695")
#loc446 = loc("reshape.4")
#loc447 = loc("add.1696")
#loc448 = loc("convolution.123_weight"(#loc269))
#loc449 = loc("convolution.364_weight"(#loc273))
#loc450 = loc("convolution.373_weight"(#loc276))
#loc451 = loc("convolution.382_weight"(#loc279))
#loc452 = loc("convolution.304_weight"(#loc281))
#loc453 = loc("convolution.448_weight"(#loc285))
#loc454 = loc("convolution.457_weight"(#loc288))
#loc455 = loc("convolution.466_weight"(#loc291))
#loc456 = loc("convolution.532_weight"(#loc295))
#loc457 = loc("convolution.541_weight"(#loc298))
#loc458 = loc("convolution.550_weight"(#loc301))
#loc459 = loc("convolution.622_weight"(#loc305))
#loc460 = loc("convolution.631_weight"(#loc308))
#loc461 = loc("convolution.640_weight"(#loc311))
#loc462 = loc("convolution.562_weight"(#loc313))
#loc463 = loc("convolution.706_weight"(#loc317))
#loc464 = loc("convolution.715_weight"(#loc320))
#loc465 = loc("convolution.724_weight"(#loc323))
#loc466 = loc("convolution.790_weight"(#loc327))
#loc467 = loc("convolution.799_weight"(#loc330))
#loc468 = loc("convolution.808_weight"(#loc333))
#loc469 = loc("convolution.874_weight"(#loc337))
#loc470 = loc("convolution.883_weight"(#loc340))
#loc471 = loc("convolution.892_weight"(#loc343))
#loc472 = loc("convolution.964_weight"(#loc347))
#loc473 = loc("convolution.973_weight"(#loc350))
#loc474 = loc("convolution.982_weight"(#loc353))
#loc475 = loc("convolution.904_weight"(#loc355))
#loc476 = loc("convolution.1048_weight"(#loc359))
#loc477 = loc("convolution.1057_weight"(#loc362))
#loc478 = loc("convolution.1066_weight"(#loc365))
#loc479 = loc("convolution.1132_weight"(#loc369))
#loc480 = loc("convolution.1141_weight"(#loc372))
#loc481 = loc("convolution.1150_weight"(#loc375))
#loc482 = loc("convolution.1216_weight"(#loc379))
#loc483 = loc("convolution.1225_weight"(#loc382))
#loc484 = loc("convolution.1234_weight"(#loc385))
#loc485 = loc("convolution.1300_weight"(#loc389))
#loc486 = loc("convolution.1309_weight"(#loc392))
#loc487 = loc("convolution.1318_weight"(#loc395))
#loc488 = loc("convolution.1384_weight"(#loc399))
#loc489 = loc("convolution.1393_weight"(#loc402))
#loc490 = loc("convolution.1402_weight"(#loc405))
#loc491 = loc("convolution.1474_weight"(#loc409))
#loc492 = loc("convolution.1483_weight"(#loc412))
#loc493 = loc("convolution.1492_weight"(#loc415))
#loc494 = loc("convolution.1414_weight"(#loc417))
#loc495 = loc("convolution.1558_weight"(#loc421))
#loc496 = loc("convolution.1567_weight"(#loc424))
#loc497 = loc("convolution.1576_weight"(#loc427))
#loc498 = loc("convolution.1642_weight"(#loc431))
#loc499 = loc("convolution.1651_weight"(#loc434))
#loc500 = loc("convolution.1660_weight"(#loc437))
#loc501 = loc(fused[#loc445, #loc446])
